…
I0721 00:01:53.256914 25482 net.cpp:42] Initializing net from parameters: 
name: "FCN"
state {
  phase: TRAIN
}
layer {
  name: "data"
  type: "ImageSegData"
  top: "data"
  top: "label"
  include {
    phase: TRAIN
  }
  transform_param {
    mirror: true
    crop_size: 388
    mean_value: 104.008
    mean_value: 116.669
    mean_value: 122.675
  }
  image_data_param {
    source: "/media/BigDisk/xiaoyong/datafrommac/ourfacedata_train_2/traindatalist_2.txt"
    batch_size: 1
    shuffle: true
    root_folder: ""
    ignore_label: 255
    label_type: PIXEL
  }
}
layer {
  name: "conv1_1"
  type: "Convolution"
  bottom: "data"
  top: "conv1_1"
  param {
    lr_mult: 1
    decay_mult: 1
  }
  param {
    lr_mult: 2
    decay_mult: 0
  }
  convolution_param {
    num_output: 64
    pad: 100
    kernel_size: 3
    engine: CAFFE
  }
}
layer {
  name: "relu1_1"
  type: "ReLU"
  bottom: "conv1_1"
  top: "conv1_1"
}
layer {
  name: "conv1_2"
  type: "Convolution"
  bottom: "conv1_1"
  top: "conv1_2"
  param {
    lr_mult: 1
    decay_mult: 1
  }
  param {
    lr_mult: 2
    decay_mult: 0
  }
  convolution_param {
    num_output: 64
    pad: 1
    kernel_size: 3
    engine: CAFFE
  }
}
layer {
  name: "relu1_2"
  type: "ReLU"
  bottom: "conv1_2"
  top: "conv1_2"
}
layer {
  name: "pool1"
  type: "Pooling"
  bottom: "conv1_2"
  top: "pool1"
  pooling_param {
    pool: MAX
    kernel_size: 2
    stride: 2
  }
}
layer {
  name: "conv2_1"
  type: "Convolution"
  bottom: "pool1"
  top: "conv2_1"
  param {
    lr_mult: 1
    decay_mult: 1
  }
  param {
    lr_mult: 2
    decay_mult: 0
  }
  convolution_param {
    num_output: 128
    pad: 1
    kernel_size: 3
    engine: CAFFE
  }
}
layer {
  name: "relu2_1"
  type: "ReLU"
  bottom: "conv2_1"
  top: "conv2_1"
}
layer {
  name: "conv2_2"
  type: "Convolution"
  bottom: "conv2_1"
  top: "conv2_2"
  param {
    lr_mult: 1
    decay_mult: 1
  }
  param {
    lr_mult: 2
    decay_mult: 0
  }
  convolution_param {
    num_output: 128
    pad: 1
    kernel_size: 3
    engine: CAFFE
  }
}
layer {
  name: "relu2_2"
  type: "ReLU"
  bottom: "conv2_2"
  top: "conv2_2"
}
layer {
  name: "pool2"
  type: "Pooling"
  bottom: "conv2_2"
  top: "pool2"
  pooling_param {
    pool: MAX
    kernel_size: 2
    stride: 2
  }
}
layer {
  name: "conv3_1"
  type: "Convolution"
  bottom: "pool2"
  top: "conv3_1"
  param {
    lr_mult: 1
    decay_mult: 1
  }
  param {
    lr_mult: 2
    decay_mult: 0
  }
  convolution_param {
    num_output: 256
    pad: 1
    kernel_size: 3
    engine: CAFFE
  }
}
layer {
  name: "relu3_1"
  type: "ReLU"
  bottom: "conv3_1"
  top: "conv3_1"
}
layer {
  name: "conv3_2"
  type: "Convolution"
  bottom: "conv3_1"
  top: "conv3_2"
  param {
    lr_mult: 1
    decay_mult: 1
  }
  param {
    lr_mult: 2
    decay_mult: 0
  }
  convolution_param {
    num_output: 256
    pad: 1
    kernel_size: 3
    engine: CAFFE
  }
}
layer {
  name: "relu3_2"
  type: "ReLU"
  bottom: "conv3_2"
  top: "conv3_2"
}
layer {
  name: "conv3_3"
  type: "Convolution"
  bottom: "conv3_2"
  top: "conv3_3"
  param {
    lr_mult: 1
    decay_mult: 1
  }
  param {
    lr_mult: 2
    decay_mult: 0
  }
  convolution_param {
    num_output: 256
    pad: 1
    kernel_size: 3
    engine: CAFFE
  }
}
layer {
  name: "relu3_3"
  type: "ReLU"
  bottom: "conv3_3"
  top: "conv3_3"
}
layer {
  name: "pool3"
  type: "Pooling"
  bottom: "conv3_3"
  top: "pool3"
  pooling_param {
    pool: MAX
    kernel_size: 2
    stride: 2
  }
}
layer {
  name: "conv4_1"
  type: "Convolution"
  bottom: "pool3"
  top: "conv4_1"
  param {
    lr_mult: 1
    decay_mult: 1
  }
  param {
    lr_mult: 2
    decay_mult: 0
  }
  convolution_param {
    num_output: 512
    pad: 1
    kernel_size: 3
    engine: CAFFE
  }
}
layer {
  name: "relu4_1"
  type: "ReLU"
  bottom: "conv4_1"
  top: "conv4_1"
}
layer {
  name: "conv4_2"
  type: "Convolution"
  bottom: "conv4_1"
  top: "conv4_2"
  param {
    lr_mult: 1
    decay_mult: 1
  }
  param {
    lr_mult: 2
    decay_mult: 0
  }
  convolution_param {
    num_output: 512
    pad: 1
    kernel_size: 3
    engine: CAFFE
  }
}
layer {
  name: "relu4_2"
  type: "ReLU"
  bottom: "conv4_2"
  top: "conv4_2"
}
layer {
  name: "conv4_3"
  type: "Convolution"
  bottom: "conv4_2"
  top: "conv4_3"
  param {
    lr_mult: 1
    decay_mult: 1
  }
  param {
    lr_mult: 2
    decay_mult: 0
  }
  convolution_param {
    num_output: 512
    pad: 1
    kernel_size: 3
    engine: CAFFE
  }
}
layer {
  name: "relu4_3"
  type: "ReLU"
  bottom: "conv4_3"
  top: "conv4_3"
}
layer {
  name: "pool4"
  type: "Pooling"
  bottom: "conv4_3"
  top: "pool4"
  pooling_param {
    pool: MAX
    kernel_size: 2
    stride: 2
  }
}
layer {
  name: "conv5_1"
  type: "Convolution"
  bottom: "pool4"
  top: "conv5_1"
  param {
    lr_mult: 1
    decay_mult: 1
  }
  param {
    lr_mult: 2
    decay_mult: 0
  }
  convolution_param {
    num_output: 512
    pad: 1
    kernel_size: 3
    engine: CAFFE
  }
}
layer {
  name: "relu5_1"
  type: "ReLU"
  bottom: "conv5_1"
  top: "conv5_1"
}
layer {
  name: "conv5_2"
  type: "Convolution"
  bottom: "conv5_1"
  top: "conv5_2"
  param {
    lr_mult: 1
    decay_mult: 1
  }
  param {
    lr_mult: 2
    decay_mult: 0
  }
  convolution_param {
    num_output: 512
    pad: 1
    kernel_size: 3
    engine: CAFFE
  }
}
layer {
  name: "relu5_2"
  type: "ReLU"
  bottom: "conv5_2"
  top: "conv5_2"
}
layer {
  name: "conv5_3"
  type: "Convolution"
  bottom: "conv5_2"
  top: "conv5_3"
  param {
    lr_mult: 1
    decay_mult: 1
  }
  param {
    lr_mult: 2
    decay_mult: 0
  }
  convolution_param {
    num_output: 512
    pad: 1
    kernel_size: 3
    engine: CAFFE
  }
}
layer {
  name: "relu5_3"
  type: "ReLU"
  bottom: "conv5_3"
  top: "conv5_3"
}
layer {
  name: "pool5"
  type: "Pooling"
  bottom: "conv5_3"
  top: "pool5"
  pooling_param {
    pool: MAX
    kernel_size: 2
    stride: 2
  }
}
layer {
  name: "fc6"
  type: "Convolution"
  bottom: "pool5"
  top: "fc6"
  param {
    lr_mult: 1
    decay_mult: 1
  }
  param {
    lr_mult: 2
    decay_mult: 0
  }
  convolution_param {
    num_output: 4096
    kernel_size: 7
    engine: CAFFE
  }
}
layer {
  name: "relu6"
  type: "ReLU"
  bottom: "fc6"
  top: "fc6"
}
layer {
  name: "drop6"
  type: "Dropout"
  bottom: "fc6"
  top: "fc6"
  dropout_param {
    dropout_ratio: 0.5
  }
}
layer {
  name: "fc7"
  type: "Convolution"
  bottom: "fc6"
  top: "fc7"
  param {
    lr_mult: 1
    decay_mult: 1
  }
  param {
    lr_mult: 2
    decay_mult: 0
  }
  convolution_param {
    num_output: 4096
    kernel_size: 1
    engine: CAFFE
  }
}
layer {
  name: "relu7"
  type: "ReLU"
  bottom: "fc7"
  top: "fc7"
}
layer {
  name: "drop7"
  type: "Dropout"
  bottom: "fc7"
  top: "fc7"
  dropout_param {
    dropout_ratio: 0.5
  }
}
layer {
  name: "score-fr"
  type: "Convolution"
  bottom: "fc7"
  top: "score"
  param {
    lr_mult: 1
    decay_mult: 1
  }
  param {
    lr_mult: 2
    decay_mult: 0
  }
  convolution_param {
    num_output: 2
    kernel_size: 1
    engine: CAFFE
  }
}
layer {
  name: "score2"
  type: "Deconvolution"
  bottom: "score"
  top: "score2"
  param {
    lr_mult: 1
    decay_mult: 1
  }
  param {
    lr_mult: 2
    decay_mult: 0
  }
  convolution_param {
    num_output: 2
    kernel_size: 4
    stride: 2
  }
}
layer {
  name: "score-pool4"
  type: "Convolution"
  bottom: "pool4"
  top: "score-pool4"
  param {
    lr_mult: 1
    decay_mult: 1
  }
  param {
    lr_mult: 2
    decay_mult: 0
  }
  convolution_param {
    num_output: 2
    kernel_size: 1
    engine: CAFFE
  }
}
layer {
  name: "crop"
  type: "Crop"
  bottom: "score-pool4"
  bottom: "score2"
  top: "score-pool4c"
}
layer {
  name: "fuse"
  type: "Eltwise"
  bottom: "score2"
  bottom: "score-pool4c"
  top: "score-fused"
  eltwise_param {
    operation: SUM
  }
}
layer {
  name: "score4"
  type: "Deconvolution"
  bottom: "score-fused"
  top: "score4"
  param {
    lr_mult: 1
    decay_mult: 1
  }
  convolution_param {
    num_output: 2
    bias_term: false
    kernel_size: 4
    stride: 2
  }
}
layer {
  name: "score-pool3"
  type: "Convolution"
  bottom: "pool3"
  top: "score-pool3"
  param {
    lr_mult: 1
    decay_mult: 1
  }
  param {
    lr_mult: 2
    decay_mult: 0
  }
  convolution_param {
    num_output: 2
    kernel_size: 1
    engine: CAFFE
  }
}
layer {
  name: "crop"
  type: "Crop"
  bottom: "score-pool3"
  bottom: "score4"
  top: "score-pool3c"
}
layer {
  name: "fuse"
  type: "Eltwise"
  bottom: "score4"
  bottom: "score-pool3c"
  top: "score-final"
  eltwise_param {
    operation: SUM
  }
}
layer {
  name: "upsample"
  type: "Deconvolution"
  bottom: "score-final"
  top: "bigscore"
  param {
    lr_mult: 1
  }
  convolution_param {
    num_output: 2
    bias_term: false
    kernel_size: 16
    stride: 8
  }
}
layer {
  name: "crop"
  type: "Crop"
  bottom: "bigscore"
  bottom: "data"
  top: "upscore"
}
layer {
  name: "loss"
  type: "SoftmaxWithLoss"
  bottom: "upscore"
  bottom: "label"
  top: "loss"
  loss_param {
    ignore_label: 255
  }
}
I0721 00:01:53.257119 25482 layer_factory.hpp:74] Creating layer data
I0721 00:01:53.257139 25482 net.cpp:85] Creating Layer data
I0721 00:01:53.257148 25482 net.cpp:339] data -> data
I0721 00:01:53.257161 25482 net.cpp:339] data -> label
I0721 00:01:53.257171 25482 net.cpp:339] data -> (automatic)
I0721 00:01:53.257176 25482 net.cpp:114] Setting up data
I0721 00:01:53.257521 25482 image_seg_data_layer.cpp:46] Opening file /media/BigDisk/xiaoyong/datafrommac/ourfacedata_train_2/traindatalist_2.txt
I0721 00:01:53.258407 25482 image_seg_data_layer.cpp:63] Shuffling data
I0721 00:01:53.258507 25482 image_seg_data_layer.cpp:68] A total of 900 images.
I0721 00:01:53.272131 25482 image_seg_data_layer.cpp:114] output data size: 1,3,388,388
I0721 00:01:53.272142 25482 image_seg_data_layer.cpp:118] output label size: 1,1,388,388
I0721 00:01:53.272146 25482 image_seg_data_layer.cpp:122] output data_dim size: 1,1,1,2
I0721 00:01:53.275706 25482 net.cpp:121] Top shape: 1 3 388 388 (451632)
I0721 00:01:53.275717 25482 net.cpp:121] Top shape: 1 1 388 388 (150544)
I0721 00:01:53.275724 25482 net.cpp:121] Top shape: 1 1 1 2 (2)
I0721 00:01:53.275732 25482 layer_factory.hpp:74] Creating layer data_data_0_split
I0721 00:01:53.275740 25482 net.cpp:85] Creating Layer data_data_0_split
I0721 00:01:53.275745 25482 net.cpp:381] data_data_0_split <- data
I0721 00:01:53.275755 25482 net.cpp:339] data_data_0_split -> data_data_0_split_0
I0721 00:01:53.275763 25482 net.cpp:339] data_data_0_split -> data_data_0_split_1
I0721 00:01:53.275770 25482 net.cpp:114] Setting up data_data_0_split
I0721 00:01:53.275785 25482 net.cpp:121] Top shape: 1 3 388 388 (451632)
I0721 00:01:53.275791 25482 net.cpp:121] Top shape: 1 3 388 388 (451632)
I0721 00:01:53.275795 25482 layer_factory.hpp:74] Creating layer conv1_1
I0721 00:01:53.275804 25482 net.cpp:85] Creating Layer conv1_1
I0721 00:01:53.275811 25482 net.cpp:381] conv1_1 <- data_data_0_split_0
I0721 00:01:53.275817 25482 net.cpp:339] conv1_1 -> conv1_1
I0721 00:01:53.275835 25482 net.cpp:114] Setting up conv1_1
I0721 00:01:53.276557 25482 net.cpp:121] Top shape: 1 64 586 586 (21977344)
I0721 00:01:53.276573 25482 layer_factory.hpp:74] Creating layer relu1_1
I0721 00:01:53.276582 25482 net.cpp:85] Creating Layer relu1_1
I0721 00:01:53.276587 25482 net.cpp:381] relu1_1 <- conv1_1
I0721 00:01:53.276592 25482 net.cpp:328] relu1_1 -> conv1_1 (in-place)
I0721 00:01:53.276598 25482 net.cpp:114] Setting up relu1_1
I0721 00:01:53.276604 25482 net.cpp:121] Top shape: 1 64 586 586 (21977344)
I0721 00:01:53.276609 25482 layer_factory.hpp:74] Creating layer conv1_2
I0721 00:01:53.276618 25482 net.cpp:85] Creating Layer conv1_2
I0721 00:01:53.276623 25482 net.cpp:381] conv1_2 <- conv1_1
I0721 00:01:53.276628 25482 net.cpp:339] conv1_2 -> conv1_2
I0721 00:01:53.276634 25482 net.cpp:114] Setting up conv1_2
I0721 00:01:53.277343 25482 net.cpp:121] Top shape: 1 64 586 586 (21977344)
I0721 00:01:53.277355 25482 layer_factory.hpp:74] Creating layer relu1_2
I0721 00:01:53.277365 25482 net.cpp:85] Creating Layer relu1_2
I0721 00:01:53.277372 25482 net.cpp:381] relu1_2 <- conv1_2
I0721 00:01:53.277379 25482 net.cpp:328] relu1_2 -> conv1_2 (in-place)
I0721 00:01:53.277385 25482 net.cpp:114] Setting up relu1_2
I0721 00:01:53.277392 25482 net.cpp:121] Top shape: 1 64 586 586 (21977344)
I0721 00:01:53.277397 25482 layer_factory.hpp:74] Creating layer pool1
I0721 00:01:53.277402 25482 net.cpp:85] Creating Layer pool1
I0721 00:01:53.277407 25482 net.cpp:381] pool1 <- conv1_2
I0721 00:01:53.277416 25482 net.cpp:339] pool1 -> pool1
I0721 00:01:53.277425 25482 net.cpp:114] Setting up pool1
I0721 00:01:53.277436 25482 net.cpp:121] Top shape: 1 64 293 293 (5494336)
I0721 00:01:53.277441 25482 layer_factory.hpp:74] Creating layer conv2_1
I0721 00:01:53.277448 25482 net.cpp:85] Creating Layer conv2_1
I0721 00:01:53.277453 25482 net.cpp:381] conv2_1 <- pool1
I0721 00:01:53.277461 25482 net.cpp:339] conv2_1 -> conv2_1
I0721 00:01:53.277467 25482 net.cpp:114] Setting up conv2_1
I0721 00:01:53.277783 25482 net.cpp:121] Top shape: 1 128 293 293 (10988672)
I0721 00:01:53.277796 25482 layer_factory.hpp:74] Creating layer relu2_1
I0721 00:01:53.277806 25482 net.cpp:85] Creating Layer relu2_1
I0721 00:01:53.277812 25482 net.cpp:381] relu2_1 <- conv2_1
I0721 00:01:53.277817 25482 net.cpp:328] relu2_1 -> conv2_1 (in-place)
I0721 00:01:53.277824 25482 net.cpp:114] Setting up relu2_1
I0721 00:01:53.277832 25482 net.cpp:121] Top shape: 1 128 293 293 (10988672)
I0721 00:01:53.277840 25482 layer_factory.hpp:74] Creating layer conv2_2
I0721 00:01:53.277849 25482 net.cpp:85] Creating Layer conv2_2
I0721 00:01:53.277856 25482 net.cpp:381] conv2_2 <- conv2_1
I0721 00:01:53.277873 25482 net.cpp:339] conv2_2 -> conv2_2
I0721 00:01:53.277885 25482 net.cpp:114] Setting up conv2_2
I0721 00:01:53.278327 25482 net.cpp:121] Top shape: 1 128 293 293 (10988672)
I0721 00:01:53.278339 25482 layer_factory.hpp:74] Creating layer relu2_2
I0721 00:01:53.278347 25482 net.cpp:85] Creating Layer relu2_2
I0721 00:01:53.278349 25482 net.cpp:381] relu2_2 <- conv2_2
I0721 00:01:53.278355 25482 net.cpp:328] relu2_2 -> conv2_2 (in-place)
I0721 00:01:53.278363 25482 net.cpp:114] Setting up relu2_2
I0721 00:01:53.278368 25482 net.cpp:121] Top shape: 1 128 293 293 (10988672)
I0721 00:01:53.278373 25482 layer_factory.hpp:74] Creating layer pool2
I0721 00:01:53.278379 25482 net.cpp:85] Creating Layer pool2
I0721 00:01:53.278383 25482 net.cpp:381] pool2 <- conv2_2
I0721 00:01:53.278394 25482 net.cpp:339] pool2 -> pool2
I0721 00:01:53.278404 25482 net.cpp:114] Setting up pool2
I0721 00:01:53.278416 25482 net.cpp:121] Top shape: 1 128 147 147 (2765952)
I0721 00:01:53.278425 25482 layer_factory.hpp:74] Creating layer conv3_1
I0721 00:01:53.278435 25482 net.cpp:85] Creating Layer conv3_1
I0721 00:01:53.278444 25482 net.cpp:381] conv3_1 <- pool2
I0721 00:01:53.278460 25482 net.cpp:339] conv3_1 -> conv3_1
I0721 00:01:53.278471 25482 net.cpp:114] Setting up conv3_1
I0721 00:01:53.278975 25482 net.cpp:121] Top shape: 1 256 147 147 (5531904)
I0721 00:01:53.278988 25482 layer_factory.hpp:74] Creating layer relu3_1
I0721 00:01:53.279006 25482 net.cpp:85] Creating Layer relu3_1
I0721 00:01:53.279011 25482 net.cpp:381] relu3_1 <- conv3_1
I0721 00:01:53.279018 25482 net.cpp:328] relu3_1 -> conv3_1 (in-place)
I0721 00:01:53.279024 25482 net.cpp:114] Setting up relu3_1
I0721 00:01:53.279029 25482 net.cpp:121] Top shape: 1 256 147 147 (5531904)
I0721 00:01:53.279034 25482 layer_factory.hpp:74] Creating layer conv3_2
I0721 00:01:53.279042 25482 net.cpp:85] Creating Layer conv3_2
I0721 00:01:53.279045 25482 net.cpp:381] conv3_2 <- conv3_1
I0721 00:01:53.279054 25482 net.cpp:339] conv3_2 -> conv3_2
I0721 00:01:53.279064 25482 net.cpp:114] Setting up conv3_2
I0721 00:01:53.280881 25482 net.cpp:121] Top shape: 1 256 147 147 (5531904)
I0721 00:01:53.280917 25482 layer_factory.hpp:74] Creating layer relu3_2
I0721 00:01:53.280930 25482 net.cpp:85] Creating Layer relu3_2
I0721 00:01:53.280938 25482 net.cpp:381] relu3_2 <- conv3_2
I0721 00:01:53.280951 25482 net.cpp:328] relu3_2 -> conv3_2 (in-place)
I0721 00:01:53.280958 25482 net.cpp:114] Setting up relu3_2
I0721 00:01:53.280966 25482 net.cpp:121] Top shape: 1 256 147 147 (5531904)
I0721 00:01:53.280969 25482 layer_factory.hpp:74] Creating layer conv3_3
I0721 00:01:53.280978 25482 net.cpp:85] Creating Layer conv3_3
I0721 00:01:53.280982 25482 net.cpp:381] conv3_3 <- conv3_2
I0721 00:01:53.280990 25482 net.cpp:339] conv3_3 -> conv3_3
I0721 00:01:53.280998 25482 net.cpp:114] Setting up conv3_3
I0721 00:01:53.281991 25482 net.cpp:121] Top shape: 1 256 147 147 (5531904)
I0721 00:01:53.282016 25482 layer_factory.hpp:74] Creating layer relu3_3
I0721 00:01:53.282026 25482 net.cpp:85] Creating Layer relu3_3
I0721 00:01:53.282030 25482 net.cpp:381] relu3_3 <- conv3_3
I0721 00:01:53.282037 25482 net.cpp:328] relu3_3 -> conv3_3 (in-place)
I0721 00:01:53.282044 25482 net.cpp:114] Setting up relu3_3
I0721 00:01:53.282049 25482 net.cpp:121] Top shape: 1 256 147 147 (5531904)
I0721 00:01:53.282053 25482 layer_factory.hpp:74] Creating layer pool3
I0721 00:01:53.282059 25482 net.cpp:85] Creating Layer pool3
I0721 00:01:53.282063 25482 net.cpp:381] pool3 <- conv3_3
I0721 00:01:53.282070 25482 net.cpp:339] pool3 -> pool3
I0721 00:01:53.282078 25482 net.cpp:114] Setting up pool3
I0721 00:01:53.282084 25482 net.cpp:121] Top shape: 1 256 74 74 (1401856)
I0721 00:01:53.282089 25482 layer_factory.hpp:74] Creating layer pool3_pool3_0_split
I0721 00:01:53.282095 25482 net.cpp:85] Creating Layer pool3_pool3_0_split
I0721 00:01:53.282099 25482 net.cpp:381] pool3_pool3_0_split <- pool3
I0721 00:01:53.282106 25482 net.cpp:339] pool3_pool3_0_split -> pool3_pool3_0_split_0
I0721 00:01:53.282114 25482 net.cpp:339] pool3_pool3_0_split -> pool3_pool3_0_split_1
I0721 00:01:53.282122 25482 net.cpp:114] Setting up pool3_pool3_0_split
I0721 00:01:53.282129 25482 net.cpp:121] Top shape: 1 256 74 74 (1401856)
I0721 00:01:53.282133 25482 net.cpp:121] Top shape: 1 256 74 74 (1401856)
I0721 00:01:53.282137 25482 layer_factory.hpp:74] Creating layer conv4_1
I0721 00:01:53.282147 25482 net.cpp:85] Creating Layer conv4_1
I0721 00:01:53.282152 25482 net.cpp:381] conv4_1 <- pool3_pool3_0_split_0
I0721 00:01:53.282160 25482 net.cpp:339] conv4_1 -> conv4_1
I0721 00:01:53.282166 25482 net.cpp:114] Setting up conv4_1
I0721 00:01:53.288996 25482 net.cpp:121] Top shape: 1 512 74 74 (2803712)
I0721 00:01:53.289021 25482 layer_factory.hpp:74] Creating layer relu4_1
I0721 00:01:53.289032 25482 net.cpp:85] Creating Layer relu4_1
I0721 00:01:53.289041 25482 net.cpp:381] relu4_1 <- conv4_1
I0721 00:01:53.289048 25482 net.cpp:328] relu4_1 -> conv4_1 (in-place)
I0721 00:01:53.289058 25482 net.cpp:114] Setting up relu4_1
I0721 00:01:53.289065 25482 net.cpp:121] Top shape: 1 512 74 74 (2803712)
I0721 00:01:53.289072 25482 layer_factory.hpp:74] Creating layer conv4_2
I0721 00:01:53.289080 25482 net.cpp:85] Creating Layer conv4_2
I0721 00:01:53.289089 25482 net.cpp:381] conv4_2 <- conv4_1
I0721 00:01:53.289104 25482 net.cpp:339] conv4_2 -> conv4_2
I0721 00:01:53.289114 25482 net.cpp:114] Setting up conv4_2
I0721 00:01:53.307485 25482 net.cpp:121] Top shape: 1 512 74 74 (2803712)
I0721 00:01:53.307514 25482 layer_factory.hpp:74] Creating layer relu4_2
I0721 00:01:53.307524 25482 net.cpp:85] Creating Layer relu4_2
I0721 00:01:53.307531 25482 net.cpp:381] relu4_2 <- conv4_2
I0721 00:01:53.307539 25482 net.cpp:328] relu4_2 -> conv4_2 (in-place)
I0721 00:01:53.307548 25482 net.cpp:114] Setting up relu4_2
I0721 00:01:53.307554 25482 net.cpp:121] Top shape: 1 512 74 74 (2803712)
I0721 00:01:53.307559 25482 layer_factory.hpp:74] Creating layer conv4_3
I0721 00:01:53.307567 25482 net.cpp:85] Creating Layer conv4_3
I0721 00:01:53.307571 25482 net.cpp:381] conv4_3 <- conv4_2
I0721 00:01:53.307579 25482 net.cpp:339] conv4_3 -> conv4_3
I0721 00:01:53.307586 25482 net.cpp:114] Setting up conv4_3
I0721 00:01:53.326812 25482 net.cpp:121] Top shape: 1 512 74 74 (2803712)
I0721 00:01:53.326838 25482 layer_factory.hpp:74] Creating layer relu4_3
I0721 00:01:53.326848 25482 net.cpp:85] Creating Layer relu4_3
I0721 00:01:53.326854 25482 net.cpp:381] relu4_3 <- conv4_3
I0721 00:01:53.326861 25482 net.cpp:328] relu4_3 -> conv4_3 (in-place)
I0721 00:01:53.326869 25482 net.cpp:114] Setting up relu4_3
I0721 00:01:53.326874 25482 net.cpp:121] Top shape: 1 512 74 74 (2803712)
I0721 00:01:53.326880 25482 layer_factory.hpp:74] Creating layer pool4
I0721 00:01:53.326887 25482 net.cpp:85] Creating Layer pool4
I0721 00:01:53.326891 25482 net.cpp:381] pool4 <- conv4_3
I0721 00:01:53.326897 25482 net.cpp:339] pool4 -> pool4
I0721 00:01:53.326905 25482 net.cpp:114] Setting up pool4
I0721 00:01:53.326913 25482 net.cpp:121] Top shape: 1 512 37 37 (700928)
I0721 00:01:53.326917 25482 layer_factory.hpp:74] Creating layer pool4_pool4_0_split
I0721 00:01:53.326925 25482 net.cpp:85] Creating Layer pool4_pool4_0_split
I0721 00:01:53.326930 25482 net.cpp:381] pool4_pool4_0_split <- pool4
I0721 00:01:53.326936 25482 net.cpp:339] pool4_pool4_0_split -> pool4_pool4_0_split_0
I0721 00:01:53.326941 25482 net.cpp:339] pool4_pool4_0_split -> pool4_pool4_0_split_1
I0721 00:01:53.326949 25482 net.cpp:114] Setting up pool4_pool4_0_split
I0721 00:01:53.326961 25482 net.cpp:121] Top shape: 1 512 37 37 (700928)
I0721 00:01:53.326969 25482 net.cpp:121] Top shape: 1 512 37 37 (700928)
I0721 00:01:53.326975 25482 layer_factory.hpp:74] Creating layer conv5_1
I0721 00:01:53.326985 25482 net.cpp:85] Creating Layer conv5_1
I0721 00:01:53.326992 25482 net.cpp:381] conv5_1 <- pool4_pool4_0_split_0
I0721 00:01:53.326999 25482 net.cpp:339] conv5_1 -> conv5_1
I0721 00:01:53.327011 25482 net.cpp:114] Setting up conv5_1
I0721 00:01:53.342183 25482 net.cpp:121] Top shape: 1 512 37 37 (700928)
I0721 00:01:53.342211 25482 layer_factory.hpp:74] Creating layer relu5_1
I0721 00:01:53.342226 25482 net.cpp:85] Creating Layer relu5_1
I0721 00:01:53.342232 25482 net.cpp:381] relu5_1 <- conv5_1
I0721 00:01:53.342241 25482 net.cpp:328] relu5_1 -> conv5_1 (in-place)
I0721 00:01:53.342247 25482 net.cpp:114] Setting up relu5_1
I0721 00:01:53.342254 25482 net.cpp:121] Top shape: 1 512 37 37 (700928)
I0721 00:01:53.342259 25482 layer_factory.hpp:74] Creating layer conv5_2
I0721 00:01:53.342269 25482 net.cpp:85] Creating Layer conv5_2
I0721 00:01:53.342278 25482 net.cpp:381] conv5_2 <- conv5_1
I0721 00:01:53.342283 25482 net.cpp:339] conv5_2 -> conv5_2
I0721 00:01:53.342293 25482 net.cpp:114] Setting up conv5_2
I0721 00:01:53.361440 25482 net.cpp:121] Top shape: 1 512 37 37 (700928)
I0721 00:01:53.361464 25482 layer_factory.hpp:74] Creating layer relu5_2
I0721 00:01:53.361474 25482 net.cpp:85] Creating Layer relu5_2
I0721 00:01:53.361479 25482 net.cpp:381] relu5_2 <- conv5_2
I0721 00:01:53.361490 25482 net.cpp:328] relu5_2 -> conv5_2 (in-place)
I0721 00:01:53.361497 25482 net.cpp:114] Setting up relu5_2
I0721 00:01:53.361503 25482 net.cpp:121] Top shape: 1 512 37 37 (700928)
I0721 00:01:53.361508 25482 layer_factory.hpp:74] Creating layer conv5_3
I0721 00:01:53.361518 25482 net.cpp:85] Creating Layer conv5_3
I0721 00:01:53.361524 25482 net.cpp:381] conv5_3 <- conv5_2
I0721 00:01:53.361529 25482 net.cpp:339] conv5_3 -> conv5_3
I0721 00:01:53.361552 25482 net.cpp:114] Setting up conv5_3
I0721 00:01:53.379381 25482 net.cpp:121] Top shape: 1 512 37 37 (700928)
I0721 00:01:53.379410 25482 layer_factory.hpp:74] Creating layer relu5_3
I0721 00:01:53.379420 25482 net.cpp:85] Creating Layer relu5_3
I0721 00:01:53.379427 25482 net.cpp:381] relu5_3 <- conv5_3
I0721 00:01:53.379436 25482 net.cpp:328] relu5_3 -> conv5_3 (in-place)
I0721 00:01:53.379443 25482 net.cpp:114] Setting up relu5_3
I0721 00:01:53.379448 25482 net.cpp:121] Top shape: 1 512 37 37 (700928)
I0721 00:01:53.379453 25482 layer_factory.hpp:74] Creating layer pool5
I0721 00:01:53.379461 25482 net.cpp:85] Creating Layer pool5
I0721 00:01:53.379464 25482 net.cpp:381] pool5 <- conv5_3
I0721 00:01:53.379472 25482 net.cpp:339] pool5 -> pool5
I0721 00:01:53.379477 25482 net.cpp:114] Setting up pool5
I0721 00:01:53.379485 25482 net.cpp:121] Top shape: 1 512 19 19 (184832)
I0721 00:01:53.379489 25482 layer_factory.hpp:74] Creating layer fc6
I0721 00:01:53.379498 25482 net.cpp:85] Creating Layer fc6
I0721 00:01:53.379501 25482 net.cpp:381] fc6 <- pool5
I0721 00:01:53.379508 25482 net.cpp:339] fc6 -> fc6
I0721 00:01:53.379513 25482 net.cpp:114] Setting up fc6
I0721 00:01:54.238175 25482 net.cpp:121] Top shape: 1 4096 13 13 (692224)
I0721 00:01:54.238207 25482 layer_factory.hpp:74] Creating layer relu6
I0721 00:01:54.238219 25482 net.cpp:85] Creating Layer relu6
I0721 00:01:54.238227 25482 net.cpp:381] relu6 <- fc6
I0721 00:01:54.238234 25482 net.cpp:328] relu6 -> fc6 (in-place)
I0721 00:01:54.238245 25482 net.cpp:114] Setting up relu6
I0721 00:01:54.238251 25482 net.cpp:121] Top shape: 1 4096 13 13 (692224)
I0721 00:01:54.238256 25482 layer_factory.hpp:74] Creating layer drop6
I0721 00:01:54.238271 25482 net.cpp:85] Creating Layer drop6
I0721 00:01:54.238276 25482 net.cpp:381] drop6 <- fc6
I0721 00:01:54.238281 25482 net.cpp:328] drop6 -> fc6 (in-place)
I0721 00:01:54.238288 25482 net.cpp:114] Setting up drop6
I0721 00:01:54.238296 25482 net.cpp:121] Top shape: 1 4096 13 13 (692224)
I0721 00:01:54.238302 25482 layer_factory.hpp:74] Creating layer fc7
I0721 00:01:54.238312 25482 net.cpp:85] Creating Layer fc7
I0721 00:01:54.238315 25482 net.cpp:381] fc7 <- fc6
I0721 00:01:54.238322 25482 net.cpp:339] fc7 -> fc7
I0721 00:01:54.238328 25482 net.cpp:114] Setting up fc7
I0721 00:01:54.364419 25482 net.cpp:121] Top shape: 1 4096 13 13 (692224)
I0721 00:01:54.364446 25482 layer_factory.hpp:74] Creating layer relu7
I0721 00:01:54.364459 25482 net.cpp:85] Creating Layer relu7
I0721 00:01:54.364464 25482 net.cpp:381] relu7 <- fc7
I0721 00:01:54.364472 25482 net.cpp:328] relu7 -> fc7 (in-place)
I0721 00:01:54.364481 25482 net.cpp:114] Setting up relu7
I0721 00:01:54.364486 25482 net.cpp:121] Top shape: 1 4096 13 13 (692224)
I0721 00:01:54.364490 25482 layer_factory.hpp:74] Creating layer drop7
I0721 00:01:54.364496 25482 net.cpp:85] Creating Layer drop7
I0721 00:01:54.364501 25482 net.cpp:381] drop7 <- fc7
I0721 00:01:54.364508 25482 net.cpp:328] drop7 -> fc7 (in-place)
I0721 00:01:54.364513 25482 net.cpp:114] Setting up drop7
I0721 00:01:54.364521 25482 net.cpp:121] Top shape: 1 4096 13 13 (692224)
I0721 00:01:54.364526 25482 layer_factory.hpp:74] Creating layer score-fr
I0721 00:01:54.364532 25482 net.cpp:85] Creating Layer score-fr
I0721 00:01:54.364544 25482 net.cpp:381] score-fr <- fc7
I0721 00:01:54.364549 25482 net.cpp:339] score-fr -> score
I0721 00:01:54.364557 25482 net.cpp:114] Setting up score-fr
I0721 00:01:54.364576 25482 net.cpp:121] Top shape: 1 2 13 13 (338)
I0721 00:01:54.364584 25482 layer_factory.hpp:74] Creating layer score2
I0721 00:01:54.364595 25482 net.cpp:85] Creating Layer score2
I0721 00:01:54.364605 25482 net.cpp:381] score2 <- score
I0721 00:01:54.364615 25482 net.cpp:339] score2 -> score2
I0721 00:01:54.364624 25482 net.cpp:114] Setting up score2
I0721 00:01:54.364639 25482 net.cpp:121] Top shape: 1 2 28 28 (1568)
I0721 00:01:54.364656 25482 layer_factory.hpp:74] Creating layer score2_score2_0_split
I0721 00:01:54.364670 25482 net.cpp:85] Creating Layer score2_score2_0_split
I0721 00:01:54.364704 25482 net.cpp:381] score2_score2_0_split <- score2
I0721 00:01:54.364712 25482 net.cpp:339] score2_score2_0_split -> score2_score2_0_split_0
I0721 00:01:54.364719 25482 net.cpp:339] score2_score2_0_split -> score2_score2_0_split_1
I0721 00:01:54.364728 25482 net.cpp:114] Setting up score2_score2_0_split
I0721 00:01:54.364737 25482 net.cpp:121] Top shape: 1 2 28 28 (1568)
I0721 00:01:54.364742 25482 net.cpp:121] Top shape: 1 2 28 28 (1568)
I0721 00:01:54.364748 25482 layer_factory.hpp:74] Creating layer score-pool4
I0721 00:01:54.364756 25482 net.cpp:85] Creating Layer score-pool4
I0721 00:01:54.364760 25482 net.cpp:381] score-pool4 <- pool4_pool4_0_split_1
I0721 00:01:54.364768 25482 net.cpp:339] score-pool4 -> score-pool4
I0721 00:01:54.364774 25482 net.cpp:114] Setting up score-pool4
I0721 00:01:54.364787 25482 net.cpp:121] Top shape: 1 2 37 37 (2738)
I0721 00:01:54.364794 25482 layer_factory.hpp:74] Creating layer crop
I0721 00:01:54.364801 25482 net.cpp:85] Creating Layer crop
I0721 00:01:54.364806 25482 net.cpp:381] crop <- score-pool4
I0721 00:01:54.364811 25482 net.cpp:381] crop <- score2_score2_0_split_0
I0721 00:01:54.364816 25482 net.cpp:339] crop -> score-pool4c
I0721 00:01:54.364823 25482 net.cpp:114] Setting up crop
I0721 00:01:54.364894 25482 net.cpp:121] Top shape: 1 2 28 28 (1568)
I0721 00:01:54.364907 25482 layer_factory.hpp:74] Creating layer fuse
I0721 00:01:54.364920 25482 net.cpp:85] Creating Layer fuse
I0721 00:01:54.364931 25482 net.cpp:381] fuse <- score2_score2_0_split_1
I0721 00:01:54.364941 25482 net.cpp:381] fuse <- score-pool4c
I0721 00:01:54.364953 25482 net.cpp:339] fuse -> score-fused
I0721 00:01:54.364960 25482 net.cpp:114] Setting up fuse
I0721 00:01:54.364969 25482 net.cpp:121] Top shape: 1 2 28 28 (1568)
I0721 00:01:54.364972 25482 layer_factory.hpp:74] Creating layer score4
I0721 00:01:54.364979 25482 net.cpp:85] Creating Layer score4
I0721 00:01:54.364984 25482 net.cpp:381] score4 <- score-fused
I0721 00:01:54.364994 25482 net.cpp:339] score4 -> score4
I0721 00:01:54.364998 25482 net.cpp:114] Setting up score4
I0721 00:01:54.365006 25482 net.cpp:121] Top shape: 1 2 58 58 (6728)
I0721 00:01:54.365012 25482 layer_factory.hpp:74] Creating layer score4_score4_0_split
I0721 00:01:54.365018 25482 net.cpp:85] Creating Layer score4_score4_0_split
I0721 00:01:54.365022 25482 net.cpp:381] score4_score4_0_split <- score4
I0721 00:01:54.365028 25482 net.cpp:339] score4_score4_0_split -> score4_score4_0_split_0
I0721 00:01:54.365034 25482 net.cpp:339] score4_score4_0_split -> score4_score4_0_split_1
I0721 00:01:54.365041 25482 net.cpp:114] Setting up score4_score4_0_split
I0721 00:01:54.365046 25482 net.cpp:121] Top shape: 1 2 58 58 (6728)
I0721 00:01:54.365051 25482 net.cpp:121] Top shape: 1 2 58 58 (6728)
I0721 00:01:54.365056 25482 layer_factory.hpp:74] Creating layer score-pool3
I0721 00:01:54.365064 25482 net.cpp:85] Creating Layer score-pool3
I0721 00:01:54.365070 25482 net.cpp:381] score-pool3 <- pool3_pool3_0_split_1
I0721 00:01:54.365075 25482 net.cpp:339] score-pool3 -> score-pool3
I0721 00:01:54.365082 25482 net.cpp:114] Setting up score-pool3
I0721 00:01:54.365099 25482 net.cpp:121] Top shape: 1 2 74 74 (10952)
I0721 00:01:54.365106 25482 layer_factory.hpp:74] Creating layer crop
I0721 00:01:54.365113 25482 net.cpp:85] Creating Layer crop
I0721 00:01:54.365116 25482 net.cpp:381] crop <- score-pool3
I0721 00:01:54.365123 25482 net.cpp:381] crop <- score4_score4_0_split_0
I0721 00:01:54.365128 25482 net.cpp:339] crop -> score-pool3c
I0721 00:01:54.365134 25482 net.cpp:114] Setting up crop
I0721 00:01:54.365169 25482 net.cpp:121] Top shape: 1 2 58 58 (6728)
I0721 00:01:54.365176 25482 layer_factory.hpp:74] Creating layer fuse
I0721 00:01:54.365183 25482 net.cpp:85] Creating Layer fuse
I0721 00:01:54.365186 25482 net.cpp:381] fuse <- score4_score4_0_split_1
I0721 00:01:54.365191 25482 net.cpp:381] fuse <- score-pool3c
I0721 00:01:54.365198 25482 net.cpp:339] fuse -> score-final
I0721 00:01:54.365205 25482 net.cpp:114] Setting up fuse
I0721 00:01:54.365209 25482 net.cpp:121] Top shape: 1 2 58 58 (6728)
I0721 00:01:54.365222 25482 layer_factory.hpp:74] Creating layer upsample
I0721 00:01:54.365234 25482 net.cpp:85] Creating Layer upsample
I0721 00:01:54.365242 25482 net.cpp:381] upsample <- score-final
I0721 00:01:54.365250 25482 net.cpp:339] upsample -> bigscore
I0721 00:01:54.365264 25482 net.cpp:114] Setting up upsample
I0721 00:01:54.365285 25482 net.cpp:121] Top shape: 1 2 472 472 (445568)
I0721 00:01:54.365303 25482 layer_factory.hpp:74] Creating layer crop
I0721 00:01:54.365314 25482 net.cpp:85] Creating Layer crop
I0721 00:01:54.365324 25482 net.cpp:381] crop <- bigscore
I0721 00:01:54.365332 25482 net.cpp:381] crop <- data_data_0_split_1
I0721 00:01:54.365345 25482 net.cpp:339] crop -> upscore
I0721 00:01:54.365353 25482 net.cpp:114] Setting up crop
I0721 00:01:54.365396 25482 net.cpp:121] Top shape: 1 2 388 388 (301088)
I0721 00:01:54.365404 25482 layer_factory.hpp:74] Creating layer loss
I0721 00:01:54.365411 25482 net.cpp:85] Creating Layer loss
I0721 00:01:54.365416 25482 net.cpp:381] loss <- upscore
I0721 00:01:54.365420 25482 net.cpp:381] loss <- label
I0721 00:01:54.365427 25482 net.cpp:339] loss -> loss
I0721 00:01:54.365438 25482 net.cpp:114] Setting up loss
I0721 00:01:54.365444 25482 layer_factory.hpp:74] Creating layer loss
…
I0721 00:01:54.367912 25482 net.cpp:42] Initializing net from parameters: 
name: "FCN"
state {
  phase: TEST
}
layer {
  name: "data"
  type: "ImageSegData"
  top: "data"
  top: "label"
  include {
    phase: TEST
  }
  transform_param {
    mirror: true
    crop_size: 388
    mean_value: 104.008
    mean_value: 116.669
    mean_value: 122.675
  }
  image_data_param {
    source: "/media/BigDisk/xiaoyong/datafrommac/ourfacedata_train_2/ourtestdatalist.txt"
    batch_size: 1
    shuffle: true
    root_folder: ""
    ignore_label: 255
    label_type: PIXEL
  }
}
layer {
  name: "conv1_1"
  type: "Convolution"
  bottom: "data"
  top: "conv1_1"
  param {
    lr_mult: 1
    decay_mult: 1
  }
  param {
    lr_mult: 2
    decay_mult: 0
  }
  convolution_param {
    num_output: 64
    pad: 100
    kernel_size: 3
    engine: CAFFE
  }
}
layer {
  name: "relu1_1"
  type: "ReLU"
  bottom: "conv1_1"
  top: "conv1_1"
}
layer {
  name: "conv1_2"
  type: "Convolution"
  bottom: "conv1_1"
  top: "conv1_2"
  param {
    lr_mult: 1
    decay_mult: 1
  }
  param {
    lr_mult: 2
    decay_mult: 0
  }
  convolution_param {
    num_output: 64
    pad: 1
    kernel_size: 3
    engine: CAFFE
  }
}
layer {
  name: "relu1_2"
  type: "ReLU"
  bottom: "conv1_2"
  top: "conv1_2"
}
layer {
  name: "pool1"
  type: "Pooling"
  bottom: "conv1_2"
  top: "pool1"
  pooling_param {
    pool: MAX
    kernel_size: 2
    stride: 2
  }
}
layer {
  name: "conv2_1"
  type: "Convolution"
  bottom: "pool1"
  top: "conv2_1"
  param {
    lr_mult: 1
    decay_mult: 1
  }
  param {
    lr_mult: 2
    decay_mult: 0
  }
  convolution_param {
    num_output: 128
    pad: 1
    kernel_size: 3
    engine: CAFFE
  }
}
layer {
  name: "relu2_1"
  type: "ReLU"
  bottom: "conv2_1"
  top: "conv2_1"
}
layer {
  name: "conv2_2"
  type: "Convolution"
  bottom: "conv2_1"
  top: "conv2_2"
  param {
    lr_mult: 1
    decay_mult: 1
  }
  param {
    lr_mult: 2
    decay_mult: 0
  }
  convolution_param {
    num_output: 128
    pad: 1
    kernel_size: 3
    engine: CAFFE
  }
}
layer {
  name: "relu2_2"
  type: "ReLU"
  bottom: "conv2_2"
  top: "conv2_2"
}
layer {
  name: "pool2"
  type: "Pooling"
  bottom: "conv2_2"
  top: "pool2"
  pooling_param {
    pool: MAX
    kernel_size: 2
    stride: 2
  }
}
layer {
  name: "conv3_1"
  type: "Convolution"
  bottom: "pool2"
  top: "conv3_1"
  param {
    lr_mult: 1
    decay_mult: 1
  }
  param {
    lr_mult: 2
    decay_mult: 0
  }
  convolution_param {
    num_output: 256
    pad: 1
    kernel_size: 3
    engine: CAFFE
  }
}
layer {
  name: "relu3_1"
  type: "ReLU"
  bottom: "conv3_1"
  top: "conv3_1"
}
layer {
  name: "conv3_2"
  type: "Convolution"
  bottom: "conv3_1"
  top: "conv3_2"
  param {
    lr_mult: 1
    decay_mult: 1
  }
  param {
    lr_mult: 2
    decay_mult: 0
  }
  convolution_param {
    num_output: 256
    pad: 1
    kernel_size: 3
    engine: CAFFE
  }
}
layer {
  name: "relu3_2"
  type: "ReLU"
  bottom: "conv3_2"
  top: "conv3_2"
}
layer {
  name: "conv3_3"
  type: "Convolution"
  bottom: "conv3_2"
  top: "conv3_3"
  param {
    lr_mult: 1
    decay_mult: 1
  }
  param {
    lr_mult: 2
    decay_mult: 0
  }
  convolution_param {
    num_output: 256
    pad: 1
    kernel_size: 3
    engine: CAFFE
  }
}
layer {
  name: "relu3_3"
  type: "ReLU"
  bottom: "conv3_3"
  top: "conv3_3"
}
layer {
  name: "pool3"
  type: "Pooling"
  bottom: "conv3_3"
  top: "pool3"
  pooling_param {
    pool: MAX
    kernel_size: 2
    stride: 2
  }
}
layer {
  name: "conv4_1"
  type: "Convolution"
  bottom: "pool3"
  top: "conv4_1"
  param {
    lr_mult: 1
    decay_mult: 1
  }
  param {
    lr_mult: 2
    decay_mult: 0
  }
  convolution_param {
    num_output: 512
    pad: 1
    kernel_size: 3
    engine: CAFFE
  }
}
layer {
  name: "relu4_1"
  type: "ReLU"
  bottom: "conv4_1"
  top: "conv4_1"
}
layer {
  name: "conv4_2"
  type: "Convolution"
  bottom: "conv4_1"
  top: "conv4_2"
  param {
    lr_mult: 1
    decay_mult: 1
  }
  param {
    lr_mult: 2
    decay_mult: 0
  }
  convolution_param {
    num_output: 512
    pad: 1
    kernel_size: 3
    engine: CAFFE
  }
}
layer {
  name: "relu4_2"
  type: "ReLU"
  bottom: "conv4_2"
  top: "conv4_2"
}
layer {
  name: "conv4_3"
  type: "Convolution"
  bottom: "conv4_2"
  top: "conv4_3"
  param {
    lr_mult: 1
    decay_mult: 1
  }
  param {
    lr_mult: 2
    decay_mult: 0
  }
  convolution_param {
    num_output: 512
    pad: 1
    kernel_size: 3
    engine: CAFFE
  }
}
layer {
  name: "relu4_3"
  type: "ReLU"
  bottom: "conv4_3"
  top: "conv4_3"
}
layer {
  name: "pool4"
  type: "Pooling"
  bottom: "conv4_3"
  top: "pool4"
  pooling_param {
    pool: MAX
    kernel_size: 2
    stride: 2
  }
}
layer {
  name: "conv5_1"
  type: "Convolution"
  bottom: "pool4"
  top: "conv5_1"
  param {
    lr_mult: 1
    decay_mult: 1
  }
  param {
    lr_mult: 2
    decay_mult: 0
  }
  convolution_param {
    num_output: 512
    pad: 1
    kernel_size: 3
    engine: CAFFE
  }
}
layer {
  name: "relu5_1"
  type: "ReLU"
  bottom: "conv5_1"
  top: "conv5_1"
}
layer {
  name: "conv5_2"
  type: "Convolution"
  bottom: "conv5_1"
  top: "conv5_2"
  param {
    lr_mult: 1
    decay_mult: 1
  }
  param {
    lr_mult: 2
    decay_mult: 0
  }
  convolution_param {
    num_output: 512
    pad: 1
    kernel_size: 3
    engine: CAFFE
  }
}
layer {
  name: "relu5_2"
  type: "ReLU"
  bottom: "conv5_2"
  top: "conv5_2"
}
layer {
  name: "conv5_3"
  type: "Convolution"
  bottom: "conv5_2"
  top: "conv5_3"
  param {
    lr_mult: 1
    decay_mult: 1
  }
  param {
    lr_mult: 2
    decay_mult: 0
  }
  convolution_param {
    num_output: 512
    pad: 1
    kernel_size: 3
    engine: CAFFE
  }
}
layer {
  name: "relu5_3"
  type: "ReLU"
  bottom: "conv5_3"
  top: "conv5_3"
}
layer {
  name: "pool5"
  type: "Pooling"
  bottom: "conv5_3"
  top: "pool5"
  pooling_param {
    pool: MAX
    kernel_size: 2
    stride: 2
  }
}
layer {
  name: "fc6"
  type: "Convolution"
  bottom: "pool5"
  top: "fc6"
  param {
    lr_mult: 1
    decay_mult: 1
  }
  param {
    lr_mult: 2
    decay_mult: 0
  }
  convolution_param {
    num_output: 4096
    kernel_size: 7
    engine: CAFFE
  }
}
layer {
  name: "relu6"
  type: "ReLU"
  bottom: "fc6"
  top: "fc6"
}
layer {
  name: "drop6"
  type: "Dropout"
  bottom: "fc6"
  top: "fc6"
  dropout_param {
    dropout_ratio: 0.5
  }
}
layer {
  name: "fc7"
  type: "Convolution"
  bottom: "fc6"
  top: "fc7"
  param {
    lr_mult: 1
    decay_mult: 1
  }
  param {
    lr_mult: 2
    decay_mult: 0
  }
  convolution_param {
    num_output: 4096
    kernel_size: 1
    engine: CAFFE
  }
}
layer {
  name: "relu7"
  type: "ReLU"
  bottom: "fc7"
  top: "fc7"
}
layer {
  name: "drop7"
  type: "Dropout"
  bottom: "fc7"
  top: "fc7"
  dropout_param {
    dropout_ratio: 0.5
  }
}
layer {
  name: "score-fr"
  type: "Convolution"
  bottom: "fc7"
  top: "score"
  param {
    lr_mult: 1
    decay_mult: 1
  }
  param {
    lr_mult: 2
    decay_mult: 0
  }
  convolution_param {
    num_output: 2
    kernel_size: 1
    engine: CAFFE
  }
}
layer {
  name: "score2"
  type: "Deconvolution"
  bottom: "score"
  top: "score2"
  param {
    lr_mult: 1
    decay_mult: 1
  }
  param {
    lr_mult: 2
    decay_mult: 0
  }
  convolution_param {
    num_output: 2
    kernel_size: 4
    stride: 2
  }
}
layer {
  name: "score-pool4"
  type: "Convolution"
  bottom: "pool4"
  top: "score-pool4"
  param {
    lr_mult: 1
    decay_mult: 1
  }
  param {
    lr_mult: 2
    decay_mult: 0
  }
  convolution_param {
    num_output: 2
    kernel_size: 1
    engine: CAFFE
  }
}
layer {
  name: "crop"
  type: "Crop"
  bottom: "score-pool4"
  bottom: "score2"
  top: "score-pool4c"
}
layer {
  name: "fuse"
  type: "Eltwise"
  bottom: "score2"
  bottom: "score-pool4c"
  top: "score-fused"
  eltwise_param {
    operation: SUM
  }
}
layer {
  name: "score4"
  type: "Deconvolution"
  bottom: "score-fused"
  top: "score4"
  param {
    lr_mult: 1
    decay_mult: 1
  }
  convolution_param {
    num_output: 2
    bias_term: false
    kernel_size: 4
    stride: 2
  }
}
layer {
  name: "score-pool3"
  type: "Convolution"
  bottom: "pool3"
  top: "score-pool3"
  param {
    lr_mult: 1
    decay_mult: 1
  }
  param {
    lr_mult: 2
    decay_mult: 0
  }
  convolution_param {
    num_output: 2
    kernel_size: 1
    engine: CAFFE
  }
}
layer {
  name: "crop"
  type: "Crop"
  bottom: "score-pool3"
  bottom: "score4"
  top: "score-pool3c"
}
layer {
  name: "fuse"
  type: "Eltwise"
  bottom: "score4"
  bottom: "score-pool3c"
  top: "score-final"
  eltwise_param {
    operation: SUM
  }
}
layer {
  name: "upsample"
  type: "Deconvolution"
  bottom: "score-final"
  top: "bigscore"
  param {
    lr_mult: 1
  }
  convolution_param {
    num_output: 2
    bias_term: false
    kernel_size: 16
    stride: 8
  }
}
layer {
  name: "crop"
  type: "Crop"
  bottom: "bigscore"
  bottom: "data"
  top: "upscore"
}
layer {
  name: "loss"
  type: "SoftmaxWithLoss"
  bottom: "upscore"
  bottom: "label"
  top: "loss"
  loss_param {
    ignore_label: 255
  }
}
layer {
  name: "accuracy"
  type: "SegAccuracy"
  bottom: "upscore"
  bottom: "label"
  top: "accuracy"
  include {
    phase: TEST
  }
  seg_accuracy_param {
    ignore_label: 255
  }
}
I0721 00:01:54.368154 25482 layer_factory.hpp:74] Creating layer data
I0721 00:01:54.368170 25482 net.cpp:85] Creating Layer data
I0721 00:01:54.368178 25482 net.cpp:339] data -> data
I0721 00:01:54.368191 25482 net.cpp:339] data -> label
I0721 00:01:54.368201 25482 net.cpp:339] data -> (automatic)
I0721 00:01:54.368207 25482 net.cpp:114] Setting up data
I0721 00:01:54.368216 25482 image_seg_data_layer.cpp:46] Opening file /media/BigDisk/xiaoyong/datafrommac/ourfacedata_train_2/ourtestdatalist.txt
I0721 00:01:54.368693 25482 image_seg_data_layer.cpp:63] Shuffling data
I0721 00:01:54.368753 25482 image_seg_data_layer.cpp:68] A total of 355 images.
I0721 00:01:54.398316 25482 image_seg_data_layer.cpp:114] output data size: 1,3,388,388
I0721 00:01:54.398327 25482 image_seg_data_layer.cpp:118] output label size: 1,1,388,388
I0721 00:01:54.398332 25482 image_seg_data_layer.cpp:122] output data_dim size: 1,1,1,2
I0721 00:01:54.398677 25482 net.cpp:121] Top shape: 1 3 388 388 (451632)
I0721 00:01:54.398686 25482 net.cpp:121] Top shape: 1 1 388 388 (150544)
I0721 00:01:54.398692 25482 net.cpp:121] Top shape: 1 1 1 2 (2)
I0721 00:01:54.398699 25482 layer_factory.hpp:74] Creating layer data_data_0_split
I0721 00:01:54.398705 25482 net.cpp:85] Creating Layer data_data_0_split
I0721 00:01:54.398712 25482 net.cpp:381] data_data_0_split <- data
I0721 00:01:54.398720 25482 net.cpp:339] data_data_0_split -> data_data_0_split_0
I0721 00:01:54.398726 25482 net.cpp:339] data_data_0_split -> data_data_0_split_1
I0721 00:01:54.398733 25482 net.cpp:114] Setting up data_data_0_split
I0721 00:01:54.398741 25482 net.cpp:121] Top shape: 1 3 388 388 (451632)
I0721 00:01:54.398746 25482 net.cpp:121] Top shape: 1 3 388 388 (451632)
I0721 00:01:54.398751 25482 layer_factory.hpp:74] Creating layer label_data_1_split
I0721 00:01:54.398757 25482 net.cpp:85] Creating Layer label_data_1_split
I0721 00:01:54.398762 25482 net.cpp:381] label_data_1_split <- label
I0721 00:01:54.398768 25482 net.cpp:339] label_data_1_split -> label_data_1_split_0
I0721 00:01:54.398773 25482 net.cpp:339] label_data_1_split -> label_data_1_split_1
I0721 00:01:54.398778 25482 net.cpp:114] Setting up label_data_1_split
I0721 00:01:54.398788 25482 net.cpp:121] Top shape: 1 1 388 388 (150544)
I0721 00:01:54.398797 25482 net.cpp:121] Top shape: 1 1 388 388 (150544)
I0721 00:01:54.398803 25482 layer_factory.hpp:74] Creating layer conv1_1
I0721 00:01:54.398813 25482 net.cpp:85] Creating Layer conv1_1
I0721 00:01:54.398820 25482 net.cpp:381] conv1_1 <- data_data_0_split_0
I0721 00:01:54.398831 25482 net.cpp:339] conv1_1 -> conv1_1
I0721 00:01:54.398844 25482 net.cpp:114] Setting up conv1_1
I0721 00:01:54.399379 25482 net.cpp:121] Top shape: 1 64 586 586 (21977344)
I0721 00:01:54.399391 25482 layer_factory.hpp:74] Creating layer relu1_1
I0721 00:01:54.399399 25482 net.cpp:85] Creating Layer relu1_1
I0721 00:01:54.399406 25482 net.cpp:381] relu1_1 <- conv1_1
I0721 00:01:54.399411 25482 net.cpp:328] relu1_1 -> conv1_1 (in-place)
I0721 00:01:54.399417 25482 net.cpp:114] Setting up relu1_1
I0721 00:01:54.399422 25482 net.cpp:121] Top shape: 1 64 586 586 (21977344)
I0721 00:01:54.399426 25482 layer_factory.hpp:74] Creating layer conv1_2
I0721 00:01:54.399433 25482 net.cpp:85] Creating Layer conv1_2
I0721 00:01:54.399437 25482 net.cpp:381] conv1_2 <- conv1_1
I0721 00:01:54.399442 25482 net.cpp:339] conv1_2 -> conv1_2
I0721 00:01:54.399453 25482 net.cpp:114] Setting up conv1_2
I0721 00:01:54.399986 25482 net.cpp:121] Top shape: 1 64 586 586 (21977344)
I0721 00:01:54.399997 25482 layer_factory.hpp:74] Creating layer relu1_2
I0721 00:01:54.400003 25482 net.cpp:85] Creating Layer relu1_2
I0721 00:01:54.400009 25482 net.cpp:381] relu1_2 <- conv1_2
I0721 00:01:54.400017 25482 net.cpp:328] relu1_2 -> conv1_2 (in-place)
I0721 00:01:54.400023 25482 net.cpp:114] Setting up relu1_2
I0721 00:01:54.400028 25482 net.cpp:121] Top shape: 1 64 586 586 (21977344)
I0721 00:01:54.400032 25482 layer_factory.hpp:74] Creating layer pool1
I0721 00:01:54.400038 25482 net.cpp:85] Creating Layer pool1
I0721 00:01:54.400043 25482 net.cpp:381] pool1 <- conv1_2
I0721 00:01:54.400048 25482 net.cpp:339] pool1 -> pool1
I0721 00:01:54.400054 25482 net.cpp:114] Setting up pool1
I0721 00:01:54.400063 25482 net.cpp:121] Top shape: 1 64 293 293 (5494336)
I0721 00:01:54.400068 25482 layer_factory.hpp:74] Creating layer conv2_1
I0721 00:01:54.400079 25482 net.cpp:85] Creating Layer conv2_1
I0721 00:01:54.400089 25482 net.cpp:381] conv2_1 <- pool1
I0721 00:01:54.400100 25482 net.cpp:339] conv2_1 -> conv2_1
I0721 00:01:54.400111 25482 net.cpp:114] Setting up conv2_1
I0721 00:01:54.400388 25482 net.cpp:121] Top shape: 1 128 293 293 (10988672)
I0721 00:01:54.400398 25482 layer_factory.hpp:74] Creating layer relu2_1
I0721 00:01:54.400404 25482 net.cpp:85] Creating Layer relu2_1
I0721 00:01:54.400411 25482 net.cpp:381] relu2_1 <- conv2_1
I0721 00:01:54.400418 25482 net.cpp:328] relu2_1 -> conv2_1 (in-place)
I0721 00:01:54.400424 25482 net.cpp:114] Setting up relu2_1
I0721 00:01:54.400429 25482 net.cpp:121] Top shape: 1 128 293 293 (10988672)
I0721 00:01:54.400434 25482 layer_factory.hpp:74] Creating layer conv2_2
I0721 00:01:54.400439 25482 net.cpp:85] Creating Layer conv2_2
I0721 00:01:54.400445 25482 net.cpp:381] conv2_2 <- conv2_1
I0721 00:01:54.400450 25482 net.cpp:339] conv2_2 -> conv2_2
I0721 00:01:54.400456 25482 net.cpp:114] Setting up conv2_2
I0721 00:01:54.400785 25482 net.cpp:121] Top shape: 1 128 293 293 (10988672)
I0721 00:01:54.400804 25482 layer_factory.hpp:74] Creating layer relu2_2
I0721 00:01:54.400812 25482 net.cpp:85] Creating Layer relu2_2
I0721 00:01:54.400817 25482 net.cpp:381] relu2_2 <- conv2_2
I0721 00:01:54.400825 25482 net.cpp:328] relu2_2 -> conv2_2 (in-place)
I0721 00:01:54.400835 25482 net.cpp:114] Setting up relu2_2
I0721 00:01:54.400845 25482 net.cpp:121] Top shape: 1 128 293 293 (10988672)
I0721 00:01:54.400849 25482 layer_factory.hpp:74] Creating layer pool2
I0721 00:01:54.400861 25482 net.cpp:85] Creating Layer pool2
I0721 00:01:54.400869 25482 net.cpp:381] pool2 <- conv2_2
I0721 00:01:54.400878 25482 net.cpp:339] pool2 -> pool2
I0721 00:01:54.400890 25482 net.cpp:114] Setting up pool2
I0721 00:01:54.400900 25482 net.cpp:121] Top shape: 1 128 147 147 (2765952)
I0721 00:01:54.400907 25482 layer_factory.hpp:74] Creating layer conv3_1
I0721 00:01:54.400919 25482 net.cpp:85] Creating Layer conv3_1
I0721 00:01:54.400926 25482 net.cpp:381] conv3_1 <- pool2
I0721 00:01:54.400935 25482 net.cpp:339] conv3_1 -> conv3_1
I0721 00:01:54.400945 25482 net.cpp:114] Setting up conv3_1
I0721 00:01:54.401387 25482 net.cpp:121] Top shape: 1 256 147 147 (5531904)
I0721 00:01:54.401402 25482 layer_factory.hpp:74] Creating layer relu3_1
I0721 00:01:54.401408 25482 net.cpp:85] Creating Layer relu3_1
I0721 00:01:54.401414 25482 net.cpp:381] relu3_1 <- conv3_1
I0721 00:01:54.401422 25482 net.cpp:328] relu3_1 -> conv3_1 (in-place)
I0721 00:01:54.401428 25482 net.cpp:114] Setting up relu3_1
I0721 00:01:54.401434 25482 net.cpp:121] Top shape: 1 256 147 147 (5531904)
I0721 00:01:54.401438 25482 layer_factory.hpp:74] Creating layer conv3_2
I0721 00:01:54.401443 25482 net.cpp:85] Creating Layer conv3_2
I0721 00:01:54.401448 25482 net.cpp:381] conv3_2 <- conv3_1
I0721 00:01:54.401458 25482 net.cpp:339] conv3_2 -> conv3_2
I0721 00:01:54.401468 25482 net.cpp:114] Setting up conv3_2
I0721 00:01:54.402294 25482 net.cpp:121] Top shape: 1 256 147 147 (5531904)
I0721 00:01:54.402305 25482 layer_factory.hpp:74] Creating layer relu3_2
I0721 00:01:54.402315 25482 net.cpp:85] Creating Layer relu3_2
I0721 00:01:54.402320 25482 net.cpp:381] relu3_2 <- conv3_2
I0721 00:01:54.402326 25482 net.cpp:328] relu3_2 -> conv3_2 (in-place)
I0721 00:01:54.402333 25482 net.cpp:114] Setting up relu3_2
I0721 00:01:54.402340 25482 net.cpp:121] Top shape: 1 256 147 147 (5531904)
I0721 00:01:54.402346 25482 layer_factory.hpp:74] Creating layer conv3_3
I0721 00:01:54.402356 25482 net.cpp:85] Creating Layer conv3_3
I0721 00:01:54.402362 25482 net.cpp:381] conv3_3 <- conv3_2
I0721 00:01:54.402369 25482 net.cpp:339] conv3_3 -> conv3_3
I0721 00:01:54.402376 25482 net.cpp:114] Setting up conv3_3
I0721 00:01:54.403205 25482 net.cpp:121] Top shape: 1 256 147 147 (5531904)
I0721 00:01:54.403218 25482 layer_factory.hpp:74] Creating layer relu3_3
I0721 00:01:54.403228 25482 net.cpp:85] Creating Layer relu3_3
I0721 00:01:54.403231 25482 net.cpp:381] relu3_3 <- conv3_3
I0721 00:01:54.403239 25482 net.cpp:328] relu3_3 -> conv3_3 (in-place)
I0721 00:01:54.403244 25482 net.cpp:114] Setting up relu3_3
I0721 00:01:54.403249 25482 net.cpp:121] Top shape: 1 256 147 147 (5531904)
I0721 00:01:54.403254 25482 layer_factory.hpp:74] Creating layer pool3
I0721 00:01:54.403267 25482 net.cpp:85] Creating Layer pool3
I0721 00:01:54.403273 25482 net.cpp:381] pool3 <- conv3_3
I0721 00:01:54.403280 25482 net.cpp:339] pool3 -> pool3
I0721 00:01:54.403285 25482 net.cpp:114] Setting up pool3
I0721 00:01:54.403297 25482 net.cpp:121] Top shape: 1 256 74 74 (1401856)
I0721 00:01:54.403306 25482 layer_factory.hpp:74] Creating layer pool3_pool3_0_split
I0721 00:01:54.403316 25482 net.cpp:85] Creating Layer pool3_pool3_0_split
I0721 00:01:54.403321 25482 net.cpp:381] pool3_pool3_0_split <- pool3
I0721 00:01:54.403327 25482 net.cpp:339] pool3_pool3_0_split -> pool3_pool3_0_split_0
I0721 00:01:54.403334 25482 net.cpp:339] pool3_pool3_0_split -> pool3_pool3_0_split_1
I0721 00:01:54.403340 25482 net.cpp:114] Setting up pool3_pool3_0_split
I0721 00:01:54.403347 25482 net.cpp:121] Top shape: 1 256 74 74 (1401856)
I0721 00:01:54.403353 25482 net.cpp:121] Top shape: 1 256 74 74 (1401856)
I0721 00:01:54.403357 25482 layer_factory.hpp:74] Creating layer conv4_1
I0721 00:01:54.403364 25482 net.cpp:85] Creating Layer conv4_1
I0721 00:01:54.403373 25482 net.cpp:381] conv4_1 <- pool3_pool3_0_split_0
I0721 00:01:54.403381 25482 net.cpp:339] conv4_1 -> conv4_1
I0721 00:01:54.403390 25482 net.cpp:114] Setting up conv4_1
I0721 00:01:54.408702 25482 net.cpp:121] Top shape: 1 512 74 74 (2803712)
I0721 00:01:54.408716 25482 layer_factory.hpp:74] Creating layer relu4_1
I0721 00:01:54.408723 25482 net.cpp:85] Creating Layer relu4_1
I0721 00:01:54.408728 25482 net.cpp:381] relu4_1 <- conv4_1
I0721 00:01:54.408735 25482 net.cpp:328] relu4_1 -> conv4_1 (in-place)
I0721 00:01:54.408740 25482 net.cpp:114] Setting up relu4_1
I0721 00:01:54.408746 25482 net.cpp:121] Top shape: 1 512 74 74 (2803712)
I0721 00:01:54.408751 25482 layer_factory.hpp:74] Creating layer conv4_2
I0721 00:01:54.408759 25482 net.cpp:85] Creating Layer conv4_2
I0721 00:01:54.408764 25482 net.cpp:381] conv4_2 <- conv4_1
I0721 00:01:54.408771 25482 net.cpp:339] conv4_2 -> conv4_2
I0721 00:01:54.408778 25482 net.cpp:114] Setting up conv4_2
I0721 00:01:54.426565 25482 net.cpp:121] Top shape: 1 512 74 74 (2803712)
I0721 00:01:54.426589 25482 layer_factory.hpp:74] Creating layer relu4_2
I0721 00:01:54.426597 25482 net.cpp:85] Creating Layer relu4_2
I0721 00:01:54.426604 25482 net.cpp:381] relu4_2 <- conv4_2
I0721 00:01:54.426609 25482 net.cpp:328] relu4_2 -> conv4_2 (in-place)
I0721 00:01:54.426616 25482 net.cpp:114] Setting up relu4_2
I0721 00:01:54.426622 25482 net.cpp:121] Top shape: 1 512 74 74 (2803712)
I0721 00:01:54.426627 25482 layer_factory.hpp:74] Creating layer conv4_3
I0721 00:01:54.426636 25482 net.cpp:85] Creating Layer conv4_3
I0721 00:01:54.426640 25482 net.cpp:381] conv4_3 <- conv4_2
I0721 00:01:54.426647 25482 net.cpp:339] conv4_3 -> conv4_3
I0721 00:01:54.426655 25482 net.cpp:114] Setting up conv4_3
I0721 00:01:54.440222 25482 net.cpp:121] Top shape: 1 512 74 74 (2803712)
I0721 00:01:54.440243 25482 layer_factory.hpp:74] Creating layer relu4_3
I0721 00:01:54.440254 25482 net.cpp:85] Creating Layer relu4_3
I0721 00:01:54.440260 25482 net.cpp:381] relu4_3 <- conv4_3
I0721 00:01:54.440268 25482 net.cpp:328] relu4_3 -> conv4_3 (in-place)
I0721 00:01:54.440290 25482 net.cpp:114] Setting up relu4_3
I0721 00:01:54.440296 25482 net.cpp:121] Top shape: 1 512 74 74 (2803712)
I0721 00:01:54.440301 25482 layer_factory.hpp:74] Creating layer pool4
I0721 00:01:54.440309 25482 net.cpp:85] Creating Layer pool4
I0721 00:01:54.440313 25482 net.cpp:381] pool4 <- conv4_3
I0721 00:01:54.440320 25482 net.cpp:339] pool4 -> pool4
I0721 00:01:54.440327 25482 net.cpp:114] Setting up pool4
I0721 00:01:54.440338 25482 net.cpp:121] Top shape: 1 512 37 37 (700928)
I0721 00:01:54.440346 25482 layer_factory.hpp:74] Creating layer pool4_pool4_0_split
I0721 00:01:54.440352 25482 net.cpp:85] Creating Layer pool4_pool4_0_split
I0721 00:01:54.440357 25482 net.cpp:381] pool4_pool4_0_split <- pool4
I0721 00:01:54.440364 25482 net.cpp:339] pool4_pool4_0_split -> pool4_pool4_0_split_0
I0721 00:01:54.440374 25482 net.cpp:339] pool4_pool4_0_split -> pool4_pool4_0_split_1
I0721 00:01:54.440405 25482 net.cpp:114] Setting up pool4_pool4_0_split
I0721 00:01:54.440417 25482 net.cpp:121] Top shape: 1 512 37 37 (700928)
I0721 00:01:54.440425 25482 net.cpp:121] Top shape: 1 512 37 37 (700928)
I0721 00:01:54.440431 25482 layer_factory.hpp:74] Creating layer conv5_1
I0721 00:01:54.440445 25482 net.cpp:85] Creating Layer conv5_1
I0721 00:01:54.440455 25482 net.cpp:381] conv5_1 <- pool4_pool4_0_split_0
I0721 00:01:54.440469 25482 net.cpp:339] conv5_1 -> conv5_1
I0721 00:01:54.440486 25482 net.cpp:114] Setting up conv5_1
I0721 00:01:54.457833 25482 net.cpp:121] Top shape: 1 512 37 37 (700928)
I0721 00:01:54.457856 25482 layer_factory.hpp:74] Creating layer relu5_1
I0721 00:01:54.457866 25482 net.cpp:85] Creating Layer relu5_1
I0721 00:01:54.457871 25482 net.cpp:381] relu5_1 <- conv5_1
I0721 00:01:54.457878 25482 net.cpp:328] relu5_1 -> conv5_1 (in-place)
I0721 00:01:54.457886 25482 net.cpp:114] Setting up relu5_1
I0721 00:01:54.457891 25482 net.cpp:121] Top shape: 1 512 37 37 (700928)
I0721 00:01:54.457895 25482 layer_factory.hpp:74] Creating layer conv5_2
I0721 00:01:54.457903 25482 net.cpp:85] Creating Layer conv5_2
I0721 00:01:54.457907 25482 net.cpp:381] conv5_2 <- conv5_1
I0721 00:01:54.457913 25482 net.cpp:339] conv5_2 -> conv5_2
I0721 00:01:54.457921 25482 net.cpp:114] Setting up conv5_2
I0721 00:01:54.470068 25482 net.cpp:121] Top shape: 1 512 37 37 (700928)
I0721 00:01:54.470088 25482 layer_factory.hpp:74] Creating layer relu5_2
I0721 00:01:54.470098 25482 net.cpp:85] Creating Layer relu5_2
I0721 00:01:54.470105 25482 net.cpp:381] relu5_2 <- conv5_2
I0721 00:01:54.470113 25482 net.cpp:328] relu5_2 -> conv5_2 (in-place)
I0721 00:01:54.470120 25482 net.cpp:114] Setting up relu5_2
I0721 00:01:54.470126 25482 net.cpp:121] Top shape: 1 512 37 37 (700928)
I0721 00:01:54.470130 25482 layer_factory.hpp:74] Creating layer conv5_3
I0721 00:01:54.470139 25482 net.cpp:85] Creating Layer conv5_3
I0721 00:01:54.470145 25482 net.cpp:381] conv5_3 <- conv5_2
I0721 00:01:54.470154 25482 net.cpp:339] conv5_3 -> conv5_3
I0721 00:01:54.470160 25482 net.cpp:114] Setting up conv5_3
I0721 00:01:54.486332 25482 net.cpp:121] Top shape: 1 512 37 37 (700928)
I0721 00:01:54.486351 25482 layer_factory.hpp:74] Creating layer relu5_3
I0721 00:01:54.486362 25482 net.cpp:85] Creating Layer relu5_3
I0721 00:01:54.486368 25482 net.cpp:381] relu5_3 <- conv5_3
I0721 00:01:54.486376 25482 net.cpp:328] relu5_3 -> conv5_3 (in-place)
I0721 00:01:54.486382 25482 net.cpp:114] Setting up relu5_3
I0721 00:01:54.486388 25482 net.cpp:121] Top shape: 1 512 37 37 (700928)
I0721 00:01:54.486393 25482 layer_factory.hpp:74] Creating layer pool5
I0721 00:01:54.486402 25482 net.cpp:85] Creating Layer pool5
I0721 00:01:54.486407 25482 net.cpp:381] pool5 <- conv5_3
I0721 00:01:54.486413 25482 net.cpp:339] pool5 -> pool5
I0721 00:01:54.486421 25482 net.cpp:114] Setting up pool5
I0721 00:01:54.486428 25482 net.cpp:121] Top shape: 1 512 19 19 (184832)
I0721 00:01:54.486433 25482 layer_factory.hpp:74] Creating layer fc6
I0721 00:01:54.486441 25482 net.cpp:85] Creating Layer fc6
I0721 00:01:54.486446 25482 net.cpp:381] fc6 <- pool5
I0721 00:01:54.486452 25482 net.cpp:339] fc6 -> fc6
I0721 00:01:54.486457 25482 net.cpp:114] Setting up fc6
I0721 00:01:55.402269 25482 net.cpp:121] Top shape: 1 4096 13 13 (692224)
I0721 00:01:55.402299 25482 layer_factory.hpp:74] Creating layer relu6
I0721 00:01:55.402309 25482 net.cpp:85] Creating Layer relu6
I0721 00:01:55.402315 25482 net.cpp:381] relu6 <- fc6
I0721 00:01:55.402324 25482 net.cpp:328] relu6 -> fc6 (in-place)
I0721 00:01:55.402333 25482 net.cpp:114] Setting up relu6
I0721 00:01:55.402338 25482 net.cpp:121] Top shape: 1 4096 13 13 (692224)
I0721 00:01:55.402343 25482 layer_factory.hpp:74] Creating layer drop6
I0721 00:01:55.402350 25482 net.cpp:85] Creating Layer drop6
I0721 00:01:55.402356 25482 net.cpp:381] drop6 <- fc6
I0721 00:01:55.402361 25482 net.cpp:328] drop6 -> fc6 (in-place)
I0721 00:01:55.402369 25482 net.cpp:114] Setting up drop6
I0721 00:01:55.402374 25482 net.cpp:121] Top shape: 1 4096 13 13 (692224)
I0721 00:01:55.402395 25482 layer_factory.hpp:74] Creating layer fc7
I0721 00:01:55.402403 25482 net.cpp:85] Creating Layer fc7
I0721 00:01:55.402408 25482 net.cpp:381] fc7 <- fc6
I0721 00:01:55.402416 25482 net.cpp:339] fc7 -> fc7
I0721 00:01:55.402423 25482 net.cpp:114] Setting up fc7
I0721 00:01:55.597447 25482 net.cpp:121] Top shape: 1 4096 13 13 (692224)
I0721 00:01:55.597477 25482 layer_factory.hpp:74] Creating layer relu7
I0721 00:01:55.597489 25482 net.cpp:85] Creating Layer relu7
I0721 00:01:55.597496 25482 net.cpp:381] relu7 <- fc7
I0721 00:01:55.597501 25482 net.cpp:328] relu7 -> fc7 (in-place)
I0721 00:01:55.597509 25482 net.cpp:114] Setting up relu7
I0721 00:01:55.597514 25482 net.cpp:121] Top shape: 1 4096 13 13 (692224)
I0721 00:01:55.597520 25482 layer_factory.hpp:74] Creating layer drop7
I0721 00:01:55.597528 25482 net.cpp:85] Creating Layer drop7
I0721 00:01:55.597532 25482 net.cpp:381] drop7 <- fc7
I0721 00:01:55.597537 25482 net.cpp:328] drop7 -> fc7 (in-place)
I0721 00:01:55.597544 25482 net.cpp:114] Setting up drop7
I0721 00:01:55.597551 25482 net.cpp:121] Top shape: 1 4096 13 13 (692224)
I0721 00:01:55.597556 25482 layer_factory.hpp:74] Creating layer score-fr
I0721 00:01:55.597563 25482 net.cpp:85] Creating Layer score-fr
I0721 00:01:55.597568 25482 net.cpp:381] score-fr <- fc7
I0721 00:01:55.597575 25482 net.cpp:339] score-fr -> score
I0721 00:01:55.597582 25482 net.cpp:114] Setting up score-fr
I0721 00:01:55.597602 25482 net.cpp:121] Top shape: 1 2 13 13 (338)
I0721 00:01:55.597609 25482 layer_factory.hpp:74] Creating layer score2
I0721 00:01:55.597615 25482 net.cpp:85] Creating Layer score2
I0721 00:01:55.597620 25482 net.cpp:381] score2 <- score
I0721 00:01:55.597630 25482 net.cpp:339] score2 -> score2
I0721 00:01:55.597642 25482 net.cpp:114] Setting up score2
I0721 00:01:55.597667 25482 net.cpp:121] Top shape: 1 2 28 28 (1568)
I0721 00:01:55.597684 25482 layer_factory.hpp:74] Creating layer score2_score2_0_split
I0721 00:01:55.597702 25482 net.cpp:85] Creating Layer score2_score2_0_split
I0721 00:01:55.597713 25482 net.cpp:381] score2_score2_0_split <- score2
I0721 00:01:55.597725 25482 net.cpp:339] score2_score2_0_split -> score2_score2_0_split_0
I0721 00:01:55.597739 25482 net.cpp:339] score2_score2_0_split -> score2_score2_0_split_1
I0721 00:01:55.597753 25482 net.cpp:114] Setting up score2_score2_0_split
I0721 00:01:55.597764 25482 net.cpp:121] Top shape: 1 2 28 28 (1568)
I0721 00:01:55.597776 25482 net.cpp:121] Top shape: 1 2 28 28 (1568)
I0721 00:01:55.597782 25482 layer_factory.hpp:74] Creating layer score-pool4
I0721 00:01:55.597790 25482 net.cpp:85] Creating Layer score-pool4
I0721 00:01:55.597795 25482 net.cpp:381] score-pool4 <- pool4_pool4_0_split_1
I0721 00:01:55.597811 25482 net.cpp:339] score-pool4 -> score-pool4
I0721 00:01:55.597829 25482 net.cpp:114] Setting up score-pool4
I0721 00:01:55.597863 25482 net.cpp:121] Top shape: 1 2 37 37 (2738)
I0721 00:01:55.597873 25482 layer_factory.hpp:74] Creating layer crop
I0721 00:01:55.597879 25482 net.cpp:85] Creating Layer crop
I0721 00:01:55.597884 25482 net.cpp:381] crop <- score-pool4
I0721 00:01:55.597890 25482 net.cpp:381] crop <- score2_score2_0_split_0
I0721 00:01:55.597898 25482 net.cpp:339] crop -> score-pool4c
I0721 00:01:55.597903 25482 net.cpp:114] Setting up crop
I0721 00:01:55.597944 25482 net.cpp:121] Top shape: 1 2 28 28 (1568)
I0721 00:01:55.597956 25482 layer_factory.hpp:74] Creating layer fuse
I0721 00:01:55.597970 25482 net.cpp:85] Creating Layer fuse
I0721 00:01:55.597975 25482 net.cpp:381] fuse <- score2_score2_0_split_1
I0721 00:01:55.597986 25482 net.cpp:381] fuse <- score-pool4c
I0721 00:01:55.597998 25482 net.cpp:339] fuse -> score-fused
I0721 00:01:55.598007 25482 net.cpp:114] Setting up fuse
I0721 00:01:55.598014 25482 net.cpp:121] Top shape: 1 2 28 28 (1568)
I0721 00:01:55.598018 25482 layer_factory.hpp:74] Creating layer score4
I0721 00:01:55.598026 25482 net.cpp:85] Creating Layer score4
I0721 00:01:55.598029 25482 net.cpp:381] score4 <- score-fused
I0721 00:01:55.598037 25482 net.cpp:339] score4 -> score4
I0721 00:01:55.598057 25482 net.cpp:114] Setting up score4
I0721 00:01:55.598074 25482 net.cpp:121] Top shape: 1 2 58 58 (6728)
I0721 00:01:55.598079 25482 layer_factory.hpp:74] Creating layer score4_score4_0_split
I0721 00:01:55.598085 25482 net.cpp:85] Creating Layer score4_score4_0_split
I0721 00:01:55.598091 25482 net.cpp:381] score4_score4_0_split <- score4
I0721 00:01:55.598096 25482 net.cpp:339] score4_score4_0_split -> score4_score4_0_split_0
I0721 00:01:55.598103 25482 net.cpp:339] score4_score4_0_split -> score4_score4_0_split_1
I0721 00:01:55.598110 25482 net.cpp:114] Setting up score4_score4_0_split
I0721 00:01:55.598120 25482 net.cpp:121] Top shape: 1 2 58 58 (6728)
I0721 00:01:55.598129 25482 net.cpp:121] Top shape: 1 2 58 58 (6728)
I0721 00:01:55.598136 25482 layer_factory.hpp:74] Creating layer score-pool3
I0721 00:01:55.598148 25482 net.cpp:85] Creating Layer score-pool3
I0721 00:01:55.598155 25482 net.cpp:381] score-pool3 <- pool3_pool3_0_split_1
I0721 00:01:55.598171 25482 net.cpp:339] score-pool3 -> score-pool3
I0721 00:01:55.598181 25482 net.cpp:114] Setting up score-pool3
I0721 00:01:55.598196 25482 net.cpp:121] Top shape: 1 2 74 74 (10952)
I0721 00:01:55.598204 25482 layer_factory.hpp:74] Creating layer crop
I0721 00:01:55.598211 25482 net.cpp:85] Creating Layer crop
I0721 00:01:55.598217 25482 net.cpp:381] crop <- score-pool3
I0721 00:01:55.598222 25482 net.cpp:381] crop <- score4_score4_0_split_0
I0721 00:01:55.598227 25482 net.cpp:339] crop -> score-pool3c
I0721 00:01:55.598232 25482 net.cpp:114] Setting up crop
I0721 00:01:55.598268 25482 net.cpp:121] Top shape: 1 2 58 58 (6728)
I0721 00:01:55.598275 25482 layer_factory.hpp:74] Creating layer fuse
I0721 00:01:55.598280 25482 net.cpp:85] Creating Layer fuse
I0721 00:01:55.598285 25482 net.cpp:381] fuse <- score4_score4_0_split_1
I0721 00:01:55.598290 25482 net.cpp:381] fuse <- score-pool3c
I0721 00:01:55.598296 25482 net.cpp:339] fuse -> score-final
I0721 00:01:55.598302 25482 net.cpp:114] Setting up fuse
I0721 00:01:55.598309 25482 net.cpp:121] Top shape: 1 2 58 58 (6728)
I0721 00:01:55.598314 25482 layer_factory.hpp:74] Creating layer upsample
I0721 00:01:55.598320 25482 net.cpp:85] Creating Layer upsample
I0721 00:01:55.598325 25482 net.cpp:381] upsample <- score-final
I0721 00:01:55.598330 25482 net.cpp:339] upsample -> bigscore
I0721 00:01:55.598335 25482 net.cpp:114] Setting up upsample
I0721 00:01:55.598346 25482 net.cpp:121] Top shape: 1 2 472 472 (445568)
I0721 00:01:55.598353 25482 layer_factory.hpp:74] Creating layer crop
I0721 00:01:55.598358 25482 net.cpp:85] Creating Layer crop
I0721 00:01:55.598363 25482 net.cpp:381] crop <- bigscore
I0721 00:01:55.598369 25482 net.cpp:381] crop <- data_data_0_split_1
I0721 00:01:55.598376 25482 net.cpp:339] crop -> upscore
I0721 00:01:55.598379 25482 net.cpp:114] Setting up crop
I0721 00:01:55.598448 25482 net.cpp:121] Top shape: 1 2 388 388 (301088)
I0721 00:01:55.598461 25482 layer_factory.hpp:74] Creating layer upscore_crop_0_split
I0721 00:01:55.598471 25482 net.cpp:85] Creating Layer upscore_crop_0_split
I0721 00:01:55.598476 25482 net.cpp:381] upscore_crop_0_split <- upscore
I0721 00:01:55.598484 25482 net.cpp:339] upscore_crop_0_split -> upscore_crop_0_split_0
I0721 00:01:55.598490 25482 net.cpp:339] upscore_crop_0_split -> upscore_crop_0_split_1
I0721 00:01:55.598497 25482 net.cpp:114] Setting up upscore_crop_0_split
I0721 00:01:55.598503 25482 net.cpp:121] Top shape: 1 2 388 388 (301088)
I0721 00:01:55.598507 25482 net.cpp:121] Top shape: 1 2 388 388 (301088)
I0721 00:01:55.598511 25482 layer_factory.hpp:74] Creating layer loss
I0721 00:01:55.598518 25482 net.cpp:85] Creating Layer loss
I0721 00:01:55.598523 25482 net.cpp:381] loss <- upscore_crop_0_split_0
I0721 00:01:55.598527 25482 net.cpp:381] loss <- label_data_1_split_0
I0721 00:01:55.598533 25482 net.cpp:339] loss -> loss
I0721 00:01:55.598539 25482 net.cpp:114] Setting up loss
I0721 00:01:55.598546 25482 layer_factory.hpp:74] Creating layer loss
I0721 00:01:55.598995 25482 net.cpp:121] Top shape: (1)
I0721 00:01:55.599020 25482 net.cpp:123]     with loss weight 1
I0721 00:01:55.599032 25482 layer_factory.hpp:74] Creating layer accuracy
I0721 00:01:55.599042 25482 net.cpp:85] Creating Layer accuracy
I0721 00:01:55.599048 25482 net.cpp:381] accuracy <- upscore_crop_0_split_1
I0721 00:01:55.599055 25482 net.cpp:381] accuracy <- label_data_1_split_1
I0721 00:01:55.599062 25482 net.cpp:339] accuracy -> accuracy
I0721 00:01:55.599071 25482 net.cpp:114] Setting up accuracy
I0721 00:01:55.599081 25482 net.cpp:121] Top shape: 1 1 1 3 (3)
I0721 00:01:55.599086 25482 net.cpp:170] accuracy does not need backward computation.
I0721 00:01:55.599089 25482 net.cpp:168] loss needs backward computation.
I0721 00:01:55.599095 25482 net.cpp:168] upscore_crop_0_split needs backward computation.
I0721 00:01:55.599099 25482 net.cpp:168] crop needs backward computation.
I0721 00:01:55.599104 25482 net.cpp:168] upsample needs backward computation.
…
