…
I0804 23:22:20.623121 23592 net.cpp:42] Initializing net from parameters: 
name: "FCN"
state {
  phase: TRAIN
}
layer {
  name: "data"
  type: "ImageSegData"
  top: "data"
  top: "label"
  include {
    phase: TRAIN
  }
  transform_param {
    mirror: true
    crop_size: 388
    mean_value: 104.008
    mean_value: 116.669
    mean_value: 122.675
  }
  image_data_param {
    source: "/media/BigDisk/xiaoyong/datafrommac/ourfacedata_train_2/traindatalist_2.txt"
    batch_size: 1
    shuffle: true
    root_folder: ""
    ignore_label: 255
    label_type: PIXEL
  }
}
layer {
  name: "conv1_1"
  type: "Convolution"
  bottom: "data"
  top: "conv1_1"
  param {
    lr_mult: 1
    decay_mult: 1
  }
  param {
    lr_mult: 2
    decay_mult: 0
  }
  convolution_param {
    num_output: 64
    pad: 100
    kernel_size: 3
    engine: CAFFE
  }
}
layer {
  name: "relu1_1"
  type: "ReLU"
  bottom: "conv1_1"
  top: "conv1_1"
}
layer {
  name: "conv1_2"
  type: "Convolution"
  bottom: "conv1_1"
  top: "conv1_2"
  param {
    lr_mult: 1
    decay_mult: 1
  }
  param {
    lr_mult: 2
    decay_mult: 0
  }
  convolution_param {
    num_output: 64
    pad: 1
    kernel_size: 3
    engine: CAFFE
  }
}
layer {
  name: "relu1_2"
  type: "ReLU"
  bottom: "conv1_2"
  top: "conv1_2"
}
layer {
  name: "pool1"
  type: "Pooling"
  bottom: "conv1_2"
  top: "pool1"
  pooling_param {
    pool: MAX
    kernel_size: 2
    stride: 2
  }
}
layer {
  name: "conv2_1"
  type: "Convolution"
  bottom: "pool1"
  top: "conv2_1"
  param {
    lr_mult: 1
    decay_mult: 1
  }
  param {
    lr_mult: 2
    decay_mult: 0
  }
  convolution_param {
    num_output: 128
    pad: 1
    kernel_size: 3
    engine: CAFFE
  }
}
layer {
  name: "relu2_1"
  type: "ReLU"
  bottom: "conv2_1"
  top: "conv2_1"
}
layer {
  name: "conv2_2"
  type: "Convolution"
  bottom: "conv2_1"
  top: "conv2_2"
  param {
    lr_mult: 1
    decay_mult: 1
  }
  param {
    lr_mult: 2
    decay_mult: 0
  }
  convolution_param {
    num_output: 128
    pad: 1
    kernel_size: 3
    engine: CAFFE
  }
}
layer {
  name: "relu2_2"
  type: "ReLU"
  bottom: "conv2_2"
  top: "conv2_2"
}
layer {
  name: "pool2"
  type: "Pooling"
  bottom: "conv2_2"
  top: "pool2"
  pooling_param {
    pool: MAX
    kernel_size: 2
    stride: 2
  }
}
layer {
  name: "conv3_1"
  type: "Convolution"
  bottom: "pool2"
  top: "conv3_1"
  param {
    lr_mult: 1
    decay_mult: 1
  }
  param {
    lr_mult: 2
    decay_mult: 0
  }
  convolution_param {
    num_output: 256
    pad: 1
    kernel_size: 3
    engine: CAFFE
  }
}
layer {
  name: "relu3_1"
  type: "ReLU"
  bottom: "conv3_1"
  top: "conv3_1"
}
layer {
  name: "conv3_2"
  type: "Convolution"
  bottom: "conv3_1"
  top: "conv3_2"
  param {
    lr_mult: 1
    decay_mult: 1
  }
  param {
    lr_mult: 2
    decay_mult: 0
  }
  convolution_param {
    num_output: 256
    pad: 1
    kernel_size: 3
    engine: CAFFE
  }
}
layer {
  name: "relu3_2"
  type: "ReLU"
  bottom: "conv3_2"
  top: "conv3_2"
}
layer {
  name: "conv3_3"
  type: "Convolution"
  bottom: "conv3_2"
  top: "conv3_3"
  param {
    lr_mult: 1
    decay_mult: 1
  }
  param {
    lr_mult: 2
    decay_mult: 0
  }
  convolution_param {
    num_output: 256
    pad: 1
    kernel_size: 3
    engine: CAFFE
  }
}
layer {
  name: "relu3_3"
  type: "ReLU"
  bottom: "conv3_3"
  top: "conv3_3"
}
layer {
  name: "pool3"
  type: "Pooling"
  bottom: "conv3_3"
  top: "pool3"
  pooling_param {
    pool: MAX
    kernel_size: 2
    stride: 2
  }
}
layer {
  name: "conv4_1"
  type: "Convolution"
  bottom: "pool3"
  top: "conv4_1"
  param {
    lr_mult: 1
    decay_mult: 1
  }
  param {
    lr_mult: 2
    decay_mult: 0
  }
  convolution_param {
    num_output: 512
    pad: 1
    kernel_size: 3
    engine: CAFFE
  }
}
layer {
  name: "relu4_1"
  type: "ReLU"
  bottom: "conv4_1"
  top: "conv4_1"
}
layer {
  name: "conv4_2"
  type: "Convolution"
  bottom: "conv4_1"
  top: "conv4_2"
  param {
    lr_mult: 1
    decay_mult: 1
  }
  param {
    lr_mult: 2
    decay_mult: 0
  }
  convolution_param {
    num_output: 512
    pad: 1
    kernel_size: 3
    engine: CAFFE
  }
}
layer {
  name: "relu4_2"
  type: "ReLU"
  bottom: "conv4_2"
  top: "conv4_2"
}
layer {
  name: "conv4_3"
  type: "Convolution"
  bottom: "conv4_2"
  top: "conv4_3"
  param {
    lr_mult: 1
    decay_mult: 1
  }
  param {
    lr_mult: 2
    decay_mult: 0
  }
  convolution_param {
    num_output: 512
    pad: 1
    kernel_size: 3
    engine: CAFFE
  }
}
layer {
  name: "relu4_3"
  type: "ReLU"
  bottom: "conv4_3"
  top: "conv4_3"
}
layer {
  name: "pool4"
  type: "Pooling"
  bottom: "conv4_3"
  top: "pool4"
  pooling_param {
    pool: MAX
    kernel_size: 2
    stride: 2
  }
}
layer {
  name: "conv5_1"
  type: "Convolution"
  bottom: "pool4"
  top: "conv5_1"
  param {
    lr_mult: 1
    decay_mult: 1
  }
  param {
    lr_mult: 2
    decay_mult: 0
  }
  convolution_param {
    num_output: 512
    pad: 1
    kernel_size: 3
    engine: CAFFE
  }
}
layer {
  name: "relu5_1"
  type: "ReLU"
  bottom: "conv5_1"
  top: "conv5_1"
}
layer {
  name: "conv5_2"
  type: "Convolution"
  bottom: "conv5_1"
  top: "conv5_2"
  param {
    lr_mult: 1
    decay_mult: 1
  }
  param {
    lr_mult: 2
    decay_mult: 0
  }
  convolution_param {
    num_output: 512
    pad: 1
    kernel_size: 3
    engine: CAFFE
  }
}
layer {
  name: "relu5_2"
  type: "ReLU"
  bottom: "conv5_2"
  top: "conv5_2"
}
layer {
  name: "conv5_3"
  type: "Convolution"
  bottom: "conv5_2"
  top: "conv5_3"
  param {
    lr_mult: 1
    decay_mult: 1
  }
  param {
    lr_mult: 2
    decay_mult: 0
  }
  convolution_param {
    num_output: 512
    pad: 1
    kernel_size: 3
    engine: CAFFE
  }
}
layer {
  name: "relu5_3"
  type: "ReLU"
  bottom: "conv5_3"
  top: "conv5_3"
}
layer {
  name: "pool5"
  type: "Pooling"
  bottom: "conv5_3"
  top: "pool5"
  pooling_param {
    pool: MAX
    kernel_size: 2
    stride: 2
  }
}
layer {
  name: "fc6"
  type: "Convolution"
  bottom: "pool5"
  top: "fc6"
  param {
    lr_mult: 1
    decay_mult: 1
  }
  param {
    lr_mult: 2
    decay_mult: 0
  }
  convolution_param {
    num_output: 4096
    kernel_size: 7
    engine: CAFFE
  }
}
layer {
  name: "relu6"
  type: "ReLU"
  bottom: "fc6"
  top: "fc6"
}
layer {
  name: "drop6"
  type: "Dropout"
  bottom: "fc6"
  top: "fc6"
  dropout_param {
    dropout_ratio: 0.5
  }
}
layer {
  name: "fc7"
  type: "Convolution"
  bottom: "fc6"
  top: "fc7"
  param {
    lr_mult: 1
    decay_mult: 1
  }
  param {
    lr_mult: 2
    decay_mult: 0
  }
  convolution_param {
    num_output: 4096
    kernel_size: 1
    engine: CAFFE
  }
}
layer {
  name: "relu7"
  type: "ReLU"
  bottom: "fc7"
  top: "fc7"
}
layer {
  name: "drop7"
  type: "Dropout"
  bottom: "fc7"
  top: "fc7"
  dropout_param {
    dropout_ratio: 0.5
  }
}
layer {
  name: "score-fr"
  type: "Convolution"
  bottom: "fc7"
  top: "score"
  param {
    lr_mult: 1
    decay_mult: 1
  }
  param {
    lr_mult: 2
    decay_mult: 0
  }
  convolution_param {
    num_output: 2
    kernel_size: 1
    engine: CAFFE
  }
}
layer {
  name: "score2"
  type: "Deconvolution"
  bottom: "score"
  top: "score2"
  param {
    lr_mult: 1
    decay_mult: 1
  }
  param {
    lr_mult: 2
    decay_mult: 0
  }
  convolution_param {
    num_output: 2
    kernel_size: 4
    stride: 2
  }
}
layer {
  name: "score-pool4"
  type: "Convolution"
  bottom: "pool4"
  top: "score-pool4"
  param {
    lr_mult: 1
    decay_mult: 1
  }
  param {
    lr_mult: 2
    decay_mult: 0
  }
  convolution_param {
    num_output: 2
    kernel_size: 1
    engine: CAFFE
  }
}
layer {
  name: "crop"
  type: "Crop"
  bottom: "score-pool4"
  bottom: "score2"
  top: "score-pool4c"
}
layer {
  name: "fuse"
  type: "Eltwise"
  bottom: "score2"
  bottom: "score-pool4c"
  top: "score-fused"
  eltwise_param {
    operation: SUM
  }
}
layer {
  name: "score4"
  type: "Deconvolution"
  bottom: "score-fused"
  top: "score4"
  param {
    lr_mult: 1
    decay_mult: 1
  }
  convolution_param {
    num_output: 2
    bias_term: false
    kernel_size: 4
    stride: 2
  }
}
layer {
  name: "score-pool3"
  type: "Convolution"
  bottom: "pool3"
  top: "score-pool3"
  param {
    lr_mult: 1
    decay_mult: 1
  }
  param {
    lr_mult: 2
    decay_mult: 0
  }
  convolution_param {
    num_output: 2
    kernel_size: 1
    engine: CAFFE
  }
}
layer {
  name: "crop"
  type: "Crop"
  bottom: "score-pool3"
  bottom: "score4"
  top: "score-pool3c"
}
layer {
  name: "fuse"
  type: "Eltwise"
  bottom: "score4"
  bottom: "score-pool3c"
  top: "score-final"
  eltwise_param {
    operation: SUM
  }
}
layer {
  name: "upsample"
  type: "Deconvolution"
  bottom: "score-final"
  top: "bigscore"
  param {
    lr_mult: 1
  }
  convolution_param {
    num_output: 2
    bias_term: false
    kernel_size: 16
    stride: 8
  }
}
layer {
  name: "crop"
  type: "Crop"
  bottom: "bigscore"
  bottom: "data"
  top: "upscore"
}
layer {
  name: "loss"
  type: "SoftmaxWithLoss"
  bottom: "upscore"
  bottom: "label"
  top: "loss"
  loss_param {
    ignore_label: 255
  }
}
I0804 23:22:20.623325 23592 layer_factory.hpp:74] Creating layer data
I0804 23:22:20.623344 23592 net.cpp:85] Creating Layer data
I0804 23:22:20.623365 23592 net.cpp:339] data -> data
I0804 23:22:20.623379 23592 net.cpp:339] data -> label
I0804 23:22:20.623389 23592 net.cpp:339] data -> (automatic)
I0804 23:22:20.623394 23592 net.cpp:114] Setting up data
I0804 23:22:20.623787 23592 image_seg_data_layer.cpp:46] Opening file /media/BigDisk/xiaoyong/datafrommac/ourfacedata_train_2/traindatalist_2.txt
I0804 23:22:20.624801 23592 image_seg_data_layer.cpp:63] Shuffling data
I0804 23:22:20.624918 23592 image_seg_data_layer.cpp:68] A total of 900 images.
I0804 23:22:20.638742 23592 image_seg_data_layer.cpp:114] output data size: 1,3,388,388
I0804 23:22:20.638752 23592 image_seg_data_layer.cpp:118] output label size: 1,1,388,388
I0804 23:22:20.638756 23592 image_seg_data_layer.cpp:122] output data_dim size: 1,1,1,2
I0804 23:22:20.639304 23592 net.cpp:121] Top shape: 1 3 388 388 (451632)
I0804 23:22:20.639312 23592 net.cpp:121] Top shape: 1 1 388 388 (150544)
I0804 23:22:20.639317 23592 net.cpp:121] Top shape: 1 1 1 2 (2)
I0804 23:22:20.639323 23592 layer_factory.hpp:74] Creating layer data_data_0_split
I0804 23:22:20.639330 23592 net.cpp:85] Creating Layer data_data_0_split
I0804 23:22:20.639335 23592 net.cpp:381] data_data_0_split <- data
I0804 23:22:20.639344 23592 net.cpp:339] data_data_0_split -> data_data_0_split_0
I0804 23:22:20.639351 23592 net.cpp:339] data_data_0_split -> data_data_0_split_1
I0804 23:22:20.639358 23592 net.cpp:114] Setting up data_data_0_split
I0804 23:22:20.639364 23592 net.cpp:121] Top shape: 1 3 388 388 (451632)
I0804 23:22:20.639369 23592 net.cpp:121] Top shape: 1 3 388 388 (451632)
I0804 23:22:20.639371 23592 layer_factory.hpp:74] Creating layer conv1_1
I0804 23:22:20.639379 23592 net.cpp:85] Creating Layer conv1_1
I0804 23:22:20.639382 23592 net.cpp:381] conv1_1 <- data_data_0_split_0
I0804 23:22:20.639387 23592 net.cpp:339] conv1_1 -> conv1_1
I0804 23:22:20.639402 23592 net.cpp:114] Setting up conv1_1
I0804 23:22:20.639993 23592 net.cpp:121] Top shape: 1 64 586 586 (21977344)
I0804 23:22:20.640007 23592 layer_factory.hpp:74] Creating layer relu1_1
I0804 23:22:20.640014 23592 net.cpp:85] Creating Layer relu1_1
I0804 23:22:20.640017 23592 net.cpp:381] relu1_1 <- conv1_1
I0804 23:22:20.640022 23592 net.cpp:328] relu1_1 -> conv1_1 (in-place)
I0804 23:22:20.640027 23592 net.cpp:114] Setting up relu1_1
I0804 23:22:20.640033 23592 net.cpp:121] Top shape: 1 64 586 586 (21977344)
I0804 23:22:20.640035 23592 layer_factory.hpp:74] Creating layer conv1_2
I0804 23:22:20.640043 23592 net.cpp:85] Creating Layer conv1_2
I0804 23:22:20.640046 23592 net.cpp:381] conv1_2 <- conv1_1
I0804 23:22:20.640050 23592 net.cpp:339] conv1_2 -> conv1_2
I0804 23:22:20.640056 23592 net.cpp:114] Setting up conv1_2
I0804 23:22:20.640957 23592 net.cpp:121] Top shape: 1 64 586 586 (21977344)
I0804 23:22:20.640969 23592 layer_factory.hpp:74] Creating layer relu1_2
I0804 23:22:20.640975 23592 net.cpp:85] Creating Layer relu1_2
I0804 23:22:20.640980 23592 net.cpp:381] relu1_2 <- conv1_2
I0804 23:22:20.640983 23592 net.cpp:328] relu1_2 -> conv1_2 (in-place)
I0804 23:22:20.640988 23592 net.cpp:114] Setting up relu1_2
I0804 23:22:20.640995 23592 net.cpp:121] Top shape: 1 64 586 586 (21977344)
I0804 23:22:20.640998 23592 layer_factory.hpp:74] Creating layer pool1
I0804 23:22:20.641005 23592 net.cpp:85] Creating Layer pool1
I0804 23:22:20.641007 23592 net.cpp:381] pool1 <- conv1_2
I0804 23:22:20.641011 23592 net.cpp:339] pool1 -> pool1
I0804 23:22:20.641016 23592 net.cpp:114] Setting up pool1
I0804 23:22:20.641027 23592 net.cpp:121] Top shape: 1 64 293 293 (5494336)
I0804 23:22:20.641031 23592 layer_factory.hpp:74] Creating layer conv2_1
I0804 23:22:20.641037 23592 net.cpp:85] Creating Layer conv2_1
I0804 23:22:20.641041 23592 net.cpp:381] conv2_1 <- pool1
I0804 23:22:20.641058 23592 net.cpp:339] conv2_1 -> conv2_1
I0804 23:22:20.641065 23592 net.cpp:114] Setting up conv2_1
I0804 23:22:20.641437 23592 net.cpp:121] Top shape: 1 128 293 293 (10988672)
I0804 23:22:20.641448 23592 layer_factory.hpp:74] Creating layer relu2_1
I0804 23:22:20.641453 23592 net.cpp:85] Creating Layer relu2_1
I0804 23:22:20.641458 23592 net.cpp:381] relu2_1 <- conv2_1
I0804 23:22:20.641461 23592 net.cpp:328] relu2_1 -> conv2_1 (in-place)
I0804 23:22:20.641466 23592 net.cpp:114] Setting up relu2_1
I0804 23:22:20.641471 23592 net.cpp:121] Top shape: 1 128 293 293 (10988672)
I0804 23:22:20.641474 23592 layer_factory.hpp:74] Creating layer conv2_2
I0804 23:22:20.641482 23592 net.cpp:85] Creating Layer conv2_2
I0804 23:22:20.641485 23592 net.cpp:381] conv2_2 <- conv2_1
I0804 23:22:20.641490 23592 net.cpp:339] conv2_2 -> conv2_2
I0804 23:22:20.641494 23592 net.cpp:114] Setting up conv2_2
I0804 23:22:20.641928 23592 net.cpp:121] Top shape: 1 128 293 293 (10988672)
I0804 23:22:20.641938 23592 layer_factory.hpp:74] Creating layer relu2_2
I0804 23:22:20.641943 23592 net.cpp:85] Creating Layer relu2_2
I0804 23:22:20.641947 23592 net.cpp:381] relu2_2 <- conv2_2
I0804 23:22:20.641950 23592 net.cpp:328] relu2_2 -> conv2_2 (in-place)
I0804 23:22:20.641955 23592 net.cpp:114] Setting up relu2_2
I0804 23:22:20.641959 23592 net.cpp:121] Top shape: 1 128 293 293 (10988672)
I0804 23:22:20.641963 23592 layer_factory.hpp:74] Creating layer pool2
I0804 23:22:20.641968 23592 net.cpp:85] Creating Layer pool2
I0804 23:22:20.641971 23592 net.cpp:381] pool2 <- conv2_2
I0804 23:22:20.641976 23592 net.cpp:339] pool2 -> pool2
I0804 23:22:20.641981 23592 net.cpp:114] Setting up pool2
I0804 23:22:20.641988 23592 net.cpp:121] Top shape: 1 128 147 147 (2765952)
I0804 23:22:20.641990 23592 layer_factory.hpp:74] Creating layer conv3_1
I0804 23:22:20.641996 23592 net.cpp:85] Creating Layer conv3_1
I0804 23:22:20.642000 23592 net.cpp:381] conv3_1 <- pool2
I0804 23:22:20.642004 23592 net.cpp:339] conv3_1 -> conv3_1
I0804 23:22:20.642009 23592 net.cpp:114] Setting up conv3_1
I0804 23:22:20.642566 23592 net.cpp:121] Top shape: 1 256 147 147 (5531904)
I0804 23:22:20.642578 23592 layer_factory.hpp:74] Creating layer relu3_1
I0804 23:22:20.642593 23592 net.cpp:85] Creating Layer relu3_1
I0804 23:22:20.642598 23592 net.cpp:381] relu3_1 <- conv3_1
I0804 23:22:20.642603 23592 net.cpp:328] relu3_1 -> conv3_1 (in-place)
I0804 23:22:20.642607 23592 net.cpp:114] Setting up relu3_1
I0804 23:22:20.642612 23592 net.cpp:121] Top shape: 1 256 147 147 (5531904)
I0804 23:22:20.642616 23592 layer_factory.hpp:74] Creating layer conv3_2
I0804 23:22:20.642621 23592 net.cpp:85] Creating Layer conv3_2
I0804 23:22:20.642624 23592 net.cpp:381] conv3_2 <- conv3_1
I0804 23:22:20.642629 23592 net.cpp:339] conv3_2 -> conv3_2
I0804 23:22:20.642634 23592 net.cpp:114] Setting up conv3_2
I0804 23:22:20.643576 23592 net.cpp:121] Top shape: 1 256 147 147 (5531904)
I0804 23:22:20.643587 23592 layer_factory.hpp:74] Creating layer relu3_2
I0804 23:22:20.643592 23592 net.cpp:85] Creating Layer relu3_2
I0804 23:22:20.643596 23592 net.cpp:381] relu3_2 <- conv3_2
I0804 23:22:20.643601 23592 net.cpp:328] relu3_2 -> conv3_2 (in-place)
I0804 23:22:20.643606 23592 net.cpp:114] Setting up relu3_2
I0804 23:22:20.643611 23592 net.cpp:121] Top shape: 1 256 147 147 (5531904)
I0804 23:22:20.643615 23592 layer_factory.hpp:74] Creating layer conv3_3
I0804 23:22:20.643622 23592 net.cpp:85] Creating Layer conv3_3
I0804 23:22:20.643625 23592 net.cpp:381] conv3_3 <- conv3_2
I0804 23:22:20.643631 23592 net.cpp:339] conv3_3 -> conv3_3
I0804 23:22:20.643636 23592 net.cpp:114] Setting up conv3_3
I0804 23:22:20.645517 23592 net.cpp:121] Top shape: 1 256 147 147 (5531904)
I0804 23:22:20.645542 23592 layer_factory.hpp:74] Creating layer relu3_3
I0804 23:22:20.645551 23592 net.cpp:85] Creating Layer relu3_3
I0804 23:22:20.645556 23592 net.cpp:381] relu3_3 <- conv3_3
I0804 23:22:20.645565 23592 net.cpp:328] relu3_3 -> conv3_3 (in-place)
I0804 23:22:20.645572 23592 net.cpp:114] Setting up relu3_3
I0804 23:22:20.645577 23592 net.cpp:121] Top shape: 1 256 147 147 (5531904)
I0804 23:22:20.645581 23592 layer_factory.hpp:74] Creating layer pool3
I0804 23:22:20.645586 23592 net.cpp:85] Creating Layer pool3
I0804 23:22:20.645591 23592 net.cpp:381] pool3 <- conv3_3
I0804 23:22:20.645596 23592 net.cpp:339] pool3 -> pool3
I0804 23:22:20.645603 23592 net.cpp:114] Setting up pool3
I0804 23:22:20.645612 23592 net.cpp:121] Top shape: 1 256 74 74 (1401856)
I0804 23:22:20.645615 23592 layer_factory.hpp:74] Creating layer pool3_pool3_0_split
I0804 23:22:20.645623 23592 net.cpp:85] Creating Layer pool3_pool3_0_split
I0804 23:22:20.645627 23592 net.cpp:381] pool3_pool3_0_split <- pool3
I0804 23:22:20.645633 23592 net.cpp:339] pool3_pool3_0_split -> pool3_pool3_0_split_0
I0804 23:22:20.645642 23592 net.cpp:339] pool3_pool3_0_split -> pool3_pool3_0_split_1
I0804 23:22:20.645650 23592 net.cpp:114] Setting up pool3_pool3_0_split
I0804 23:22:20.645660 23592 net.cpp:121] Top shape: 1 256 74 74 (1401856)
I0804 23:22:20.645666 23592 net.cpp:121] Top shape: 1 256 74 74 (1401856)
I0804 23:22:20.645673 23592 layer_factory.hpp:74] Creating layer conv4_1
I0804 23:22:20.645681 23592 net.cpp:85] Creating Layer conv4_1
I0804 23:22:20.645689 23592 net.cpp:381] conv4_1 <- pool3_pool3_0_split_0
I0804 23:22:20.645696 23592 net.cpp:339] conv4_1 -> conv4_1
I0804 23:22:20.645706 23592 net.cpp:114] Setting up conv4_1
I0804 23:22:20.648166 23592 net.cpp:121] Top shape: 1 512 74 74 (2803712)
I0804 23:22:20.648191 23592 layer_factory.hpp:74] Creating layer relu4_1
I0804 23:22:20.648205 23592 net.cpp:85] Creating Layer relu4_1
I0804 23:22:20.648211 23592 net.cpp:381] relu4_1 <- conv4_1
I0804 23:22:20.648219 23592 net.cpp:328] relu4_1 -> conv4_1 (in-place)
I0804 23:22:20.648226 23592 net.cpp:114] Setting up relu4_1
I0804 23:22:20.648233 23592 net.cpp:121] Top shape: 1 512 74 74 (2803712)
I0804 23:22:20.648237 23592 layer_factory.hpp:74] Creating layer conv4_2
I0804 23:22:20.648244 23592 net.cpp:85] Creating Layer conv4_2
I0804 23:22:20.648248 23592 net.cpp:381] conv4_2 <- conv4_1
I0804 23:22:20.648254 23592 net.cpp:339] conv4_2 -> conv4_2
I0804 23:22:20.648260 23592 net.cpp:114] Setting up conv4_2
I0804 23:22:20.651145 23592 net.cpp:121] Top shape: 1 512 74 74 (2803712)
I0804 23:22:20.651168 23592 layer_factory.hpp:74] Creating layer relu4_2
I0804 23:22:20.651178 23592 net.cpp:85] Creating Layer relu4_2
I0804 23:22:20.651183 23592 net.cpp:381] relu4_2 <- conv4_2
I0804 23:22:20.651190 23592 net.cpp:328] relu4_2 -> conv4_2 (in-place)
I0804 23:22:20.651196 23592 net.cpp:114] Setting up relu4_2
I0804 23:22:20.651201 23592 net.cpp:121] Top shape: 1 512 74 74 (2803712)
I0804 23:22:20.651206 23592 layer_factory.hpp:74] Creating layer conv4_3
I0804 23:22:20.651212 23592 net.cpp:85] Creating Layer conv4_3
I0804 23:22:20.651216 23592 net.cpp:381] conv4_3 <- conv4_2
I0804 23:22:20.651221 23592 net.cpp:339] conv4_3 -> conv4_3
I0804 23:22:20.651226 23592 net.cpp:114] Setting up conv4_3
I0804 23:22:20.653434 23592 net.cpp:121] Top shape: 1 512 74 74 (2803712)
I0804 23:22:20.653450 23592 layer_factory.hpp:74] Creating layer relu4_3
I0804 23:22:20.653456 23592 net.cpp:85] Creating Layer relu4_3
I0804 23:22:20.653461 23592 net.cpp:381] relu4_3 <- conv4_3
I0804 23:22:20.653468 23592 net.cpp:328] relu4_3 -> conv4_3 (in-place)
I0804 23:22:20.653473 23592 net.cpp:114] Setting up relu4_3
I0804 23:22:20.653478 23592 net.cpp:121] Top shape: 1 512 74 74 (2803712)
I0804 23:22:20.653482 23592 layer_factory.hpp:74] Creating layer pool4
I0804 23:22:20.653488 23592 net.cpp:85] Creating Layer pool4
I0804 23:22:20.653491 23592 net.cpp:381] pool4 <- conv4_3
I0804 23:22:20.653496 23592 net.cpp:339] pool4 -> pool4
I0804 23:22:20.653501 23592 net.cpp:114] Setting up pool4
I0804 23:22:20.653507 23592 net.cpp:121] Top shape: 1 512 37 37 (700928)
I0804 23:22:20.653512 23592 layer_factory.hpp:74] Creating layer pool4_pool4_0_split
I0804 23:22:20.653517 23592 net.cpp:85] Creating Layer pool4_pool4_0_split
I0804 23:22:20.653519 23592 net.cpp:381] pool4_pool4_0_split <- pool4
I0804 23:22:20.653524 23592 net.cpp:339] pool4_pool4_0_split -> pool4_pool4_0_split_0
I0804 23:22:20.653528 23592 net.cpp:339] pool4_pool4_0_split -> pool4_pool4_0_split_1
I0804 23:22:20.653533 23592 net.cpp:114] Setting up pool4_pool4_0_split
I0804 23:22:20.653538 23592 net.cpp:121] Top shape: 1 512 37 37 (700928)
I0804 23:22:20.653542 23592 net.cpp:121] Top shape: 1 512 37 37 (700928)
I0804 23:22:20.653545 23592 layer_factory.hpp:74] Creating layer conv5_1
I0804 23:22:20.653576 23592 net.cpp:85] Creating Layer conv5_1
I0804 23:22:20.653580 23592 net.cpp:381] conv5_1 <- pool4_pool4_0_split_0
I0804 23:22:20.653586 23592 net.cpp:339] conv5_1 -> conv5_1
I0804 23:22:20.653591 23592 net.cpp:114] Setting up conv5_1
I0804 23:22:20.657290 23592 net.cpp:121] Top shape: 1 512 37 37 (700928)
I0804 23:22:20.657320 23592 layer_factory.hpp:74] Creating layer relu5_1
I0804 23:22:20.657330 23592 net.cpp:85] Creating Layer relu5_1
I0804 23:22:20.657336 23592 net.cpp:381] relu5_1 <- conv5_1
I0804 23:22:20.657343 23592 net.cpp:328] relu5_1 -> conv5_1 (in-place)
I0804 23:22:20.657351 23592 net.cpp:114] Setting up relu5_1
I0804 23:22:20.657356 23592 net.cpp:121] Top shape: 1 512 37 37 (700928)
I0804 23:22:20.657361 23592 layer_factory.hpp:74] Creating layer conv5_2
I0804 23:22:20.657369 23592 net.cpp:85] Creating Layer conv5_2
I0804 23:22:20.657373 23592 net.cpp:381] conv5_2 <- conv5_1
I0804 23:22:20.657380 23592 net.cpp:339] conv5_2 -> conv5_2
I0804 23:22:20.657388 23592 net.cpp:114] Setting up conv5_2
I0804 23:22:20.661969 23592 net.cpp:121] Top shape: 1 512 37 37 (700928)
I0804 23:22:20.661993 23592 layer_factory.hpp:74] Creating layer relu5_2
I0804 23:22:20.662001 23592 net.cpp:85] Creating Layer relu5_2
I0804 23:22:20.662005 23592 net.cpp:381] relu5_2 <- conv5_2
I0804 23:22:20.662011 23592 net.cpp:328] relu5_2 -> conv5_2 (in-place)
I0804 23:22:20.662017 23592 net.cpp:114] Setting up relu5_2
I0804 23:22:20.662022 23592 net.cpp:121] Top shape: 1 512 37 37 (700928)
I0804 23:22:20.662025 23592 layer_factory.hpp:74] Creating layer conv5_3
I0804 23:22:20.662035 23592 net.cpp:85] Creating Layer conv5_3
I0804 23:22:20.662039 23592 net.cpp:381] conv5_3 <- conv5_2
I0804 23:22:20.662045 23592 net.cpp:339] conv5_3 -> conv5_3
I0804 23:22:20.662070 23592 net.cpp:114] Setting up conv5_3
I0804 23:22:20.664413 23592 net.cpp:121] Top shape: 1 512 37 37 (700928)
I0804 23:22:20.664433 23592 layer_factory.hpp:74] Creating layer relu5_3
I0804 23:22:20.664443 23592 net.cpp:85] Creating Layer relu5_3
I0804 23:22:20.664446 23592 net.cpp:381] relu5_3 <- conv5_3
I0804 23:22:20.664453 23592 net.cpp:328] relu5_3 -> conv5_3 (in-place)
I0804 23:22:20.664459 23592 net.cpp:114] Setting up relu5_3
I0804 23:22:20.664464 23592 net.cpp:121] Top shape: 1 512 37 37 (700928)
I0804 23:22:20.664468 23592 layer_factory.hpp:74] Creating layer pool5
I0804 23:22:20.664474 23592 net.cpp:85] Creating Layer pool5
I0804 23:22:20.664477 23592 net.cpp:381] pool5 <- conv5_3
I0804 23:22:20.664489 23592 net.cpp:339] pool5 -> pool5
I0804 23:22:20.664494 23592 net.cpp:114] Setting up pool5
I0804 23:22:20.664501 23592 net.cpp:121] Top shape: 1 512 19 19 (184832)
I0804 23:22:20.664505 23592 layer_factory.hpp:74] Creating layer fc6
I0804 23:22:20.664511 23592 net.cpp:85] Creating Layer fc6
I0804 23:22:20.664515 23592 net.cpp:381] fc6 <- pool5
I0804 23:22:20.664520 23592 net.cpp:339] fc6 -> fc6
I0804 23:22:20.664525 23592 net.cpp:114] Setting up fc6
I0804 23:22:27.768250 23607 image_seg_data_layer.cpp:212] start to transform the data
I0804 23:22:33.133746 23592 net.cpp:121] Top shape: 1 4096 13 13 (692224)
I0804 23:22:33.133787 23592 layer_factory.hpp:74] Creating layer relu6
I0804 23:22:33.133798 23592 net.cpp:85] Creating Layer relu6
I0804 23:22:33.133805 23592 net.cpp:381] relu6 <- fc6
I0804 23:22:33.133810 23592 net.cpp:328] relu6 -> fc6 (in-place)
I0804 23:22:33.133817 23592 net.cpp:114] Setting up relu6
I0804 23:22:33.133822 23592 net.cpp:121] Top shape: 1 4096 13 13 (692224)
I0804 23:22:33.133826 23592 layer_factory.hpp:74] Creating layer drop6
I0804 23:22:33.133841 23592 net.cpp:85] Creating Layer drop6
I0804 23:22:33.133843 23592 net.cpp:381] drop6 <- fc6
I0804 23:22:33.133848 23592 net.cpp:328] drop6 -> fc6 (in-place)
I0804 23:22:33.133852 23592 net.cpp:114] Setting up drop6
I0804 23:22:33.133860 23592 net.cpp:121] Top shape: 1 4096 13 13 (692224)
I0804 23:22:33.133864 23592 layer_factory.hpp:74] Creating layer fc7
I0804 23:22:33.133870 23592 net.cpp:85] Creating Layer fc7
I0804 23:22:33.133873 23592 net.cpp:381] fc7 <- fc6
I0804 23:22:33.133878 23592 net.cpp:339] fc7 -> fc7
I0804 23:22:33.133884 23592 net.cpp:114] Setting up fc7
I0804 23:22:33.156486 23592 net.cpp:121] Top shape: 1 4096 13 13 (692224)
I0804 23:22:33.156520 23592 layer_factory.hpp:74] Creating layer relu7
I0804 23:22:33.156529 23592 net.cpp:85] Creating Layer relu7
I0804 23:22:33.156533 23592 net.cpp:381] relu7 <- fc7
I0804 23:22:33.156540 23592 net.cpp:328] relu7 -> fc7 (in-place)
I0804 23:22:33.156546 23592 net.cpp:114] Setting up relu7
I0804 23:22:33.156550 23592 net.cpp:121] Top shape: 1 4096 13 13 (692224)
I0804 23:22:33.156554 23592 layer_factory.hpp:74] Creating layer drop7
I0804 23:22:33.156560 23592 net.cpp:85] Creating Layer drop7
I0804 23:22:33.156563 23592 net.cpp:381] drop7 <- fc7
I0804 23:22:33.156569 23592 net.cpp:328] drop7 -> fc7 (in-place)
I0804 23:22:33.156574 23592 net.cpp:114] Setting up drop7
I0804 23:22:33.156579 23592 net.cpp:121] Top shape: 1 4096 13 13 (692224)
I0804 23:22:33.156582 23592 layer_factory.hpp:74] Creating layer score-fr
I0804 23:22:33.156589 23592 net.cpp:85] Creating Layer score-fr
I0804 23:22:33.156591 23592 net.cpp:381] score-fr <- fc7
I0804 23:22:33.156596 23592 net.cpp:339] score-fr -> score
I0804 23:22:33.156602 23592 net.cpp:114] Setting up score-fr
I0804 23:22:33.156620 23592 net.cpp:121] Top shape: 1 2 13 13 (338)
I0804 23:22:33.156625 23592 layer_factory.hpp:74] Creating layer score2
I0804 23:22:33.156632 23592 net.cpp:85] Creating Layer score2
I0804 23:22:33.156636 23592 net.cpp:381] score2 <- score
I0804 23:22:33.156642 23592 net.cpp:339] score2 -> score2
I0804 23:22:33.156646 23592 net.cpp:114] Setting up score2
I0804 23:22:33.156657 23592 net.cpp:121] Top shape: 1 2 28 28 (1568)
I0804 23:22:33.156667 23592 layer_factory.hpp:74] Creating layer score2_score2_0_split
I0804 23:22:33.156692 23592 net.cpp:85] Creating Layer score2_score2_0_split
I0804 23:22:33.156695 23592 net.cpp:381] score2_score2_0_split <- score2
I0804 23:22:33.156702 23592 net.cpp:339] score2_score2_0_split -> score2_score2_0_split_0
I0804 23:22:33.156707 23592 net.cpp:339] score2_score2_0_split -> score2_score2_0_split_1
I0804 23:22:33.156714 23592 net.cpp:114] Setting up score2_score2_0_split
I0804 23:22:33.156721 23592 net.cpp:121] Top shape: 1 2 28 28 (1568)
I0804 23:22:33.156726 23592 net.cpp:121] Top shape: 1 2 28 28 (1568)
I0804 23:22:33.156730 23592 layer_factory.hpp:74] Creating layer score-pool4
I0804 23:22:33.156735 23592 net.cpp:85] Creating Layer score-pool4
I0804 23:22:33.156739 23592 net.cpp:381] score-pool4 <- pool4_pool4_0_split_1
I0804 23:22:33.156745 23592 net.cpp:339] score-pool4 -> score-pool4
I0804 23:22:33.156750 23592 net.cpp:114] Setting up score-pool4
I0804 23:22:33.156764 23592 net.cpp:121] Top shape: 1 2 37 37 (2738)
I0804 23:22:33.156771 23592 layer_factory.hpp:74] Creating layer crop
I0804 23:22:33.156782 23592 net.cpp:85] Creating Layer crop
I0804 23:22:33.156786 23592 net.cpp:381] crop <- score-pool4
I0804 23:22:33.156790 23592 net.cpp:381] crop <- score2_score2_0_split_0
I0804 23:22:33.156795 23592 net.cpp:339] crop -> score-pool4c
I0804 23:22:33.156800 23592 net.cpp:114] Setting up crop
I0804 23:22:33.156848 23592 net.cpp:121] Top shape: 1 2 28 28 (1568)
I0804 23:22:33.156853 23592 layer_factory.hpp:74] Creating layer fuse
I0804 23:22:33.156860 23592 net.cpp:85] Creating Layer fuse
I0804 23:22:33.156863 23592 net.cpp:381] fuse <- score2_score2_0_split_1
I0804 23:22:33.156868 23592 net.cpp:381] fuse <- score-pool4c
I0804 23:22:33.156879 23592 net.cpp:339] fuse -> score-fused
I0804 23:22:33.156884 23592 net.cpp:114] Setting up fuse
I0804 23:22:33.156890 23592 net.cpp:121] Top shape: 1 2 28 28 (1568)
I0804 23:22:33.156894 23592 layer_factory.hpp:74] Creating layer score4
I0804 23:22:33.156899 23592 net.cpp:85] Creating Layer score4
I0804 23:22:33.156903 23592 net.cpp:381] score4 <- score-fused
I0804 23:22:33.156908 23592 net.cpp:339] score4 -> score4
I0804 23:22:33.156939 23592 net.cpp:114] Setting up score4
I0804 23:22:33.156946 23592 net.cpp:121] Top shape: 1 2 58 58 (6728)
I0804 23:22:33.156950 23592 layer_factory.hpp:74] Creating layer score4_score4_0_split
I0804 23:22:33.156965 23592 net.cpp:85] Creating Layer score4_score4_0_split
I0804 23:22:33.156972 23592 net.cpp:381] score4_score4_0_split <- score4
I0804 23:22:33.156977 23592 net.cpp:339] score4_score4_0_split -> score4_score4_0_split_0
I0804 23:22:33.156982 23592 net.cpp:339] score4_score4_0_split -> score4_score4_0_split_1
I0804 23:22:33.156987 23592 net.cpp:114] Setting up score4_score4_0_split
I0804 23:22:33.156993 23592 net.cpp:121] Top shape: 1 2 58 58 (6728)
I0804 23:22:33.156997 23592 net.cpp:121] Top shape: 1 2 58 58 (6728)
I0804 23:22:33.157001 23592 layer_factory.hpp:74] Creating layer score-pool3
I0804 23:22:33.157013 23592 net.cpp:85] Creating Layer score-pool3
I0804 23:22:33.157017 23592 net.cpp:381] score-pool3 <- pool3_pool3_0_split_1
I0804 23:22:33.157022 23592 net.cpp:339] score-pool3 -> score-pool3
I0804 23:22:33.157027 23592 net.cpp:114] Setting up score-pool3
I0804 23:22:33.157043 23592 net.cpp:121] Top shape: 1 2 74 74 (10952)
I0804 23:22:33.157049 23592 layer_factory.hpp:74] Creating layer crop
I0804 23:22:33.157055 23592 net.cpp:85] Creating Layer crop
I0804 23:22:33.157064 23592 net.cpp:381] crop <- score-pool3
I0804 23:22:33.157069 23592 net.cpp:381] crop <- score4_score4_0_split_0
I0804 23:22:33.157074 23592 net.cpp:339] crop -> score-pool3c
I0804 23:22:33.157079 23592 net.cpp:114] Setting up crop
I0804 23:22:33.157114 23592 net.cpp:121] Top shape: 1 2 58 58 (6728)
I0804 23:22:33.157120 23592 layer_factory.hpp:74] Creating layer fuse
I0804 23:22:33.157125 23592 net.cpp:85] Creating Layer fuse
I0804 23:22:33.157130 23592 net.cpp:381] fuse <- score4_score4_0_split_1
I0804 23:22:33.157133 23592 net.cpp:381] fuse <- score-pool3c
I0804 23:22:33.157138 23592 net.cpp:339] fuse -> score-final
I0804 23:22:33.157151 23592 net.cpp:114] Setting up fuse
I0804 23:22:33.157157 23592 net.cpp:121] Top shape: 1 2 58 58 (6728)
I0804 23:22:33.157161 23592 layer_factory.hpp:74] Creating layer upsample
I0804 23:22:33.157166 23592 net.cpp:85] Creating Layer upsample
I0804 23:22:33.157171 23592 net.cpp:381] upsample <- score-final
I0804 23:22:33.157176 23592 net.cpp:339] upsample -> bigscore
I0804 23:22:33.157181 23592 net.cpp:114] Setting up upsample
I0804 23:22:33.157191 23592 net.cpp:121] Top shape: 1 2 472 472 (445568)
I0804 23:22:33.157196 23592 layer_factory.hpp:74] Creating layer crop
I0804 23:22:33.157201 23592 net.cpp:85] Creating Layer crop
I0804 23:22:33.157204 23592 net.cpp:381] crop <- bigscore
I0804 23:22:33.157208 23592 net.cpp:381] crop <- data_data_0_split_1
I0804 23:22:33.157212 23592 net.cpp:339] crop -> upscore
I0804 23:22:33.157217 23592 net.cpp:114] Setting up crop
I0804 23:22:33.157260 23592 net.cpp:121] Top shape: 1 2 388 388 (301088)
I0804 23:22:33.157266 23592 layer_factory.hpp:74] Creating layer loss
I0804 23:22:33.157272 23592 net.cpp:85] Creating Layer loss
I0804 23:22:33.157284 23592 net.cpp:381] loss <- upscore
I0804 23:22:33.157289 23592 net.cpp:381] loss <- label
I0804 23:22:33.157294 23592 net.cpp:339] loss -> loss
I0804 23:22:33.157305 23592 net.cpp:114] Setting up loss
I0804 23:22:33.157310 23592 layer_factory.hpp:74] Creating layer loss
…
I0804 23:22:33.159416 23592 net.cpp:42] Initializing net from parameters: 
name: "FCN"
state {
  phase: TEST
}
layer {
  name: "data"
  type: "ImageSegData"
  top: "data"
  top: "label"
  include {
    phase: TEST
  }
  transform_param {
    mirror: true
    crop_size: 388
    mean_value: 104.008
    mean_value: 116.669
    mean_value: 122.675
  }
  image_data_param {
    source: "/media/BigDisk/xiaoyong/datafrommac/ourfacedata_train_2/ourtestdatalist.txt"
    batch_size: 1
    shuffle: true
    root_folder: ""
    ignore_label: 255
    label_type: PIXEL
  }
}
layer {
  name: "conv1_1"
  type: "Convolution"
  bottom: "data"
  top: "conv1_1"
  param {
    lr_mult: 1
    decay_mult: 1
  }
  param {
    lr_mult: 2
    decay_mult: 0
  }
  convolution_param {
    num_output: 64
    pad: 100
    kernel_size: 3
    engine: CAFFE
  }
}
layer {
  name: "relu1_1"
  type: "ReLU"
  bottom: "conv1_1"
  top: "conv1_1"
}
layer {
  name: "conv1_2"
  type: "Convolution"
  bottom: "conv1_1"
  top: "conv1_2"
  param {
    lr_mult: 1
    decay_mult: 1
  }
  param {
    lr_mult: 2
    decay_mult: 0
  }
  convolution_param {
    num_output: 64
    pad: 1
    kernel_size: 3
    engine: CAFFE
  }
}
layer {
  name: "relu1_2"
  type: "ReLU"
  bottom: "conv1_2"
  top: "conv1_2"
}
layer {
  name: "pool1"
  type: "Pooling"
  bottom: "conv1_2"
  top: "pool1"
  pooling_param {
    pool: MAX
    kernel_size: 2
    stride: 2
  }
}
layer {
  name: "conv2_1"
  type: "Convolution"
  bottom: "pool1"
  top: "conv2_1"
  param {
    lr_mult: 1
    decay_mult: 1
  }
  param {
    lr_mult: 2
    decay_mult: 0
  }
  convolution_param {
    num_output: 128
    pad: 1
    kernel_size: 3
    engine: CAFFE
  }
}
layer {
  name: "relu2_1"
  type: "ReLU"
  bottom: "conv2_1"
  top: "conv2_1"
}
layer {
  name: "conv2_2"
  type: "Convolution"
  bottom: "conv2_1"
  top: "conv2_2"
  param {
    lr_mult: 1
    decay_mult: 1
  }
  param {
    lr_mult: 2
    decay_mult: 0
  }
  convolution_param {
    num_output: 128
    pad: 1
    kernel_size: 3
    engine: CAFFE
  }
}
layer {
  name: "relu2_2"
  type: "ReLU"
  bottom: "conv2_2"
  top: "conv2_2"
}
layer {
  name: "pool2"
  type: "Pooling"
  bottom: "conv2_2"
  top: "pool2"
  pooling_param {
    pool: MAX
    kernel_size: 2
    stride: 2
  }
}
layer {
  name: "conv3_1"
  type: "Convolution"
  bottom: "pool2"
  top: "conv3_1"
  param {
    lr_mult: 1
    decay_mult: 1
  }
  param {
    lr_mult: 2
    decay_mult: 0
  }
  convolution_param {
    num_output: 256
    pad: 1
    kernel_size: 3
    engine: CAFFE
  }
}
layer {
  name: "relu3_1"
  type: "ReLU"
  bottom: "conv3_1"
  top: "conv3_1"
}
layer {
  name: "conv3_2"
  type: "Convolution"
  bottom: "conv3_1"
  top: "conv3_2"
  param {
    lr_mult: 1
    decay_mult: 1
  }
  param {
    lr_mult: 2
    decay_mult: 0
  }
  convolution_param {
    num_output: 256
    pad: 1
    kernel_size: 3
    engine: CAFFE
  }
}
layer {
  name: "relu3_2"
  type: "ReLU"
  bottom: "conv3_2"
  top: "conv3_2"
}
layer {
  name: "conv3_3"
  type: "Convolution"
  bottom: "conv3_2"
  top: "conv3_3"
  param {
    lr_mult: 1
    decay_mult: 1
  }
  param {
    lr_mult: 2
    decay_mult: 0
  }
  convolution_param {
    num_output: 256
    pad: 1
    kernel_size: 3
    engine: CAFFE
  }
}
layer {
  name: "relu3_3"
  type: "ReLU"
  bottom: "conv3_3"
  top: "conv3_3"
}
layer {
  name: "pool3"
  type: "Pooling"
  bottom: "conv3_3"
  top: "pool3"
  pooling_param {
    pool: MAX
    kernel_size: 2
    stride: 2
  }
}
layer {
  name: "conv4_1"
  type: "Convolution"
  bottom: "pool3"
  top: "conv4_1"
  param {
    lr_mult: 1
    decay_mult: 1
  }
  param {
    lr_mult: 2
    decay_mult: 0
  }
  convolution_param {
    num_output: 512
    pad: 1
    kernel_size: 3
    engine: CAFFE
  }
}
layer {
  name: "relu4_1"
  type: "ReLU"
  bottom: "conv4_1"
  top: "conv4_1"
}
layer {
  name: "conv4_2"
  type: "Convolution"
  bottom: "conv4_1"
  top: "conv4_2"
  param {
    lr_mult: 1
    decay_mult: 1
  }
  param {
    lr_mult: 2
    decay_mult: 0
  }
  convolution_param {
    num_output: 512
    pad: 1
    kernel_size: 3
    engine: CAFFE
  }
}
layer {
  name: "relu4_2"
  type: "ReLU"
  bottom: "conv4_2"
  top: "conv4_2"
}
layer {
  name: "conv4_3"
  type: "Convolution"
  bottom: "conv4_2"
  top: "conv4_3"
  param {
    lr_mult: 1
    decay_mult: 1
  }
  param {
    lr_mult: 2
    decay_mult: 0
  }
  convolution_param {
    num_output: 512
    pad: 1
    kernel_size: 3
    engine: CAFFE
  }
}
layer {
  name: "relu4_3"
  type: "ReLU"
  bottom: "conv4_3"
  top: "conv4_3"
}
layer {
  name: "pool4"
  type: "Pooling"
  bottom: "conv4_3"
  top: "pool4"
  pooling_param {
    pool: MAX
    kernel_size: 2
    stride: 2
  }
}
layer {
  name: "conv5_1"
  type: "Convolution"
  bottom: "pool4"
  top: "conv5_1"
  param {
    lr_mult: 1
    decay_mult: 1
  }
  param {
    lr_mult: 2
    decay_mult: 0
  }
  convolution_param {
    num_output: 512
    pad: 1
    kernel_size: 3
    engine: CAFFE
  }
}
layer {
  name: "relu5_1"
  type: "ReLU"
  bottom: "conv5_1"
  top: "conv5_1"
}
layer {
  name: "conv5_2"
  type: "Convolution"
  bottom: "conv5_1"
  top: "conv5_2"
  param {
    lr_mult: 1
    decay_mult: 1
  }
  param {
    lr_mult: 2
    decay_mult: 0
  }
  convolution_param {
    num_output: 512
    pad: 1
    kernel_size: 3
    engine: CAFFE
  }
}
layer {
  name: "relu5_2"
  type: "ReLU"
  bottom: "conv5_2"
  top: "conv5_2"
}
layer {
  name: "conv5_3"
  type: "Convolution"
  bottom: "conv5_2"
  top: "conv5_3"
  param {
    lr_mult: 1
    decay_mult: 1
  }
  param {
    lr_mult: 2
    decay_mult: 0
  }
  convolution_param {
    num_output: 512
    pad: 1
    kernel_size: 3
    engine: CAFFE
  }
}
layer {
  name: "relu5_3"
  type: "ReLU"
  bottom: "conv5_3"
  top: "conv5_3"
}
layer {
  name: "pool5"
  type: "Pooling"
  bottom: "conv5_3"
  top: "pool5"
  pooling_param {
    pool: MAX
    kernel_size: 2
    stride: 2
  }
}
layer {
  name: "fc6"
  type: "Convolution"
  bottom: "pool5"
  top: "fc6"
  param {
    lr_mult: 1
    decay_mult: 1
  }
  param {
    lr_mult: 2
    decay_mult: 0
  }
  convolution_param {
    num_output: 4096
    kernel_size: 7
    engine: CAFFE
  }
}
layer {
  name: "relu6"
  type: "ReLU"
  bottom: "fc6"
  top: "fc6"
}
layer {
  name: "drop6"
  type: "Dropout"
  bottom: "fc6"
  top: "fc6"
  dropout_param {
    dropout_ratio: 0.5
  }
}
layer {
  name: "fc7"
  type: "Convolution"
  bottom: "fc6"
  top: "fc7"
  param {
    lr_mult: 1
    decay_mult: 1
  }
  param {
    lr_mult: 2
    decay_mult: 0
  }
  convolution_param {
    num_output: 4096
    kernel_size: 1
    engine: CAFFE
  }
}
layer {
  name: "relu7"
  type: "ReLU"
  bottom: "fc7"
  top: "fc7"
}
layer {
  name: "drop7"
  type: "Dropout"
  bottom: "fc7"
  top: "fc7"
  dropout_param {
    dropout_ratio: 0.5
  }
}
layer {
  name: "score-fr"
  type: "Convolution"
  bottom: "fc7"
  top: "score"
  param {
    lr_mult: 1
    decay_mult: 1
  }
  param {
    lr_mult: 2
    decay_mult: 0
  }
  convolution_param {
    num_output: 2
    kernel_size: 1
    engine: CAFFE
  }
}
layer {
  name: "score2"
  type: "Deconvolution"
  bottom: "score"
  top: "score2"
  param {
    lr_mult: 1
    decay_mult: 1
  }
  param {
    lr_mult: 2
    decay_mult: 0
  }
  convolution_param {
    num_output: 2
    kernel_size: 4
    stride: 2
  }
}
layer {
  name: "score-pool4"
  type: "Convolution"
  bottom: "pool4"
  top: "score-pool4"
  param {
    lr_mult: 1
    decay_mult: 1
  }
  param {
    lr_mult: 2
    decay_mult: 0
  }
  convolution_param {
    num_output: 2
    kernel_size: 1
    engine: CAFFE
  }
}
layer {
  name: "crop"
  type: "Crop"
  bottom: "score-pool4"
  bottom: "score2"
  top: "score-pool4c"
}
layer {
  name: "fuse"
  type: "Eltwise"
  bottom: "score2"
  bottom: "score-pool4c"
  top: "score-fused"
  eltwise_param {
    operation: SUM
  }
}
layer {
  name: "score4"
  type: "Deconvolution"
  bottom: "score-fused"
  top: "score4"
  param {
    lr_mult: 1
    decay_mult: 1
  }
  convolution_param {
    num_output: 2
    bias_term: false
    kernel_size: 4
    stride: 2
  }
}
layer {
  name: "score-pool3"
  type: "Convolution"
  bottom: "pool3"
  top: "score-pool3"
  param {
    lr_mult: 1
    decay_mult: 1
  }
  param {
    lr_mult: 2
    decay_mult: 0
  }
  convolution_param {
    num_output: 2
    kernel_size: 1
    engine: CAFFE
  }
}
layer {
  name: "crop"
  type: "Crop"
  bottom: "score-pool3"
  bottom: "score4"
  top: "score-pool3c"
}
layer {
  name: "fuse"
  type: "Eltwise"
  bottom: "score4"
  bottom: "score-pool3c"
  top: "score-final"
  eltwise_param {
    operation: SUM
  }
}
layer {
  name: "upsample"
  type: "Deconvolution"
  bottom: "score-final"
  top: "bigscore"
  param {
    lr_mult: 1
  }
  convolution_param {
    num_output: 2
    bias_term: false
    kernel_size: 16
    stride: 8
  }
}
layer {
  name: "crop"
  type: "Crop"
  bottom: "bigscore"
  bottom: "data"
  top: "upscore"
}
layer {
  name: "loss"
  type: "SoftmaxWithLoss"
  bottom: "upscore"
  bottom: "label"
  top: "loss"
  loss_param {
    ignore_label: 255
  }
}
layer {
  name: "accuracy"
  type: "SegAccuracy"
  bottom: "upscore"
  bottom: "label"
  top: "accuracy"
  include {
    phase: TEST
  }
  seg_accuracy_param {
    ignore_label: 255
  }
}
I0804 23:22:33.159605 23592 layer_factory.hpp:74] Creating layer data
I0804 23:22:33.159615 23592 net.cpp:85] Creating Layer data
I0804 23:22:33.159620 23592 net.cpp:339] data -> data
I0804 23:22:33.159627 23592 net.cpp:339] data -> label
I0804 23:22:33.159634 23592 net.cpp:339] data -> (automatic)
I0804 23:22:33.159639 23592 net.cpp:114] Setting up data
I0804 23:22:33.159660 23592 image_seg_data_layer.cpp:46] Opening file /media/BigDisk/xiaoyong/datafrommac/ourfacedata_train_2/ourtestdatalist.txt
I0804 23:22:33.160058 23592 image_seg_data_layer.cpp:63] Shuffling data
I0804 23:22:33.160126 23592 image_seg_data_layer.cpp:68] A total of 355 images.
I0804 23:22:33.200808 23592 image_seg_data_layer.cpp:114] output data size: 1,3,388,388
I0804 23:22:33.200819 23592 image_seg_data_layer.cpp:118] output label size: 1,1,388,388
I0804 23:22:33.200821 23592 image_seg_data_layer.cpp:122] output data_dim size: 1,1,1,2
I0804 23:22:33.201158 23592 net.cpp:121] Top shape: 1 3 388 388 (451632)
I0804 23:22:33.201165 23592 net.cpp:121] Top shape: 1 1 388 388 (150544)
I0804 23:22:33.201170 23592 net.cpp:121] Top shape: 1 1 1 2 (2)
I0804 23:22:33.201174 23592 layer_factory.hpp:74] Creating layer data_data_0_split
I0804 23:22:33.201181 23592 net.cpp:85] Creating Layer data_data_0_split
I0804 23:22:33.201185 23592 net.cpp:381] data_data_0_split <- data
I0804 23:22:33.201200 23592 net.cpp:339] data_data_0_split -> data_data_0_split_0
I0804 23:22:33.201207 23592 net.cpp:339] data_data_0_split -> data_data_0_split_1
I0804 23:22:33.201212 23592 net.cpp:114] Setting up data_data_0_split
I0804 23:22:33.201218 23592 net.cpp:121] Top shape: 1 3 388 388 (451632)
I0804 23:22:33.201223 23592 net.cpp:121] Top shape: 1 3 388 388 (451632)
I0804 23:22:33.201227 23592 layer_factory.hpp:74] Creating layer label_data_1_split
I0804 23:22:33.201231 23592 net.cpp:85] Creating Layer label_data_1_split
I0804 23:22:33.201236 23592 net.cpp:381] label_data_1_split <- label
I0804 23:22:33.201241 23592 net.cpp:339] label_data_1_split -> label_data_1_split_0
I0804 23:22:33.201244 23592 net.cpp:339] label_data_1_split -> label_data_1_split_1
I0804 23:22:33.201249 23592 net.cpp:114] Setting up label_data_1_split
I0804 23:22:33.201256 23592 net.cpp:121] Top shape: 1 1 388 388 (150544)
I0804 23:22:33.201259 23592 net.cpp:121] Top shape: 1 1 388 388 (150544)
I0804 23:22:33.201262 23592 layer_factory.hpp:74] Creating layer conv1_1
I0804 23:22:33.201268 23592 net.cpp:85] Creating Layer conv1_1
I0804 23:22:33.201272 23592 net.cpp:381] conv1_1 <- data_data_0_split_0
I0804 23:22:33.201277 23592 net.cpp:339] conv1_1 -> conv1_1
I0804 23:22:33.201282 23592 net.cpp:114] Setting up conv1_1
I0804 23:22:33.201776 23592 net.cpp:121] Top shape: 1 64 586 586 (21977344)
I0804 23:22:33.201789 23592 layer_factory.hpp:74] Creating layer relu1_1
I0804 23:22:33.201797 23592 net.cpp:85] Creating Layer relu1_1
I0804 23:22:33.201800 23592 net.cpp:381] relu1_1 <- conv1_1
I0804 23:22:33.201805 23592 net.cpp:328] relu1_1 -> conv1_1 (in-place)
I0804 23:22:33.201810 23592 net.cpp:114] Setting up relu1_1
I0804 23:22:33.201815 23592 net.cpp:121] Top shape: 1 64 586 586 (21977344)
I0804 23:22:33.201818 23592 layer_factory.hpp:74] Creating layer conv1_2
I0804 23:22:33.201823 23592 net.cpp:85] Creating Layer conv1_2
I0804 23:22:33.201827 23592 net.cpp:381] conv1_2 <- conv1_1
I0804 23:22:33.201833 23592 net.cpp:339] conv1_2 -> conv1_2
I0804 23:22:33.201838 23592 net.cpp:114] Setting up conv1_2
I0804 23:22:33.202345 23592 net.cpp:121] Top shape: 1 64 586 586 (21977344)
I0804 23:22:33.202355 23592 layer_factory.hpp:74] Creating layer relu1_2
I0804 23:22:33.202361 23592 net.cpp:85] Creating Layer relu1_2
I0804 23:22:33.202364 23592 net.cpp:381] relu1_2 <- conv1_2
I0804 23:22:33.202370 23592 net.cpp:328] relu1_2 -> conv1_2 (in-place)
I0804 23:22:33.202374 23592 net.cpp:114] Setting up relu1_2
I0804 23:22:33.202378 23592 net.cpp:121] Top shape: 1 64 586 586 (21977344)
I0804 23:22:33.202383 23592 layer_factory.hpp:74] Creating layer pool1
I0804 23:22:33.202388 23592 net.cpp:85] Creating Layer pool1
I0804 23:22:33.202390 23592 net.cpp:381] pool1 <- conv1_2
I0804 23:22:33.202395 23592 net.cpp:339] pool1 -> pool1
I0804 23:22:33.202400 23592 net.cpp:114] Setting up pool1
I0804 23:22:33.202407 23592 net.cpp:121] Top shape: 1 64 293 293 (5494336)
I0804 23:22:33.202410 23592 layer_factory.hpp:74] Creating layer conv2_1
I0804 23:22:33.202415 23592 net.cpp:85] Creating Layer conv2_1
I0804 23:22:33.202419 23592 net.cpp:381] conv2_1 <- pool1
I0804 23:22:33.202427 23592 net.cpp:339] conv2_1 -> conv2_1
I0804 23:22:33.202443 23592 net.cpp:114] Setting up conv2_1
I0804 23:22:33.202671 23592 net.cpp:121] Top shape: 1 128 293 293 (10988672)
I0804 23:22:33.202682 23592 layer_factory.hpp:74] Creating layer relu2_1
I0804 23:22:33.202687 23592 net.cpp:85] Creating Layer relu2_1
I0804 23:22:33.202692 23592 net.cpp:381] relu2_1 <- conv2_1
I0804 23:22:33.202695 23592 net.cpp:328] relu2_1 -> conv2_1 (in-place)
I0804 23:22:33.202700 23592 net.cpp:114] Setting up relu2_1
I0804 23:22:33.202704 23592 net.cpp:121] Top shape: 1 128 293 293 (10988672)
I0804 23:22:33.202711 23592 layer_factory.hpp:74] Creating layer conv2_2
I0804 23:22:33.202716 23592 net.cpp:85] Creating Layer conv2_2
I0804 23:22:33.202719 23592 net.cpp:381] conv2_2 <- conv2_1
I0804 23:22:33.202725 23592 net.cpp:339] conv2_2 -> conv2_2
I0804 23:22:33.202730 23592 net.cpp:114] Setting up conv2_2
I0804 23:22:33.203059 23592 net.cpp:121] Top shape: 1 128 293 293 (10988672)
I0804 23:22:33.203068 23592 layer_factory.hpp:74] Creating layer relu2_2
I0804 23:22:33.203073 23592 net.cpp:85] Creating Layer relu2_2
I0804 23:22:33.203079 23592 net.cpp:381] relu2_2 <- conv2_2
I0804 23:22:33.203083 23592 net.cpp:328] relu2_2 -> conv2_2 (in-place)
I0804 23:22:33.203088 23592 net.cpp:114] Setting up relu2_2
I0804 23:22:33.203094 23592 net.cpp:121] Top shape: 1 128 293 293 (10988672)
I0804 23:22:33.203097 23592 layer_factory.hpp:74] Creating layer pool2
I0804 23:22:33.203101 23592 net.cpp:85] Creating Layer pool2
I0804 23:22:33.203104 23592 net.cpp:381] pool2 <- conv2_2
I0804 23:22:33.203109 23592 net.cpp:339] pool2 -> pool2
I0804 23:22:33.203114 23592 net.cpp:114] Setting up pool2
I0804 23:22:33.203119 23592 net.cpp:121] Top shape: 1 128 147 147 (2765952)
I0804 23:22:33.203122 23592 layer_factory.hpp:74] Creating layer conv3_1
I0804 23:22:33.203129 23592 net.cpp:85] Creating Layer conv3_1
I0804 23:22:33.203131 23592 net.cpp:381] conv3_1 <- pool2
I0804 23:22:33.203137 23592 net.cpp:339] conv3_1 -> conv3_1
I0804 23:22:33.203141 23592 net.cpp:114] Setting up conv3_1
I0804 23:22:33.203603 23592 net.cpp:121] Top shape: 1 256 147 147 (5531904)
I0804 23:22:33.203611 23592 layer_factory.hpp:74] Creating layer relu3_1
I0804 23:22:33.203618 23592 net.cpp:85] Creating Layer relu3_1
I0804 23:22:33.203620 23592 net.cpp:381] relu3_1 <- conv3_1
I0804 23:22:33.203625 23592 net.cpp:328] relu3_1 -> conv3_1 (in-place)
I0804 23:22:33.203630 23592 net.cpp:114] Setting up relu3_1
I0804 23:22:33.203634 23592 net.cpp:121] Top shape: 1 256 147 147 (5531904)
I0804 23:22:33.203639 23592 layer_factory.hpp:74] Creating layer conv3_2
I0804 23:22:33.203644 23592 net.cpp:85] Creating Layer conv3_2
I0804 23:22:33.203647 23592 net.cpp:381] conv3_2 <- conv3_1
I0804 23:22:33.203651 23592 net.cpp:339] conv3_2 -> conv3_2
I0804 23:22:33.203656 23592 net.cpp:114] Setting up conv3_2
I0804 23:22:33.204488 23592 net.cpp:121] Top shape: 1 256 147 147 (5531904)
I0804 23:22:33.204499 23592 layer_factory.hpp:74] Creating layer relu3_2
I0804 23:22:33.204504 23592 net.cpp:85] Creating Layer relu3_2
I0804 23:22:33.204509 23592 net.cpp:381] relu3_2 <- conv3_2
I0804 23:22:33.204512 23592 net.cpp:328] relu3_2 -> conv3_2 (in-place)
I0804 23:22:33.204517 23592 net.cpp:114] Setting up relu3_2
I0804 23:22:33.204521 23592 net.cpp:121] Top shape: 1 256 147 147 (5531904)
I0804 23:22:33.204526 23592 layer_factory.hpp:74] Creating layer conv3_3
I0804 23:22:33.204532 23592 net.cpp:85] Creating Layer conv3_3
I0804 23:22:33.204535 23592 net.cpp:381] conv3_3 <- conv3_2
I0804 23:22:33.204540 23592 net.cpp:339] conv3_3 -> conv3_3
I0804 23:22:33.204545 23592 net.cpp:114] Setting up conv3_3
I0804 23:22:33.205349 23592 net.cpp:121] Top shape: 1 256 147 147 (5531904)
I0804 23:22:33.205358 23592 layer_factory.hpp:74] Creating layer relu3_3
I0804 23:22:33.205366 23592 net.cpp:85] Creating Layer relu3_3
I0804 23:22:33.205369 23592 net.cpp:381] relu3_3 <- conv3_3
I0804 23:22:33.205374 23592 net.cpp:328] relu3_3 -> conv3_3 (in-place)
I0804 23:22:33.205379 23592 net.cpp:114] Setting up relu3_3
I0804 23:22:33.205382 23592 net.cpp:121] Top shape: 1 256 147 147 (5531904)
I0804 23:22:33.205395 23592 layer_factory.hpp:74] Creating layer pool3
I0804 23:22:33.205400 23592 net.cpp:85] Creating Layer pool3
I0804 23:22:33.205404 23592 net.cpp:381] pool3 <- conv3_3
I0804 23:22:33.205410 23592 net.cpp:339] pool3 -> pool3
I0804 23:22:33.205415 23592 net.cpp:114] Setting up pool3
I0804 23:22:33.205422 23592 net.cpp:121] Top shape: 1 256 74 74 (1401856)
I0804 23:22:33.205425 23592 layer_factory.hpp:74] Creating layer pool3_pool3_0_split
I0804 23:22:33.205430 23592 net.cpp:85] Creating Layer pool3_pool3_0_split
I0804 23:22:33.205433 23592 net.cpp:381] pool3_pool3_0_split <- pool3
I0804 23:22:33.205438 23592 net.cpp:339] pool3_pool3_0_split -> pool3_pool3_0_split_0
I0804 23:22:33.205443 23592 net.cpp:339] pool3_pool3_0_split -> pool3_pool3_0_split_1
I0804 23:22:33.205448 23592 net.cpp:114] Setting up pool3_pool3_0_split
I0804 23:22:33.205452 23592 net.cpp:121] Top shape: 1 256 74 74 (1401856)
I0804 23:22:33.205456 23592 net.cpp:121] Top shape: 1 256 74 74 (1401856)
I0804 23:22:33.205459 23592 layer_factory.hpp:74] Creating layer conv4_1
I0804 23:22:33.205466 23592 net.cpp:85] Creating Layer conv4_1
I0804 23:22:33.205471 23592 net.cpp:381] conv4_1 <- pool3_pool3_0_split_0
I0804 23:22:33.205474 23592 net.cpp:339] conv4_1 -> conv4_1
I0804 23:22:33.205479 23592 net.cpp:114] Setting up conv4_1
I0804 23:22:33.207027 23592 net.cpp:121] Top shape: 1 512 74 74 (2803712)
I0804 23:22:33.207038 23592 layer_factory.hpp:74] Creating layer relu4_1
I0804 23:22:33.207043 23592 net.cpp:85] Creating Layer relu4_1
I0804 23:22:33.207047 23592 net.cpp:381] relu4_1 <- conv4_1
I0804 23:22:33.207052 23592 net.cpp:328] relu4_1 -> conv4_1 (in-place)
I0804 23:22:33.207057 23592 net.cpp:114] Setting up relu4_1
I0804 23:22:33.207062 23592 net.cpp:121] Top shape: 1 512 74 74 (2803712)
I0804 23:22:33.207065 23592 layer_factory.hpp:74] Creating layer conv4_2
I0804 23:22:33.207072 23592 net.cpp:85] Creating Layer conv4_2
I0804 23:22:33.207074 23592 net.cpp:381] conv4_2 <- conv4_1
I0804 23:22:33.207079 23592 net.cpp:339] conv4_2 -> conv4_2
I0804 23:22:33.207084 23592 net.cpp:114] Setting up conv4_2
I0804 23:22:33.210189 23592 net.cpp:121] Top shape: 1 512 74 74 (2803712)
I0804 23:22:33.210211 23592 layer_factory.hpp:74] Creating layer relu4_2
I0804 23:22:33.210217 23592 net.cpp:85] Creating Layer relu4_2
I0804 23:22:33.210222 23592 net.cpp:381] relu4_2 <- conv4_2
I0804 23:22:33.210227 23592 net.cpp:328] relu4_2 -> conv4_2 (in-place)
I0804 23:22:33.210233 23592 net.cpp:114] Setting up relu4_2
I0804 23:22:33.210238 23592 net.cpp:121] Top shape: 1 512 74 74 (2803712)
I0804 23:22:33.210242 23592 layer_factory.hpp:74] Creating layer conv4_3
I0804 23:22:33.210247 23592 net.cpp:85] Creating Layer conv4_3
I0804 23:22:33.210250 23592 net.cpp:381] conv4_3 <- conv4_2
I0804 23:22:33.210257 23592 net.cpp:339] conv4_3 -> conv4_3
I0804 23:22:33.210261 23592 net.cpp:114] Setting up conv4_3
I0804 23:22:33.213349 23592 net.cpp:121] Top shape: 1 512 74 74 (2803712)
I0804 23:22:33.213366 23592 layer_factory.hpp:74] Creating layer relu4_3
I0804 23:22:33.213373 23592 net.cpp:85] Creating Layer relu4_3
I0804 23:22:33.213377 23592 net.cpp:381] relu4_3 <- conv4_3
I0804 23:22:33.213382 23592 net.cpp:328] relu4_3 -> conv4_3 (in-place)
I0804 23:22:33.213387 23592 net.cpp:114] Setting up relu4_3
I0804 23:22:33.213393 23592 net.cpp:121] Top shape: 1 512 74 74 (2803712)
I0804 23:22:33.213397 23592 layer_factory.hpp:74] Creating layer pool4
I0804 23:22:33.213405 23592 net.cpp:85] Creating Layer pool4
I0804 23:22:33.213408 23592 net.cpp:381] pool4 <- conv4_3
I0804 23:22:33.213413 23592 net.cpp:339] pool4 -> pool4
I0804 23:22:33.213419 23592 net.cpp:114] Setting up pool4
I0804 23:22:33.213425 23592 net.cpp:121] Top shape: 1 512 37 37 (700928)
I0804 23:22:33.213428 23592 layer_factory.hpp:74] Creating layer pool4_pool4_0_split
I0804 23:22:33.213435 23592 net.cpp:85] Creating Layer pool4_pool4_0_split
I0804 23:22:33.213439 23592 net.cpp:381] pool4_pool4_0_split <- pool4
I0804 23:22:33.213443 23592 net.cpp:339] pool4_pool4_0_split -> pool4_pool4_0_split_0
I0804 23:22:33.213465 23592 net.cpp:339] pool4_pool4_0_split -> pool4_pool4_0_split_1
I0804 23:22:33.213470 23592 net.cpp:114] Setting up pool4_pool4_0_split
I0804 23:22:33.213475 23592 net.cpp:121] Top shape: 1 512 37 37 (700928)
I0804 23:22:33.213479 23592 net.cpp:121] Top shape: 1 512 37 37 (700928)
I0804 23:22:33.213482 23592 layer_factory.hpp:74] Creating layer conv5_1
I0804 23:22:33.213490 23592 net.cpp:85] Creating Layer conv5_1
I0804 23:22:33.213495 23592 net.cpp:381] conv5_1 <- pool4_pool4_0_split_0
I0804 23:22:33.213500 23592 net.cpp:339] conv5_1 -> conv5_1
I0804 23:22:33.213505 23592 net.cpp:114] Setting up conv5_1
I0804 23:22:33.216637 23592 net.cpp:121] Top shape: 1 512 37 37 (700928)
I0804 23:22:33.216656 23592 layer_factory.hpp:74] Creating layer relu5_1
I0804 23:22:33.216665 23592 net.cpp:85] Creating Layer relu5_1
I0804 23:22:33.216670 23592 net.cpp:381] relu5_1 <- conv5_1
I0804 23:22:33.216675 23592 net.cpp:328] relu5_1 -> conv5_1 (in-place)
I0804 23:22:33.216681 23592 net.cpp:114] Setting up relu5_1
I0804 23:22:33.216686 23592 net.cpp:121] Top shape: 1 512 37 37 (700928)
I0804 23:22:33.216689 23592 layer_factory.hpp:74] Creating layer conv5_2
I0804 23:22:33.216694 23592 net.cpp:85] Creating Layer conv5_2
I0804 23:22:33.216697 23592 net.cpp:381] conv5_2 <- conv5_1
I0804 23:22:33.216703 23592 net.cpp:339] conv5_2 -> conv5_2
I0804 23:22:33.216708 23592 net.cpp:114] Setting up conv5_2
I0804 23:22:33.219796 23592 net.cpp:121] Top shape: 1 512 37 37 (700928)
I0804 23:22:33.219813 23592 layer_factory.hpp:74] Creating layer relu5_2
I0804 23:22:33.219825 23592 net.cpp:85] Creating Layer relu5_2
I0804 23:22:33.219828 23592 net.cpp:381] relu5_2 <- conv5_2
I0804 23:22:33.219835 23592 net.cpp:328] relu5_2 -> conv5_2 (in-place)
I0804 23:22:33.219840 23592 net.cpp:114] Setting up relu5_2
I0804 23:22:33.219844 23592 net.cpp:121] Top shape: 1 512 37 37 (700928)
I0804 23:22:33.219847 23592 layer_factory.hpp:74] Creating layer conv5_3
I0804 23:22:33.219854 23592 net.cpp:85] Creating Layer conv5_3
I0804 23:22:33.219857 23592 net.cpp:381] conv5_3 <- conv5_2
I0804 23:22:33.219862 23592 net.cpp:339] conv5_3 -> conv5_3
I0804 23:22:33.219867 23592 net.cpp:114] Setting up conv5_3
I0804 23:22:33.222956 23592 net.cpp:121] Top shape: 1 512 37 37 (700928)
I0804 23:22:33.222973 23592 layer_factory.hpp:74] Creating layer relu5_3
I0804 23:22:33.222980 23592 net.cpp:85] Creating Layer relu5_3
I0804 23:22:33.222985 23592 net.cpp:381] relu5_3 <- conv5_3
I0804 23:22:33.222990 23592 net.cpp:328] relu5_3 -> conv5_3 (in-place)
I0804 23:22:33.222996 23592 net.cpp:114] Setting up relu5_3
I0804 23:22:33.223001 23592 net.cpp:121] Top shape: 1 512 37 37 (700928)
I0804 23:22:33.223003 23592 layer_factory.hpp:74] Creating layer pool5
I0804 23:22:33.223009 23592 net.cpp:85] Creating Layer pool5
I0804 23:22:33.223012 23592 net.cpp:381] pool5 <- conv5_3
I0804 23:22:33.223017 23592 net.cpp:339] pool5 -> pool5
I0804 23:22:33.223022 23592 net.cpp:114] Setting up pool5
I0804 23:22:33.223028 23592 net.cpp:121] Top shape: 1 512 19 19 (184832)
I0804 23:22:33.223032 23592 layer_factory.hpp:74] Creating layer fc6
I0804 23:22:33.223039 23592 net.cpp:85] Creating Layer fc6
I0804 23:22:33.223042 23592 net.cpp:381] fc6 <- pool5
I0804 23:22:33.223047 23592 net.cpp:339] fc6 -> fc6
I0804 23:22:33.223052 23592 net.cpp:114] Setting up fc6
I0804 23:22:33.256268 23609 image_seg_data_layer.cpp:212] start to transform the data
I0804 23:22:34.859026 23592 net.cpp:121] Top shape: 1 4096 13 13 (692224)
I0804 23:22:34.859064 23592 layer_factory.hpp:74] Creating layer relu6
I0804 23:22:34.859073 23592 net.cpp:85] Creating Layer relu6
I0804 23:22:34.859078 23592 net.cpp:381] relu6 <- fc6
I0804 23:22:34.859086 23592 net.cpp:328] relu6 -> fc6 (in-place)
I0804 23:22:34.859094 23592 net.cpp:114] Setting up relu6
I0804 23:22:34.859099 23592 net.cpp:121] Top shape: 1 4096 13 13 (692224)
I0804 23:22:34.859102 23592 layer_factory.hpp:74] Creating layer drop6
I0804 23:22:34.859108 23592 net.cpp:85] Creating Layer drop6
I0804 23:22:34.859112 23592 net.cpp:381] drop6 <- fc6
I0804 23:22:34.859133 23592 net.cpp:328] drop6 -> fc6 (in-place)
I0804 23:22:34.859139 23592 net.cpp:114] Setting up drop6
I0804 23:22:34.859145 23592 net.cpp:121] Top shape: 1 4096 13 13 (692224)
I0804 23:22:34.859148 23592 layer_factory.hpp:74] Creating layer fc7
I0804 23:22:34.859155 23592 net.cpp:85] Creating Layer fc7
I0804 23:22:34.859158 23592 net.cpp:381] fc7 <- fc6
I0804 23:22:34.859163 23592 net.cpp:339] fc7 -> fc7
I0804 23:22:34.859169 23592 net.cpp:114] Setting up fc7
I0804 23:22:35.115171 23592 net.cpp:121] Top shape: 1 4096 13 13 (692224)
I0804 23:22:35.115213 23592 layer_factory.hpp:74] Creating layer relu7
I0804 23:22:35.115224 23592 net.cpp:85] Creating Layer relu7
I0804 23:22:35.115229 23592 net.cpp:381] relu7 <- fc7
I0804 23:22:35.115237 23592 net.cpp:328] relu7 -> fc7 (in-place)
I0804 23:22:35.115244 23592 net.cpp:114] Setting up relu7
I0804 23:22:35.115249 23592 net.cpp:121] Top shape: 1 4096 13 13 (692224)
I0804 23:22:35.115253 23592 layer_factory.hpp:74] Creating layer drop7
I0804 23:22:35.115259 23592 net.cpp:85] Creating Layer drop7
I0804 23:22:35.115262 23592 net.cpp:381] drop7 <- fc7
I0804 23:22:35.115267 23592 net.cpp:328] drop7 -> fc7 (in-place)
I0804 23:22:35.115270 23592 net.cpp:114] Setting up drop7
I0804 23:22:35.115275 23592 net.cpp:121] Top shape: 1 4096 13 13 (692224)
I0804 23:22:35.115279 23592 layer_factory.hpp:74] Creating layer score-fr
I0804 23:22:35.115288 23592 net.cpp:85] Creating Layer score-fr
I0804 23:22:35.115290 23592 net.cpp:381] score-fr <- fc7
I0804 23:22:35.115295 23592 net.cpp:339] score-fr -> score
I0804 23:22:35.115301 23592 net.cpp:114] Setting up score-fr
I0804 23:22:35.115321 23592 net.cpp:121] Top shape: 1 2 13 13 (338)
I0804 23:22:35.115327 23592 layer_factory.hpp:74] Creating layer score2
I0804 23:22:35.115334 23592 net.cpp:85] Creating Layer score2
I0804 23:22:35.115339 23592 net.cpp:381] score2 <- score
I0804 23:22:35.115342 23592 net.cpp:339] score2 -> score2
I0804 23:22:35.115352 23592 net.cpp:114] Setting up score2
I0804 23:22:35.115363 23592 net.cpp:121] Top shape: 1 2 28 28 (1568)
I0804 23:22:35.115372 23592 layer_factory.hpp:74] Creating layer score2_score2_0_split
I0804 23:22:35.115384 23592 net.cpp:85] Creating Layer score2_score2_0_split
I0804 23:22:35.115388 23592 net.cpp:381] score2_score2_0_split <- score2
I0804 23:22:35.115393 23592 net.cpp:339] score2_score2_0_split -> score2_score2_0_split_0
I0804 23:22:35.115398 23592 net.cpp:339] score2_score2_0_split -> score2_score2_0_split_1
I0804 23:22:35.115403 23592 net.cpp:114] Setting up score2_score2_0_split
I0804 23:22:35.115411 23592 net.cpp:121] Top shape: 1 2 28 28 (1568)
I0804 23:22:35.115413 23592 net.cpp:121] Top shape: 1 2 28 28 (1568)
I0804 23:22:35.115417 23592 layer_factory.hpp:74] Creating layer score-pool4
I0804 23:22:35.115423 23592 net.cpp:85] Creating Layer score-pool4
I0804 23:22:35.115427 23592 net.cpp:381] score-pool4 <- pool4_pool4_0_split_1
I0804 23:22:35.115432 23592 net.cpp:339] score-pool4 -> score-pool4
I0804 23:22:35.115437 23592 net.cpp:114] Setting up score-pool4
I0804 23:22:35.115448 23592 net.cpp:121] Top shape: 1 2 37 37 (2738)
I0804 23:22:35.115454 23592 layer_factory.hpp:74] Creating layer crop
I0804 23:22:35.115460 23592 net.cpp:85] Creating Layer crop
I0804 23:22:35.115463 23592 net.cpp:381] crop <- score-pool4
I0804 23:22:35.115468 23592 net.cpp:381] crop <- score2_score2_0_split_0
I0804 23:22:35.115471 23592 net.cpp:339] crop -> score-pool4c
I0804 23:22:35.115476 23592 net.cpp:114] Setting up crop
I0804 23:22:35.115514 23592 net.cpp:121] Top shape: 1 2 28 28 (1568)
I0804 23:22:35.115517 23592 layer_factory.hpp:74] Creating layer fuse
I0804 23:22:35.115524 23592 net.cpp:85] Creating Layer fuse
I0804 23:22:35.115526 23592 net.cpp:381] fuse <- score2_score2_0_split_1
I0804 23:22:35.115531 23592 net.cpp:381] fuse <- score-pool4c
I0804 23:22:35.115535 23592 net.cpp:339] fuse -> score-fused
I0804 23:22:35.115540 23592 net.cpp:114] Setting up fuse
I0804 23:22:35.115546 23592 net.cpp:121] Top shape: 1 2 28 28 (1568)
I0804 23:22:35.115550 23592 layer_factory.hpp:74] Creating layer score4
I0804 23:22:35.115607 23592 net.cpp:85] Creating Layer score4
I0804 23:22:35.115612 23592 net.cpp:381] score4 <- score-fused
I0804 23:22:35.115617 23592 net.cpp:339] score4 -> score4
I0804 23:22:35.115623 23592 net.cpp:114] Setting up score4
I0804 23:22:35.115631 23592 net.cpp:121] Top shape: 1 2 58 58 (6728)
I0804 23:22:35.115643 23592 layer_factory.hpp:74] Creating layer score4_score4_0_split
I0804 23:22:35.115648 23592 net.cpp:85] Creating Layer score4_score4_0_split
I0804 23:22:35.115651 23592 net.cpp:381] score4_score4_0_split <- score4
I0804 23:22:35.115658 23592 net.cpp:339] score4_score4_0_split -> score4_score4_0_split_0
I0804 23:22:35.115664 23592 net.cpp:339] score4_score4_0_split -> score4_score4_0_split_1
I0804 23:22:35.115669 23592 net.cpp:114] Setting up score4_score4_0_split
I0804 23:22:35.115674 23592 net.cpp:121] Top shape: 1 2 58 58 (6728)
I0804 23:22:35.115677 23592 net.cpp:121] Top shape: 1 2 58 58 (6728)
I0804 23:22:35.115680 23592 layer_factory.hpp:74] Creating layer score-pool3
I0804 23:22:35.115686 23592 net.cpp:85] Creating Layer score-pool3
I0804 23:22:35.115690 23592 net.cpp:381] score-pool3 <- pool3_pool3_0_split_1
I0804 23:22:35.115695 23592 net.cpp:339] score-pool3 -> score-pool3
I0804 23:22:35.115701 23592 net.cpp:114] Setting up score-pool3
I0804 23:22:35.115715 23592 net.cpp:121] Top shape: 1 2 74 74 (10952)
I0804 23:22:35.115720 23592 layer_factory.hpp:74] Creating layer crop
I0804 23:22:35.115726 23592 net.cpp:85] Creating Layer crop
I0804 23:22:35.115731 23592 net.cpp:381] crop <- score-pool3
I0804 23:22:35.115735 23592 net.cpp:381] crop <- score4_score4_0_split_0
I0804 23:22:35.115748 23592 net.cpp:339] crop -> score-pool3c
I0804 23:22:35.115754 23592 net.cpp:114] Setting up crop
I0804 23:22:35.115793 23592 net.cpp:121] Top shape: 1 2 58 58 (6728)
I0804 23:22:35.115797 23592 layer_factory.hpp:74] Creating layer fuse
I0804 23:22:35.115803 23592 net.cpp:85] Creating Layer fuse
I0804 23:22:35.115805 23592 net.cpp:381] fuse <- score4_score4_0_split_1
I0804 23:22:35.115809 23592 net.cpp:381] fuse <- score-pool3c
I0804 23:22:35.115814 23592 net.cpp:339] fuse -> score-final
I0804 23:22:35.115819 23592 net.cpp:114] Setting up fuse
I0804 23:22:35.115823 23592 net.cpp:121] Top shape: 1 2 58 58 (6728)
I0804 23:22:35.115828 23592 layer_factory.hpp:74] Creating layer upsample
I0804 23:22:35.115833 23592 net.cpp:85] Creating Layer upsample
I0804 23:22:35.115842 23592 net.cpp:381] upsample <- score-final
I0804 23:22:35.115850 23592 net.cpp:339] upsample -> bigscore
I0804 23:22:35.115855 23592 net.cpp:114] Setting up upsample
I0804 23:22:35.115865 23592 net.cpp:121] Top shape: 1 2 472 472 (445568)
I0804 23:22:35.115869 23592 layer_factory.hpp:74] Creating layer crop
I0804 23:22:35.115875 23592 net.cpp:85] Creating Layer crop
I0804 23:22:35.115877 23592 net.cpp:381] crop <- bigscore
I0804 23:22:35.115881 23592 net.cpp:381] crop <- data_data_0_split_1
I0804 23:22:35.115893 23592 net.cpp:339] crop -> upscore
I0804 23:22:35.115898 23592 net.cpp:114] Setting up crop
I0804 23:22:35.115952 23592 net.cpp:121] Top shape: 1 2 388 388 (301088)
I0804 23:22:35.115957 23592 layer_factory.hpp:74] Creating layer upscore_crop_0_split
I0804 23:22:35.115962 23592 net.cpp:85] Creating Layer upscore_crop_0_split
I0804 23:22:35.115965 23592 net.cpp:381] upscore_crop_0_split <- upscore
I0804 23:22:35.115969 23592 net.cpp:339] upscore_crop_0_split -> upscore_crop_0_split_0
I0804 23:22:35.115975 23592 net.cpp:339] upscore_crop_0_split -> upscore_crop_0_split_1
I0804 23:22:35.115980 23592 net.cpp:114] Setting up upscore_crop_0_split
I0804 23:22:35.115990 23592 net.cpp:121] Top shape: 1 2 388 388 (301088)
I0804 23:22:35.115994 23592 net.cpp:121] Top shape: 1 2 388 388 (301088)
I0804 23:22:35.115998 23592 layer_factory.hpp:74] Creating layer loss
I0804 23:22:35.116004 23592 net.cpp:85] Creating Layer loss
I0804 23:22:35.116008 23592 net.cpp:381] loss <- upscore_crop_0_split_0
I0804 23:22:35.116011 23592 net.cpp:381] loss <- label_data_1_split_0
I0804 23:22:35.116016 23592 net.cpp:339] loss -> loss
I0804 23:22:35.116029 23592 net.cpp:114] Setting up loss
I0804 23:22:35.116042 23592 layer_factory.hpp:74] Creating layer loss
I0804 23:22:35.116508 23592 net.cpp:121] Top shape: (1)
I0804 23:22:35.116516 23592 net.cpp:123]     with loss weight 1
I0804 23:22:35.116526 23592 layer_factory.hpp:74] Creating layer accuracy
I0804 23:22:35.116542 23592 net.cpp:85] Creating Layer accuracy
I0804 23:22:35.116547 23592 net.cpp:381] accuracy <- upscore_crop_0_split_1
I0804 23:22:35.116551 23592 net.cpp:381] accuracy <- label_data_1_split_1
I0804 23:22:35.116557 23592 net.cpp:339] accuracy -> accuracy
I0804 23:22:35.116564 23592 net.cpp:114] Setting up accuracy
I0804 23:22:35.116575 23592 net.cpp:121] Top shape: 1 1 1 3 (3)
I0804 23:22:35.116577 23592 net.cpp:170] accuracy does not need backward computation.
I0804 23:22:35.116581 23592 net.cpp:168] loss needs backward computation.
I0804 23:22:35.116586 23592 net.cpp:168] upscore_crop_0_split needs backward computation.
I0804 23:22:35.116590 23592 net.cpp:168] crop needs backward computation.
I0804 23:22:35.116593 23592 net.cpp:168] upsample needs backward computation.
…
