…
I0720 23:55:35.754132 24334 net.cpp:42] Initializing net from parameters: 
name: "FCN"
state {
  phase: TRAIN
}
layer {
  name: "data"
  type: "ImageSegData"
  top: "data"
  top: "label"
  include {
    phase: TRAIN
  }
  transform_param {
    mirror: true
    crop_size: 388
    mean_value: 104.008
    mean_value: 116.669
    mean_value: 122.675
  }
  image_data_param {
    source: "/media/BigDisk/xiaoyong/datafrommac/ourfacedata_train_2/traindatalist_2.txt"
    batch_size: 1
    shuffle: true
    root_folder: ""
    ignore_label: 255
    label_type: PIXEL
  }
}
layer {
  name: "conv1_1"
  type: "Convolution"
  bottom: "data"
  top: "conv1_1"
  param {
    lr_mult: 1
    decay_mult: 1
  }
  param {
    lr_mult: 2
    decay_mult: 0
  }
  convolution_param {
    num_output: 64
    pad: 100
    kernel_size: 3
    engine: CAFFE
  }
}
layer {
  name: "relu1_1"
  type: "ReLU"
  bottom: "conv1_1"
  top: "conv1_1"
}
layer {
  name: "conv1_2"
  type: "Convolution"
  bottom: "conv1_1"
  top: "conv1_2"
  param {
    lr_mult: 1
    decay_mult: 1
  }
  param {
    lr_mult: 2
    decay_mult: 0
  }
  convolution_param {
    num_output: 64
    pad: 1
    kernel_size: 3
    engine: CAFFE
  }
}
layer {
  name: "relu1_2"
  type: "ReLU"
  bottom: "conv1_2"
  top: "conv1_2"
}
layer {
  name: "pool1"
  type: "Pooling"
  bottom: "conv1_2"
  top: "pool1"
  pooling_param {
    pool: MAX
    kernel_size: 2
    stride: 2
  }
}
layer {
  name: "conv2_1"
  type: "Convolution"
  bottom: "pool1"
  top: "conv2_1"
  param {
    lr_mult: 1
    decay_mult: 1
  }
  param {
    lr_mult: 2
    decay_mult: 0
  }
  convolution_param {
    num_output: 128
    pad: 1
    kernel_size: 3
    engine: CAFFE
  }
}
layer {
  name: "relu2_1"
  type: "ReLU"
  bottom: "conv2_1"
  top: "conv2_1"
}
layer {
  name: "conv2_2"
  type: "Convolution"
  bottom: "conv2_1"
  top: "conv2_2"
  param {
    lr_mult: 1
    decay_mult: 1
  }
  param {
    lr_mult: 2
    decay_mult: 0
  }
  convolution_param {
    num_output: 128
    pad: 1
    kernel_size: 3
    engine: CAFFE
  }
}
layer {
  name: "relu2_2"
  type: "ReLU"
  bottom: "conv2_2"
  top: "conv2_2"
}
layer {
  name: "pool2"
  type: "Pooling"
  bottom: "conv2_2"
  top: "pool2"
  pooling_param {
    pool: MAX
    kernel_size: 2
    stride: 2
  }
}
layer {
  name: "conv3_1"
  type: "Convolution"
  bottom: "pool2"
  top: "conv3_1"
  param {
    lr_mult: 1
    decay_mult: 1
  }
  param {
    lr_mult: 2
    decay_mult: 0
  }
  convolution_param {
    num_output: 256
    pad: 1
    kernel_size: 3
    engine: CAFFE
  }
}
layer {
  name: "relu3_1"
  type: "ReLU"
  bottom: "conv3_1"
  top: "conv3_1"
}
layer {
  name: "conv3_2"
  type: "Convolution"
  bottom: "conv3_1"
  top: "conv3_2"
  param {
    lr_mult: 1
    decay_mult: 1
  }
  param {
    lr_mult: 2
    decay_mult: 0
  }
  convolution_param {
    num_output: 256
    pad: 1
    kernel_size: 3
    engine: CAFFE
  }
}
layer {
  name: "relu3_2"
  type: "ReLU"
  bottom: "conv3_2"
  top: "conv3_2"
}
layer {
  name: "conv3_3"
  type: "Convolution"
  bottom: "conv3_2"
  top: "conv3_3"
  param {
    lr_mult: 1
    decay_mult: 1
  }
  param {
    lr_mult: 2
    decay_mult: 0
  }
  convolution_param {
    num_output: 256
    pad: 1
    kernel_size: 3
    engine: CAFFE
  }
}
layer {
  name: "relu3_3"
  type: "ReLU"
  bottom: "conv3_3"
  top: "conv3_3"
}
layer {
  name: "pool3"
  type: "Pooling"
  bottom: "conv3_3"
  top: "pool3"
  pooling_param {
    pool: MAX
    kernel_size: 2
    stride: 2
  }
}
layer {
  name: "conv4_1"
  type: "Convolution"
  bottom: "pool3"
  top: "conv4_1"
  param {
    lr_mult: 1
    decay_mult: 1
  }
  param {
    lr_mult: 2
    decay_mult: 0
  }
  convolution_param {
    num_output: 512
    pad: 1
    kernel_size: 3
    engine: CAFFE
  }
}
layer {
  name: "relu4_1"
  type: "ReLU"
  bottom: "conv4_1"
  top: "conv4_1"
}
layer {
  name: "conv4_2"
  type: "Convolution"
  bottom: "conv4_1"
  top: "conv4_2"
  param {
    lr_mult: 1
    decay_mult: 1
  }
  param {
    lr_mult: 2
    decay_mult: 0
  }
  convolution_param {
    num_output: 512
    pad: 1
    kernel_size: 3
    engine: CAFFE
  }
}
layer {
  name: "relu4_2"
  type: "ReLU"
  bottom: "conv4_2"
  top: "conv4_2"
}
layer {
  name: "conv4_3"
  type: "Convolution"
  bottom: "conv4_2"
  top: "conv4_3"
  param {
    lr_mult: 1
    decay_mult: 1
  }
  param {
    lr_mult: 2
    decay_mult: 0
  }
  convolution_param {
    num_output: 512
    pad: 1
    kernel_size: 3
    engine: CAFFE
  }
}
layer {
  name: "relu4_3"
  type: "ReLU"
  bottom: "conv4_3"
  top: "conv4_3"
}
layer {
  name: "pool4"
  type: "Pooling"
  bottom: "conv4_3"
  top: "pool4"
  pooling_param {
    pool: MAX
    kernel_size: 2
    stride: 2
  }
}
layer {
  name: "conv5_1"
  type: "Convolution"
  bottom: "pool4"
  top: "conv5_1"
  param {
    lr_mult: 1
    decay_mult: 1
  }
  param {
    lr_mult: 2
    decay_mult: 0
  }
  convolution_param {
    num_output: 512
    pad: 1
    kernel_size: 3
    engine: CAFFE
  }
}
layer {
  name: "relu5_1"
  type: "ReLU"
  bottom: "conv5_1"
  top: "conv5_1"
}
layer {
  name: "conv5_2"
  type: "Convolution"
  bottom: "conv5_1"
  top: "conv5_2"
  param {
    lr_mult: 1
    decay_mult: 1
  }
  param {
    lr_mult: 2
    decay_mult: 0
  }
  convolution_param {
    num_output: 512
    pad: 1
    kernel_size: 3
    engine: CAFFE
  }
}
layer {
  name: "relu5_2"
  type: "ReLU"
  bottom: "conv5_2"
  top: "conv5_2"
}
layer {
  name: "conv5_3"
  type: "Convolution"
  bottom: "conv5_2"
  top: "conv5_3"
  param {
    lr_mult: 1
    decay_mult: 1
  }
  param {
    lr_mult: 2
    decay_mult: 0
  }
  convolution_param {
    num_output: 512
    pad: 1
    kernel_size: 3
    engine: CAFFE
  }
}
layer {
  name: "relu5_3"
  type: "ReLU"
  bottom: "conv5_3"
  top: "conv5_3"
}
layer {
  name: "pool5"
  type: "Pooling"
  bottom: "conv5_3"
  top: "pool5"
  pooling_param {
    pool: MAX
    kernel_size: 2
    stride: 2
  }
}
layer {
  name: "fc6"
  type: "Convolution"
  bottom: "pool5"
  top: "fc6"
  param {
    lr_mult: 1
    decay_mult: 1
  }
  param {
    lr_mult: 2
    decay_mult: 0
  }
  convolution_param {
    num_output: 4096
    kernel_size: 7
    engine: CAFFE
  }
}
layer {
  name: "relu6"
  type: "ReLU"
  bottom: "fc6"
  top: "fc6"
}
layer {
  name: "drop6"
  type: "Dropout"
  bottom: "fc6"
  top: "fc6"
  dropout_param {
    dropout_ratio: 0.5
  }
}
layer {
  name: "fc7"
  type: "Convolution"
  bottom: "fc6"
  top: "fc7"
  param {
    lr_mult: 1
    decay_mult: 1
  }
  param {
    lr_mult: 2
    decay_mult: 0
  }
  convolution_param {
    num_output: 4096
    kernel_size: 1
    engine: CAFFE
  }
}
layer {
  name: "relu7"
  type: "ReLU"
  bottom: "fc7"
  top: "fc7"
}
layer {
  name: "drop7"
  type: "Dropout"
  bottom: "fc7"
  top: "fc7"
  dropout_param {
    dropout_ratio: 0.5
  }
}
layer {
  name: "score-fr"
  type: "Convolution"
  bottom: "fc7"
  top: "score"
  param {
    lr_mult: 1
    decay_mult: 1
  }
  param {
    lr_mult: 2
    decay_mult: 0
  }
  convolution_param {
    num_output: 2
    kernel_size: 1
    engine: CAFFE
  }
}
layer {
  name: "score2"
  type: "Deconvolution"
  bottom: "score"
  top: "score2"
  param {
    lr_mult: 1
    decay_mult: 1
  }
  param {
    lr_mult: 2
    decay_mult: 0
  }
  convolution_param {
    num_output: 2
    kernel_size: 4
    stride: 2
  }
}
layer {
  name: "score-pool4"
  type: "Convolution"
  bottom: "pool4"
  top: "score-pool4"
  param {
    lr_mult: 1
    decay_mult: 1
  }
  param {
    lr_mult: 2
    decay_mult: 0
  }
  convolution_param {
    num_output: 2
    kernel_size: 1
    engine: CAFFE
  }
}
layer {
  name: "crop"
  type: "Crop"
  bottom: "score-pool4"
  bottom: "score2"
  top: "score-pool4c"
}
layer {
  name: "fuse"
  type: "Eltwise"
  bottom: "score2"
  bottom: "score-pool4c"
  top: "score-fused"
  eltwise_param {
    operation: SUM
  }
}
layer {
  name: "score4"
  type: "Deconvolution"
  bottom: "score-fused"
  top: "score4"
  param {
    lr_mult: 1
    decay_mult: 1
  }
  convolution_param {
    num_output: 2
    bias_term: false
    kernel_size: 4
    stride: 2
  }
}
layer {
  name: "score-pool3"
  type: "Convolution"
  bottom: "pool3"
  top: "score-pool3"
  param {
    lr_mult: 1
    decay_mult: 1
  }
  param {
    lr_mult: 2
    decay_mult: 0
  }
  convolution_param {
    num_output: 2
    kernel_size: 1
    engine: CAFFE
  }
}
layer {
  name: "crop"
  type: "Crop"
  bottom: "score-pool3"
  bottom: "score4"
  top: "score-pool3c"
}
layer {
  name: "fuse"
  type: "Eltwise"
  bottom: "score4"
  bottom: "score-pool3c"
  top: "score-final"
  eltwise_param {
    operation: SUM
  }
}
layer {
  name: "upsample"
  type: "Deconvolution"
  bottom: "score-final"
  top: "bigscore"
  param {
    lr_mult: 1
  }
  convolution_param {
    num_output: 2
    bias_term: false
    kernel_size: 16
    stride: 8
  }
}
layer {
  name: "crop"
  type: "Crop"
  bottom: "bigscore"
  bottom: "data"
  top: "upscore"
}
layer {
  name: "loss"
  type: "SoftmaxWithLoss"
  bottom: "upscore"
  bottom: "label"
  top: "loss"
  loss_param {
    ignore_label: 255
  }
}
I0720 23:55:35.754356 24334 layer_factory.hpp:74] Creating layer data
I0720 23:55:35.754380 24334 net.cpp:85] Creating Layer data
I0720 23:55:35.754387 24334 net.cpp:339] data -> data
I0720 23:55:35.754402 24334 net.cpp:339] data -> label
I0720 23:55:35.754412 24334 net.cpp:339] data -> (automatic)
I0720 23:55:35.754417 24334 net.cpp:114] Setting up data
I0720 23:55:35.754781 24334 image_seg_data_layer.cpp:46] Opening file /media/BigDisk/xiaoyong/datafrommac/ourfacedata_train_2/traindatalist_2.txt
I0720 23:55:35.755744 24334 image_seg_data_layer.cpp:63] Shuffling data
I0720 23:55:35.755846 24334 image_seg_data_layer.cpp:68] A total of 900 images.
I0720 23:55:35.803903 24334 image_seg_data_layer.cpp:114] output data size: 1,3,388,388
I0720 23:55:35.803936 24334 image_seg_data_layer.cpp:118] output label size: 1,1,388,388
I0720 23:55:35.803943 24334 image_seg_data_layer.cpp:122] output data_dim size: 1,1,1,2
I0720 23:55:35.804986 24334 net.cpp:121] Top shape: 1 3 388 388 (451632)
I0720 23:55:35.805004 24334 net.cpp:121] Top shape: 1 1 388 388 (150544)
I0720 23:55:35.805014 24334 net.cpp:121] Top shape: 1 1 1 2 (2)
I0720 23:55:35.805025 24334 layer_factory.hpp:74] Creating layer data_data_0_split
I0720 23:55:35.805047 24334 net.cpp:85] Creating Layer data_data_0_split
I0720 23:55:35.805057 24334 net.cpp:381] data_data_0_split <- data
I0720 23:55:35.805073 24334 net.cpp:339] data_data_0_split -> data_data_0_split_0
I0720 23:55:35.805088 24334 net.cpp:339] data_data_0_split -> data_data_0_split_1
I0720 23:55:35.805102 24334 net.cpp:114] Setting up data_data_0_split
I0720 23:55:35.805119 24334 net.cpp:121] Top shape: 1 3 388 388 (451632)
I0720 23:55:35.805130 24334 net.cpp:121] Top shape: 1 3 388 388 (451632)
I0720 23:55:35.805137 24334 layer_factory.hpp:74] Creating layer conv1_1
I0720 23:55:35.805155 24334 net.cpp:85] Creating Layer conv1_1
I0720 23:55:35.805166 24334 net.cpp:381] conv1_1 <- data_data_0_split_0
I0720 23:55:35.805176 24334 net.cpp:339] conv1_1 -> conv1_1
I0720 23:55:35.805212 24334 net.cpp:114] Setting up conv1_1
I0720 23:55:35.806653 24334 net.cpp:121] Top shape: 1 64 586 586 (21977344)
I0720 23:55:35.806681 24334 layer_factory.hpp:74] Creating layer relu1_1
I0720 23:55:35.806694 24334 net.cpp:85] Creating Layer relu1_1
I0720 23:55:35.806702 24334 net.cpp:381] relu1_1 <- conv1_1
I0720 23:55:35.806712 24334 net.cpp:328] relu1_1 -> conv1_1 (in-place)
I0720 23:55:35.806723 24334 net.cpp:114] Setting up relu1_1
I0720 23:55:35.806732 24334 net.cpp:121] Top shape: 1 64 586 586 (21977344)
I0720 23:55:35.806740 24334 layer_factory.hpp:74] Creating layer conv1_2
I0720 23:55:35.806756 24334 net.cpp:85] Creating Layer conv1_2
I0720 23:55:35.806764 24334 net.cpp:381] conv1_2 <- conv1_1
I0720 23:55:35.806776 24334 net.cpp:339] conv1_2 -> conv1_2
I0720 23:55:35.806787 24334 net.cpp:114] Setting up conv1_2
I0720 23:55:35.808117 24334 net.cpp:121] Top shape: 1 64 586 586 (21977344)
I0720 23:55:35.808140 24334 layer_factory.hpp:74] Creating layer relu1_2
I0720 23:55:35.808156 24334 net.cpp:85] Creating Layer relu1_2
I0720 23:55:35.808164 24334 net.cpp:381] relu1_2 <- conv1_2
I0720 23:55:35.808174 24334 net.cpp:328] relu1_2 -> conv1_2 (in-place)
I0720 23:55:35.808187 24334 net.cpp:114] Setting up relu1_2
I0720 23:55:35.808195 24334 net.cpp:121] Top shape: 1 64 586 586 (21977344)
I0720 23:55:35.808204 24334 layer_factory.hpp:74] Creating layer pool1
I0720 23:55:35.808218 24334 net.cpp:85] Creating Layer pool1
I0720 23:55:35.808226 24334 net.cpp:381] pool1 <- conv1_2
I0720 23:55:35.808235 24334 net.cpp:339] pool1 -> pool1
I0720 23:55:35.808246 24334 net.cpp:114] Setting up pool1
I0720 23:55:35.808292 24334 net.cpp:121] Top shape: 1 64 293 293 (5494336)
I0720 23:55:35.808303 24334 layer_factory.hpp:74] Creating layer conv2_1
I0720 23:55:35.808315 24334 net.cpp:85] Creating Layer conv2_1
I0720 23:55:35.808321 24334 net.cpp:381] conv2_1 <- pool1
I0720 23:55:35.808337 24334 net.cpp:339] conv2_1 -> conv2_1
I0720 23:55:35.808352 24334 net.cpp:114] Setting up conv2_1
I0720 23:55:35.811025 24334 net.cpp:121] Top shape: 1 128 293 293 (10988672)
I0720 23:55:35.811064 24334 layer_factory.hpp:74] Creating layer relu2_1
I0720 23:55:35.811081 24334 net.cpp:85] Creating Layer relu2_1
I0720 23:55:35.811089 24334 net.cpp:381] relu2_1 <- conv2_1
I0720 23:55:35.811100 24334 net.cpp:328] relu2_1 -> conv2_1 (in-place)
I0720 23:55:35.811113 24334 net.cpp:114] Setting up relu2_1
I0720 23:55:35.811125 24334 net.cpp:121] Top shape: 1 128 293 293 (10988672)
I0720 23:55:35.811132 24334 layer_factory.hpp:74] Creating layer conv2_2
I0720 23:55:35.811148 24334 net.cpp:85] Creating Layer conv2_2
I0720 23:55:35.811157 24334 net.cpp:381] conv2_2 <- conv2_1
I0720 23:55:35.811167 24334 net.cpp:339] conv2_2 -> conv2_2
I0720 23:55:35.811178 24334 net.cpp:114] Setting up conv2_2
I0720 23:55:35.816190 24334 net.cpp:121] Top shape: 1 128 293 293 (10988672)
I0720 23:55:35.816226 24334 layer_factory.hpp:74] Creating layer relu2_2
I0720 23:55:35.816239 24334 net.cpp:85] Creating Layer relu2_2
I0720 23:55:35.816247 24334 net.cpp:381] relu2_2 <- conv2_2
I0720 23:55:35.816257 24334 net.cpp:328] relu2_2 -> conv2_2 (in-place)
I0720 23:55:35.816268 24334 net.cpp:114] Setting up relu2_2
I0720 23:55:35.816298 24334 net.cpp:121] Top shape: 1 128 293 293 (10988672)
I0720 23:55:35.816305 24334 layer_factory.hpp:74] Creating layer pool2
I0720 23:55:35.816318 24334 net.cpp:85] Creating Layer pool2
I0720 23:55:35.816324 24334 net.cpp:381] pool2 <- conv2_2
I0720 23:55:35.816334 24334 net.cpp:339] pool2 -> pool2
I0720 23:55:35.816345 24334 net.cpp:114] Setting up pool2
I0720 23:55:35.816359 24334 net.cpp:121] Top shape: 1 128 147 147 (2765952)
I0720 23:55:35.816370 24334 layer_factory.hpp:74] Creating layer conv3_1
I0720 23:55:35.816383 24334 net.cpp:85] Creating Layer conv3_1
I0720 23:55:35.816391 24334 net.cpp:381] conv3_1 <- pool2
I0720 23:55:35.816401 24334 net.cpp:339] conv3_1 -> conv3_1
I0720 23:55:35.816411 24334 net.cpp:114] Setting up conv3_1
I0720 23:55:35.817673 24334 net.cpp:121] Top shape: 1 256 147 147 (5531904)
I0720 23:55:35.817698 24334 layer_factory.hpp:74] Creating layer relu3_1
I0720 23:55:35.817741 24334 net.cpp:85] Creating Layer relu3_1
I0720 23:55:35.817749 24334 net.cpp:381] relu3_1 <- conv3_1
I0720 23:55:35.817759 24334 net.cpp:328] relu3_1 -> conv3_1 (in-place)
I0720 23:55:35.817767 24334 net.cpp:114] Setting up relu3_1
I0720 23:55:35.817776 24334 net.cpp:121] Top shape: 1 256 147 147 (5531904)
I0720 23:55:35.817783 24334 layer_factory.hpp:74] Creating layer conv3_2
I0720 23:55:35.817793 24334 net.cpp:85] Creating Layer conv3_2
I0720 23:55:35.817800 24334 net.cpp:381] conv3_2 <- conv3_1
I0720 23:55:35.817811 24334 net.cpp:339] conv3_2 -> conv3_2
I0720 23:55:35.817821 24334 net.cpp:114] Setting up conv3_2
I0720 23:55:35.819675 24334 net.cpp:121] Top shape: 1 256 147 147 (5531904)
I0720 23:55:35.819694 24334 layer_factory.hpp:74] Creating layer relu3_2
I0720 23:55:35.819703 24334 net.cpp:85] Creating Layer relu3_2
I0720 23:55:35.819710 24334 net.cpp:381] relu3_2 <- conv3_2
I0720 23:55:35.819720 24334 net.cpp:328] relu3_2 -> conv3_2 (in-place)
I0720 23:55:35.819730 24334 net.cpp:114] Setting up relu3_2
I0720 23:55:35.819737 24334 net.cpp:121] Top shape: 1 256 147 147 (5531904)
I0720 23:55:35.819743 24334 layer_factory.hpp:74] Creating layer conv3_3
I0720 23:55:35.819756 24334 net.cpp:85] Creating Layer conv3_3
I0720 23:55:35.819762 24334 net.cpp:381] conv3_3 <- conv3_2
I0720 23:55:35.819777 24334 net.cpp:339] conv3_3 -> conv3_3
I0720 23:55:35.819790 24334 net.cpp:114] Setting up conv3_3
I0720 23:55:35.821698 24334 net.cpp:121] Top shape: 1 256 147 147 (5531904)
I0720 23:55:35.821719 24334 layer_factory.hpp:74] Creating layer relu3_3
I0720 23:55:35.821729 24334 net.cpp:85] Creating Layer relu3_3
I0720 23:55:35.821737 24334 net.cpp:381] relu3_3 <- conv3_3
I0720 23:55:35.821748 24334 net.cpp:328] relu3_3 -> conv3_3 (in-place)
I0720 23:55:35.821756 24334 net.cpp:114] Setting up relu3_3
I0720 23:55:35.821765 24334 net.cpp:121] Top shape: 1 256 147 147 (5531904)
I0720 23:55:35.821771 24334 layer_factory.hpp:74] Creating layer pool3
I0720 23:55:35.821781 24334 net.cpp:85] Creating Layer pool3
I0720 23:55:35.821787 24334 net.cpp:381] pool3 <- conv3_3
I0720 23:55:35.821796 24334 net.cpp:339] pool3 -> pool3
I0720 23:55:35.821810 24334 net.cpp:114] Setting up pool3
I0720 23:55:35.821821 24334 net.cpp:121] Top shape: 1 256 74 74 (1401856)
I0720 23:55:35.821830 24334 layer_factory.hpp:74] Creating layer pool3_pool3_0_split
I0720 23:55:35.821841 24334 net.cpp:85] Creating Layer pool3_pool3_0_split
I0720 23:55:35.821851 24334 net.cpp:381] pool3_pool3_0_split <- pool3
I0720 23:55:35.823853 24334 net.cpp:339] pool3_pool3_0_split -> pool3_pool3_0_split_0
I0720 23:55:35.823887 24334 net.cpp:339] pool3_pool3_0_split -> pool3_pool3_0_split_1
I0720 23:55:35.823902 24334 net.cpp:114] Setting up pool3_pool3_0_split
I0720 23:55:35.823925 24334 net.cpp:121] Top shape: 1 256 74 74 (1401856)
I0720 23:55:35.823937 24334 net.cpp:121] Top shape: 1 256 74 74 (1401856)
I0720 23:55:35.823945 24334 layer_factory.hpp:74] Creating layer conv4_1
I0720 23:55:35.823958 24334 net.cpp:85] Creating Layer conv4_1
I0720 23:55:35.823967 24334 net.cpp:381] conv4_1 <- pool3_pool3_0_split_0
I0720 23:55:35.823978 24334 net.cpp:339] conv4_1 -> conv4_1
I0720 23:55:35.823988 24334 net.cpp:114] Setting up conv4_1
I0720 23:55:35.831197 24334 net.cpp:121] Top shape: 1 512 74 74 (2803712)
I0720 23:55:35.831238 24334 layer_factory.hpp:74] Creating layer relu4_1
I0720 23:55:35.831255 24334 net.cpp:85] Creating Layer relu4_1
I0720 23:55:35.831264 24334 net.cpp:381] relu4_1 <- conv4_1
I0720 23:55:35.831275 24334 net.cpp:328] relu4_1 -> conv4_1 (in-place)
I0720 23:55:35.831289 24334 net.cpp:114] Setting up relu4_1
I0720 23:55:35.831297 24334 net.cpp:121] Top shape: 1 512 74 74 (2803712)
I0720 23:55:35.831303 24334 layer_factory.hpp:74] Creating layer conv4_2
I0720 23:55:35.831315 24334 net.cpp:85] Creating Layer conv4_2
I0720 23:55:35.831321 24334 net.cpp:381] conv4_2 <- conv4_1
I0720 23:55:35.831331 24334 net.cpp:339] conv4_2 -> conv4_2
I0720 23:55:35.831342 24334 net.cpp:114] Setting up conv4_2
I0720 23:55:35.840492 24334 net.cpp:121] Top shape: 1 512 74 74 (2803712)
I0720 23:55:35.840533 24334 layer_factory.hpp:74] Creating layer relu4_2
I0720 23:55:35.840548 24334 net.cpp:85] Creating Layer relu4_2
I0720 23:55:35.840555 24334 net.cpp:381] relu4_2 <- conv4_2
I0720 23:55:35.840565 24334 net.cpp:328] relu4_2 -> conv4_2 (in-place)
I0720 23:55:35.840576 24334 net.cpp:114] Setting up relu4_2
I0720 23:55:35.840585 24334 net.cpp:121] Top shape: 1 512 74 74 (2803712)
I0720 23:55:35.840591 24334 layer_factory.hpp:74] Creating layer conv4_3
I0720 23:55:35.840601 24334 net.cpp:85] Creating Layer conv4_3
I0720 23:55:35.840611 24334 net.cpp:381] conv4_3 <- conv4_2
I0720 23:55:35.840620 24334 net.cpp:339] conv4_3 -> conv4_3
I0720 23:55:35.840631 24334 net.cpp:114] Setting up conv4_3
I0720 23:55:35.848994 24334 net.cpp:121] Top shape: 1 512 74 74 (2803712)
I0720 23:55:35.849025 24334 layer_factory.hpp:74] Creating layer relu4_3
I0720 23:55:35.849037 24334 net.cpp:85] Creating Layer relu4_3
I0720 23:55:35.849045 24334 net.cpp:381] relu4_3 <- conv4_3
I0720 23:55:35.849058 24334 net.cpp:328] relu4_3 -> conv4_3 (in-place)
I0720 23:55:35.849068 24334 net.cpp:114] Setting up relu4_3
I0720 23:55:35.849076 24334 net.cpp:121] Top shape: 1 512 74 74 (2803712)
I0720 23:55:35.849082 24334 layer_factory.hpp:74] Creating layer pool4
I0720 23:55:35.849092 24334 net.cpp:85] Creating Layer pool4
I0720 23:55:35.849097 24334 net.cpp:381] pool4 <- conv4_3
I0720 23:55:35.849107 24334 net.cpp:339] pool4 -> pool4
I0720 23:55:35.849115 24334 net.cpp:114] Setting up pool4
I0720 23:55:35.849128 24334 net.cpp:121] Top shape: 1 512 37 37 (700928)
I0720 23:55:35.849134 24334 layer_factory.hpp:74] Creating layer pool4_pool4_0_split
I0720 23:55:35.849143 24334 net.cpp:85] Creating Layer pool4_pool4_0_split
I0720 23:55:35.849149 24334 net.cpp:381] pool4_pool4_0_split <- pool4
I0720 23:55:35.849158 24334 net.cpp:339] pool4_pool4_0_split -> pool4_pool4_0_split_0
I0720 23:55:35.849166 24334 net.cpp:339] pool4_pool4_0_split -> pool4_pool4_0_split_1
I0720 23:55:35.849174 24334 net.cpp:114] Setting up pool4_pool4_0_split
I0720 23:55:35.849184 24334 net.cpp:121] Top shape: 1 512 37 37 (700928)
I0720 23:55:35.849191 24334 net.cpp:121] Top shape: 1 512 37 37 (700928)
I0720 23:55:35.849197 24334 layer_factory.hpp:74] Creating layer conv5_1
I0720 23:55:35.849211 24334 net.cpp:85] Creating Layer conv5_1
I0720 23:55:35.849217 24334 net.cpp:381] conv5_1 <- pool4_pool4_0_split_0
I0720 23:55:35.849228 24334 net.cpp:339] conv5_1 -> conv5_1
I0720 23:55:35.849237 24334 net.cpp:114] Setting up conv5_1
I0720 23:55:35.855316 24334 net.cpp:121] Top shape: 1 512 37 37 (700928)
I0720 23:55:35.855352 24334 layer_factory.hpp:74] Creating layer relu5_1
I0720 23:55:35.855365 24334 net.cpp:85] Creating Layer relu5_1
I0720 23:55:35.855372 24334 net.cpp:381] relu5_1 <- conv5_1
I0720 23:55:35.855382 24334 net.cpp:328] relu5_1 -> conv5_1 (in-place)
I0720 23:55:35.855392 24334 net.cpp:114] Setting up relu5_1
I0720 23:55:35.855401 24334 net.cpp:121] Top shape: 1 512 37 37 (700928)
I0720 23:55:35.855406 24334 layer_factory.hpp:74] Creating layer conv5_2
I0720 23:55:35.855418 24334 net.cpp:85] Creating Layer conv5_2
I0720 23:55:35.855424 24334 net.cpp:381] conv5_2 <- conv5_1
I0720 23:55:35.855432 24334 net.cpp:339] conv5_2 -> conv5_2
I0720 23:55:35.855442 24334 net.cpp:114] Setting up conv5_2
I0720 23:55:35.863149 24334 net.cpp:121] Top shape: 1 512 37 37 (700928)
I0720 23:55:35.863190 24334 layer_factory.hpp:74] Creating layer relu5_2
I0720 23:55:35.863206 24334 net.cpp:85] Creating Layer relu5_2
I0720 23:55:35.863214 24334 net.cpp:381] relu5_2 <- conv5_2
I0720 23:55:35.863225 24334 net.cpp:328] relu5_2 -> conv5_2 (in-place)
I0720 23:55:35.863237 24334 net.cpp:114] Setting up relu5_2
I0720 23:55:35.863246 24334 net.cpp:121] Top shape: 1 512 37 37 (700928)
I0720 23:55:35.863252 24334 layer_factory.hpp:74] Creating layer conv5_3
I0720 23:55:35.863271 24334 net.cpp:85] Creating Layer conv5_3
I0720 23:55:35.863277 24334 net.cpp:381] conv5_3 <- conv5_2
I0720 23:55:35.863286 24334 net.cpp:339] conv5_3 -> conv5_3
I0720 23:55:35.865290 24334 net.cpp:114] Setting up conv5_3
I0720 23:55:35.875318 24334 net.cpp:121] Top shape: 1 512 37 37 (700928)
I0720 23:55:35.875355 24334 layer_factory.hpp:74] Creating layer relu5_3
I0720 23:55:35.875368 24334 net.cpp:85] Creating Layer relu5_3
I0720 23:55:35.875375 24334 net.cpp:381] relu5_3 <- conv5_3
I0720 23:55:35.875385 24334 net.cpp:328] relu5_3 -> conv5_3 (in-place)
I0720 23:55:35.875396 24334 net.cpp:114] Setting up relu5_3
I0720 23:55:35.875403 24334 net.cpp:121] Top shape: 1 512 37 37 (700928)
I0720 23:55:35.875409 24334 layer_factory.hpp:74] Creating layer pool5
I0720 23:55:35.875418 24334 net.cpp:85] Creating Layer pool5
I0720 23:55:35.875423 24334 net.cpp:381] pool5 <- conv5_3
I0720 23:55:35.875434 24334 net.cpp:339] pool5 -> pool5
I0720 23:55:35.875444 24334 net.cpp:114] Setting up pool5
I0720 23:55:35.875457 24334 net.cpp:121] Top shape: 1 512 19 19 (184832)
I0720 23:55:35.875463 24334 layer_factory.hpp:74] Creating layer fc6
I0720 23:55:35.875473 24334 net.cpp:85] Creating Layer fc6
I0720 23:55:35.875479 24334 net.cpp:381] fc6 <- pool5
I0720 23:55:35.875488 24334 net.cpp:339] fc6 -> fc6
I0720 23:55:35.875496 24334 net.cpp:114] Setting up fc6
I0720 23:55:37.334218 24334 net.cpp:121] Top shape: 1 4096 13 13 (692224)
I0720 23:55:37.334249 24334 layer_factory.hpp:74] Creating layer relu6
I0720 23:55:37.334264 24334 net.cpp:85] Creating Layer relu6
I0720 23:55:37.334269 24334 net.cpp:381] relu6 <- fc6
I0720 23:55:37.334277 24334 net.cpp:328] relu6 -> fc6 (in-place)
I0720 23:55:37.334285 24334 net.cpp:114] Setting up relu6
I0720 23:55:37.334290 24334 net.cpp:121] Top shape: 1 4096 13 13 (692224)
I0720 23:55:37.334295 24334 layer_factory.hpp:74] Creating layer drop6
I0720 23:55:37.334313 24334 net.cpp:85] Creating Layer drop6
I0720 23:55:37.334317 24334 net.cpp:381] drop6 <- fc6
I0720 23:55:37.334322 24334 net.cpp:328] drop6 -> fc6 (in-place)
I0720 23:55:37.334327 24334 net.cpp:114] Setting up drop6
I0720 23:55:37.334336 24334 net.cpp:121] Top shape: 1 4096 13 13 (692224)
I0720 23:55:37.334339 24334 layer_factory.hpp:74] Creating layer fc7
I0720 23:55:37.334347 24334 net.cpp:85] Creating Layer fc7
I0720 23:55:37.334350 24334 net.cpp:381] fc7 <- fc6
I0720 23:55:37.334357 24334 net.cpp:339] fc7 -> fc7
I0720 23:55:37.334362 24334 net.cpp:114] Setting up fc7
I0720 23:55:37.580046 24334 net.cpp:121] Top shape: 1 4096 13 13 (692224)
I0720 23:55:37.580075 24334 layer_factory.hpp:74] Creating layer relu7
I0720 23:55:37.580083 24334 net.cpp:85] Creating Layer relu7
I0720 23:55:37.580088 24334 net.cpp:381] relu7 <- fc7
I0720 23:55:37.580095 24334 net.cpp:328] relu7 -> fc7 (in-place)
I0720 23:55:37.580101 24334 net.cpp:114] Setting up relu7
I0720 23:55:37.580106 24334 net.cpp:121] Top shape: 1 4096 13 13 (692224)
I0720 23:55:37.580109 24334 layer_factory.hpp:74] Creating layer drop7
I0720 23:55:37.580116 24334 net.cpp:85] Creating Layer drop7
I0720 23:55:37.580119 24334 net.cpp:381] drop7 <- fc7
I0720 23:55:37.580124 24334 net.cpp:328] drop7 -> fc7 (in-place)
I0720 23:55:37.580129 24334 net.cpp:114] Setting up drop7
I0720 23:55:37.580147 24334 net.cpp:121] Top shape: 1 4096 13 13 (692224)
I0720 23:55:37.580150 24334 layer_factory.hpp:74] Creating layer score-fr
I0720 23:55:37.580157 24334 net.cpp:85] Creating Layer score-fr
I0720 23:55:37.580159 24334 net.cpp:381] score-fr <- fc7
I0720 23:55:37.580164 24334 net.cpp:339] score-fr -> score
I0720 23:55:37.580170 24334 net.cpp:114] Setting up score-fr
I0720 23:55:37.580189 24334 net.cpp:121] Top shape: 1 2 13 13 (338)
I0720 23:55:37.580195 24334 layer_factory.hpp:74] Creating layer score2
I0720 23:55:37.580201 24334 net.cpp:85] Creating Layer score2
I0720 23:55:37.580205 24334 net.cpp:381] score2 <- score
I0720 23:55:37.580212 24334 net.cpp:339] score2 -> score2
I0720 23:55:37.580217 24334 net.cpp:114] Setting up score2
I0720 23:55:37.580227 24334 net.cpp:121] Top shape: 1 2 28 28 (1568)
I0720 23:55:37.580236 24334 layer_factory.hpp:74] Creating layer score2_score2_0_split
I0720 23:55:37.580243 24334 net.cpp:85] Creating Layer score2_score2_0_split
I0720 23:55:37.580262 24334 net.cpp:381] score2_score2_0_split <- score2
I0720 23:55:37.580268 24334 net.cpp:339] score2_score2_0_split -> score2_score2_0_split_0
I0720 23:55:37.580284 24334 net.cpp:339] score2_score2_0_split -> score2_score2_0_split_1
I0720 23:55:37.580293 24334 net.cpp:114] Setting up score2_score2_0_split
I0720 23:55:37.580299 24334 net.cpp:121] Top shape: 1 2 28 28 (1568)
I0720 23:55:37.580303 24334 net.cpp:121] Top shape: 1 2 28 28 (1568)
I0720 23:55:37.580307 24334 layer_factory.hpp:74] Creating layer score-pool4
I0720 23:55:37.580312 24334 net.cpp:85] Creating Layer score-pool4
I0720 23:55:37.580317 24334 net.cpp:381] score-pool4 <- pool4_pool4_0_split_1
I0720 23:55:37.580323 24334 net.cpp:339] score-pool4 -> score-pool4
I0720 23:55:37.580328 24334 net.cpp:114] Setting up score-pool4
I0720 23:55:37.580341 24334 net.cpp:121] Top shape: 1 2 37 37 (2738)
I0720 23:55:37.580346 24334 layer_factory.hpp:74] Creating layer crop
I0720 23:55:37.580360 24334 net.cpp:85] Creating Layer crop
I0720 23:55:37.580363 24334 net.cpp:381] crop <- score-pool4
I0720 23:55:37.580368 24334 net.cpp:381] crop <- score2_score2_0_split_0
I0720 23:55:37.580373 24334 net.cpp:339] crop -> score-pool4c
I0720 23:55:37.580377 24334 net.cpp:114] Setting up crop
I0720 23:55:37.580425 24334 net.cpp:121] Top shape: 1 2 28 28 (1568)
I0720 23:55:37.580430 24334 layer_factory.hpp:74] Creating layer fuse
I0720 23:55:37.580436 24334 net.cpp:85] Creating Layer fuse
I0720 23:55:37.580440 24334 net.cpp:381] fuse <- score2_score2_0_split_1
I0720 23:55:37.580446 24334 net.cpp:381] fuse <- score-pool4c
I0720 23:55:37.580451 24334 net.cpp:339] fuse -> score-fused
I0720 23:55:37.580457 24334 net.cpp:114] Setting up fuse
I0720 23:55:37.580463 24334 net.cpp:121] Top shape: 1 2 28 28 (1568)
I0720 23:55:37.580467 24334 layer_factory.hpp:74] Creating layer score4
I0720 23:55:37.580472 24334 net.cpp:85] Creating Layer score4
I0720 23:55:37.580476 24334 net.cpp:381] score4 <- score-fused
I0720 23:55:37.580481 24334 net.cpp:339] score4 -> score4
I0720 23:55:37.580484 24334 net.cpp:114] Setting up score4
I0720 23:55:37.580492 24334 net.cpp:121] Top shape: 1 2 58 58 (6728)
I0720 23:55:37.580497 24334 layer_factory.hpp:74] Creating layer score4_score4_0_split
I0720 23:55:37.580502 24334 net.cpp:85] Creating Layer score4_score4_0_split
I0720 23:55:37.580505 24334 net.cpp:381] score4_score4_0_split <- score4
I0720 23:55:37.580509 24334 net.cpp:339] score4_score4_0_split -> score4_score4_0_split_0
I0720 23:55:37.580514 24334 net.cpp:339] score4_score4_0_split -> score4_score4_0_split_1
I0720 23:55:37.580519 24334 net.cpp:114] Setting up score4_score4_0_split
I0720 23:55:37.580524 24334 net.cpp:121] Top shape: 1 2 58 58 (6728)
I0720 23:55:37.580528 24334 net.cpp:121] Top shape: 1 2 58 58 (6728)
I0720 23:55:37.580531 24334 layer_factory.hpp:74] Creating layer score-pool3
I0720 23:55:37.580538 24334 net.cpp:85] Creating Layer score-pool3
I0720 23:55:37.580540 24334 net.cpp:381] score-pool3 <- pool3_pool3_0_split_1
I0720 23:55:37.580544 24334 net.cpp:339] score-pool3 -> score-pool3
I0720 23:55:37.580549 24334 net.cpp:114] Setting up score-pool3
I0720 23:55:37.580564 24334 net.cpp:121] Top shape: 1 2 74 74 (10952)
I0720 23:55:37.580569 24334 layer_factory.hpp:74] Creating layer crop
I0720 23:55:37.580574 24334 net.cpp:85] Creating Layer crop
I0720 23:55:37.580579 24334 net.cpp:381] crop <- score-pool3
I0720 23:55:37.580581 24334 net.cpp:381] crop <- score4_score4_0_split_0
I0720 23:55:37.580586 24334 net.cpp:339] crop -> score-pool3c
I0720 23:55:37.580591 24334 net.cpp:114] Setting up crop
I0720 23:55:37.580623 24334 net.cpp:121] Top shape: 1 2 58 58 (6728)
I0720 23:55:37.580627 24334 layer_factory.hpp:74] Creating layer fuse
I0720 23:55:37.580632 24334 net.cpp:85] Creating Layer fuse
I0720 23:55:37.580636 24334 net.cpp:381] fuse <- score4_score4_0_split_1
I0720 23:55:37.580641 24334 net.cpp:381] fuse <- score-pool3c
I0720 23:55:37.580644 24334 net.cpp:339] fuse -> score-final
I0720 23:55:37.580649 24334 net.cpp:114] Setting up fuse
I0720 23:55:37.580660 24334 net.cpp:121] Top shape: 1 2 58 58 (6728)
I0720 23:55:37.580670 24334 layer_factory.hpp:74] Creating layer upsample
I0720 23:55:37.580677 24334 net.cpp:85] Creating Layer upsample
I0720 23:55:37.580680 24334 net.cpp:381] upsample <- score-final
I0720 23:55:37.580685 24334 net.cpp:339] upsample -> bigscore
I0720 23:55:37.580689 24334 net.cpp:114] Setting up upsample
I0720 23:55:37.580700 24334 net.cpp:121] Top shape: 1 2 472 472 (445568)
I0720 23:55:37.580705 24334 layer_factory.hpp:74] Creating layer crop
I0720 23:55:37.580710 24334 net.cpp:85] Creating Layer crop
I0720 23:55:37.580713 24334 net.cpp:381] crop <- bigscore
I0720 23:55:37.580718 24334 net.cpp:381] crop <- data_data_0_split_1
I0720 23:55:37.580723 24334 net.cpp:339] crop -> upscore
I0720 23:55:37.580726 24334 net.cpp:114] Setting up crop
I0720 23:55:37.580772 24334 net.cpp:121] Top shape: 1 2 388 388 (301088)
I0720 23:55:37.580776 24334 layer_factory.hpp:74] Creating layer loss
I0720 23:55:37.580782 24334 net.cpp:85] Creating Layer loss
I0720 23:55:37.580785 24334 net.cpp:381] loss <- upscore
I0720 23:55:37.580790 24334 net.cpp:381] loss <- label
I0720 23:55:37.580796 24334 net.cpp:339] loss -> loss
I0720 23:55:37.580806 24334 net.cpp:114] Setting up loss
I0720 23:55:37.580812 24334 layer_factory.hpp:74] Creating layer loss
…
I0720 23:55:37.582880 24334 net.cpp:42] Initializing net from parameters: 
name: "FCN"
state {
  phase: TEST
}
layer {
  name: "data"
  type: "ImageSegData"
  top: "data"
  top: "label"
  include {
    phase: TEST
  }
  transform_param {
    mirror: true
    crop_size: 388
    mean_value: 104.008
    mean_value: 116.669
    mean_value: 122.675
  }
  image_data_param {
    source: "/media/BigDisk/xiaoyong/datafrommac/ourfacedata_train_2/ourtestdatalist.txt"
    batch_size: 1
    shuffle: true
    root_folder: ""
    ignore_label: 255
    label_type: PIXEL
  }
}
layer {
  name: "conv1_1"
  type: "Convolution"
  bottom: "data"
  top: "conv1_1"
  param {
    lr_mult: 1
    decay_mult: 1
  }
  param {
    lr_mult: 2
    decay_mult: 0
  }
  convolution_param {
    num_output: 64
    pad: 100
    kernel_size: 3
    engine: CAFFE
  }
}
layer {
  name: "relu1_1"
  type: "ReLU"
  bottom: "conv1_1"
  top: "conv1_1"
}
layer {
  name: "conv1_2"
  type: "Convolution"
  bottom: "conv1_1"
  top: "conv1_2"
  param {
    lr_mult: 1
    decay_mult: 1
  }
  param {
    lr_mult: 2
    decay_mult: 0
  }
  convolution_param {
    num_output: 64
    pad: 1
    kernel_size: 3
    engine: CAFFE
  }
}
layer {
  name: "relu1_2"
  type: "ReLU"
  bottom: "conv1_2"
  top: "conv1_2"
}
layer {
  name: "pool1"
  type: "Pooling"
  bottom: "conv1_2"
  top: "pool1"
  pooling_param {
    pool: MAX
    kernel_size: 2
    stride: 2
  }
}
layer {
  name: "conv2_1"
  type: "Convolution"
  bottom: "pool1"
  top: "conv2_1"
  param {
    lr_mult: 1
    decay_mult: 1
  }
  param {
    lr_mult: 2
    decay_mult: 0
  }
  convolution_param {
    num_output: 128
    pad: 1
    kernel_size: 3
    engine: CAFFE
  }
}
layer {
  name: "relu2_1"
  type: "ReLU"
  bottom: "conv2_1"
  top: "conv2_1"
}
layer {
  name: "conv2_2"
  type: "Convolution"
  bottom: "conv2_1"
  top: "conv2_2"
  param {
    lr_mult: 1
    decay_mult: 1
  }
  param {
    lr_mult: 2
    decay_mult: 0
  }
  convolution_param {
    num_output: 128
    pad: 1
    kernel_size: 3
    engine: CAFFE
  }
}
layer {
  name: "relu2_2"
  type: "ReLU"
  bottom: "conv2_2"
  top: "conv2_2"
}
layer {
  name: "pool2"
  type: "Pooling"
  bottom: "conv2_2"
  top: "pool2"
  pooling_param {
    pool: MAX
    kernel_size: 2
    stride: 2
  }
}
layer {
  name: "conv3_1"
  type: "Convolution"
  bottom: "pool2"
  top: "conv3_1"
  param {
    lr_mult: 1
    decay_mult: 1
  }
  param {
    lr_mult: 2
    decay_mult: 0
  }
  convolution_param {
    num_output: 256
    pad: 1
    kernel_size: 3
    engine: CAFFE
  }
}
layer {
  name: "relu3_1"
  type: "ReLU"
  bottom: "conv3_1"
  top: "conv3_1"
}
layer {
  name: "conv3_2"
  type: "Convolution"
  bottom: "conv3_1"
  top: "conv3_2"
  param {
    lr_mult: 1
    decay_mult: 1
  }
  param {
    lr_mult: 2
    decay_mult: 0
  }
  convolution_param {
    num_output: 256
    pad: 1
    kernel_size: 3
    engine: CAFFE
  }
}
layer {
  name: "relu3_2"
  type: "ReLU"
  bottom: "conv3_2"
  top: "conv3_2"
}
layer {
  name: "conv3_3"
  type: "Convolution"
  bottom: "conv3_2"
  top: "conv3_3"
  param {
    lr_mult: 1
    decay_mult: 1
  }
  param {
    lr_mult: 2
    decay_mult: 0
  }
  convolution_param {
    num_output: 256
    pad: 1
    kernel_size: 3
    engine: CAFFE
  }
}
layer {
  name: "relu3_3"
  type: "ReLU"
  bottom: "conv3_3"
  top: "conv3_3"
}
layer {
  name: "pool3"
  type: "Pooling"
  bottom: "conv3_3"
  top: "pool3"
  pooling_param {
    pool: MAX
    kernel_size: 2
    stride: 2
  }
}
layer {
  name: "conv4_1"
  type: "Convolution"
  bottom: "pool3"
  top: "conv4_1"
  param {
    lr_mult: 1
    decay_mult: 1
  }
  param {
    lr_mult: 2
    decay_mult: 0
  }
  convolution_param {
    num_output: 512
    pad: 1
    kernel_size: 3
    engine: CAFFE
  }
}
layer {
  name: "relu4_1"
  type: "ReLU"
  bottom: "conv4_1"
  top: "conv4_1"
}
layer {
  name: "conv4_2"
  type: "Convolution"
  bottom: "conv4_1"
  top: "conv4_2"
  param {
    lr_mult: 1
    decay_mult: 1
  }
  param {
    lr_mult: 2
    decay_mult: 0
  }
  convolution_param {
    num_output: 512
    pad: 1
    kernel_size: 3
    engine: CAFFE
  }
}
layer {
  name: "relu4_2"
  type: "ReLU"
  bottom: "conv4_2"
  top: "conv4_2"
}
layer {
  name: "conv4_3"
  type: "Convolution"
  bottom: "conv4_2"
  top: "conv4_3"
  param {
    lr_mult: 1
    decay_mult: 1
  }
  param {
    lr_mult: 2
    decay_mult: 0
  }
  convolution_param {
    num_output: 512
    pad: 1
    kernel_size: 3
    engine: CAFFE
  }
}
layer {
  name: "relu4_3"
  type: "ReLU"
  bottom: "conv4_3"
  top: "conv4_3"
}
layer {
  name: "pool4"
  type: "Pooling"
  bottom: "conv4_3"
  top: "pool4"
  pooling_param {
    pool: MAX
    kernel_size: 2
    stride: 2
  }
}
layer {
  name: "conv5_1"
  type: "Convolution"
  bottom: "pool4"
  top: "conv5_1"
  param {
    lr_mult: 1
    decay_mult: 1
  }
  param {
    lr_mult: 2
    decay_mult: 0
  }
  convolution_param {
    num_output: 512
    pad: 1
    kernel_size: 3
    engine: CAFFE
  }
}
layer {
  name: "relu5_1"
  type: "ReLU"
  bottom: "conv5_1"
  top: "conv5_1"
}
layer {
  name: "conv5_2"
  type: "Convolution"
  bottom: "conv5_1"
  top: "conv5_2"
  param {
    lr_mult: 1
    decay_mult: 1
  }
  param {
    lr_mult: 2
    decay_mult: 0
  }
  convolution_param {
    num_output: 512
    pad: 1
    kernel_size: 3
    engine: CAFFE
  }
}
layer {
  name: "relu5_2"
  type: "ReLU"
  bottom: "conv5_2"
  top: "conv5_2"
}
layer {
  name: "conv5_3"
  type: "Convolution"
  bottom: "conv5_2"
  top: "conv5_3"
  param {
    lr_mult: 1
    decay_mult: 1
  }
  param {
    lr_mult: 2
    decay_mult: 0
  }
  convolution_param {
    num_output: 512
    pad: 1
    kernel_size: 3
    engine: CAFFE
  }
}
layer {
  name: "relu5_3"
  type: "ReLU"
  bottom: "conv5_3"
  top: "conv5_3"
}
layer {
  name: "pool5"
  type: "Pooling"
  bottom: "conv5_3"
  top: "pool5"
  pooling_param {
    pool: MAX
    kernel_size: 2
    stride: 2
  }
}
layer {
  name: "fc6"
  type: "Convolution"
  bottom: "pool5"
  top: "fc6"
  param {
    lr_mult: 1
    decay_mult: 1
  }
  param {
    lr_mult: 2
    decay_mult: 0
  }
  convolution_param {
    num_output: 4096
    kernel_size: 7
    engine: CAFFE
  }
}
layer {
  name: "relu6"
  type: "ReLU"
  bottom: "fc6"
  top: "fc6"
}
layer {
  name: "drop6"
  type: "Dropout"
  bottom: "fc6"
  top: "fc6"
  dropout_param {
    dropout_ratio: 0.5
  }
}
layer {
  name: "fc7"
  type: "Convolution"
  bottom: "fc6"
  top: "fc7"
  param {
    lr_mult: 1
    decay_mult: 1
  }
  param {
    lr_mult: 2
    decay_mult: 0
  }
  convolution_param {
    num_output: 4096
    kernel_size: 1
    engine: CAFFE
  }
}
layer {
  name: "relu7"
  type: "ReLU"
  bottom: "fc7"
  top: "fc7"
}
layer {
  name: "drop7"
  type: "Dropout"
  bottom: "fc7"
  top: "fc7"
  dropout_param {
    dropout_ratio: 0.5
  }
}
layer {
  name: "score-fr"
  type: "Convolution"
  bottom: "fc7"
  top: "score"
  param {
    lr_mult: 1
    decay_mult: 1
  }
  param {
    lr_mult: 2
    decay_mult: 0
  }
  convolution_param {
    num_output: 2
    kernel_size: 1
    engine: CAFFE
  }
}
layer {
  name: "score2"
  type: "Deconvolution"
  bottom: "score"
  top: "score2"
  param {
    lr_mult: 1
    decay_mult: 1
  }
  param {
    lr_mult: 2
    decay_mult: 0
  }
  convolution_param {
    num_output: 2
    kernel_size: 4
    stride: 2
  }
}
layer {
  name: "score-pool4"
  type: "Convolution"
  bottom: "pool4"
  top: "score-pool4"
  param {
    lr_mult: 1
    decay_mult: 1
  }
  param {
    lr_mult: 2
    decay_mult: 0
  }
  convolution_param {
    num_output: 2
    kernel_size: 1
    engine: CAFFE
  }
}
layer {
  name: "crop"
  type: "Crop"
  bottom: "score-pool4"
  bottom: "score2"
  top: "score-pool4c"
}
layer {
  name: "fuse"
  type: "Eltwise"
  bottom: "score2"
  bottom: "score-pool4c"
  top: "score-fused"
  eltwise_param {
    operation: SUM
  }
}
layer {
  name: "score4"
  type: "Deconvolution"
  bottom: "score-fused"
  top: "score4"
  param {
    lr_mult: 1
    decay_mult: 1
  }
  convolution_param {
    num_output: 2
    bias_term: false
    kernel_size: 4
    stride: 2
  }
}
layer {
  name: "score-pool3"
  type: "Convolution"
  bottom: "pool3"
  top: "score-pool3"
  param {
    lr_mult: 1
    decay_mult: 1
  }
  param {
    lr_mult: 2
    decay_mult: 0
  }
  convolution_param {
    num_output: 2
    kernel_size: 1
    engine: CAFFE
  }
}
layer {
  name: "crop"
  type: "Crop"
  bottom: "score-pool3"
  bottom: "score4"
  top: "score-pool3c"
}
layer {
  name: "fuse"
  type: "Eltwise"
  bottom: "score4"
  bottom: "score-pool3c"
  top: "score-final"
  eltwise_param {
    operation: SUM
  }
}
layer {
  name: "upsample"
  type: "Deconvolution"
  bottom: "score-final"
  top: "bigscore"
  param {
    lr_mult: 1
  }
  convolution_param {
    num_output: 2
    bias_term: false
    kernel_size: 16
    stride: 8
  }
}
layer {
  name: "crop"
  type: "Crop"
  bottom: "bigscore"
  bottom: "data"
  top: "upscore"
}
layer {
  name: "loss"
  type: "SoftmaxWithLoss"
  bottom: "upscore"
  bottom: "label"
  top: "loss"
  loss_param {
    ignore_label: 255
  }
}
layer {
  name: "accuracy"
  type: "SegAccuracy"
  bottom: "upscore"
  bottom: "label"
  top: "accuracy"
  include {
    phase: TEST
  }
  seg_accuracy_param {
    ignore_label: 255
  }
}
I0720 23:55:37.583065 24334 layer_factory.hpp:74] Creating layer data
I0720 23:55:37.583075 24334 net.cpp:85] Creating Layer data
I0720 23:55:37.583080 24334 net.cpp:339] data -> data
I0720 23:55:37.583088 24334 net.cpp:339] data -> label
I0720 23:55:37.583096 24334 net.cpp:339] data -> (automatic)
I0720 23:55:37.583099 24334 net.cpp:114] Setting up data
I0720 23:55:37.583107 24334 image_seg_data_layer.cpp:46] Opening file /media/BigDisk/xiaoyong/datafrommac/ourfacedata_train_2/ourtestdatalist.txt
I0720 23:55:37.583475 24334 image_seg_data_layer.cpp:63] Shuffling data
I0720 23:55:37.583523 24334 image_seg_data_layer.cpp:68] A total of 355 images.
I0720 23:55:37.624013 24334 image_seg_data_layer.cpp:114] output data size: 1,3,388,388
I0720 23:55:37.624037 24334 image_seg_data_layer.cpp:118] output label size: 1,1,388,388
I0720 23:55:37.624053 24334 image_seg_data_layer.cpp:122] output data_dim size: 1,1,1,2
I0720 23:55:37.624811 24334 net.cpp:121] Top shape: 1 3 388 388 (451632)
I0720 23:55:37.624830 24334 net.cpp:121] Top shape: 1 1 388 388 (150544)
I0720 23:55:37.624840 24334 net.cpp:121] Top shape: 1 1 1 2 (2)
I0720 23:55:37.624848 24334 layer_factory.hpp:74] Creating layer data_data_0_split
I0720 23:55:37.624862 24334 net.cpp:85] Creating Layer data_data_0_split
I0720 23:55:37.624871 24334 net.cpp:381] data_data_0_split <- data
I0720 23:55:37.624882 24334 net.cpp:339] data_data_0_split -> data_data_0_split_0
I0720 23:55:37.624897 24334 net.cpp:339] data_data_0_split -> data_data_0_split_1
I0720 23:55:37.624912 24334 net.cpp:114] Setting up data_data_0_split
I0720 23:55:37.624927 24334 net.cpp:121] Top shape: 1 3 388 388 (451632)
I0720 23:55:37.624941 24334 net.cpp:121] Top shape: 1 3 388 388 (451632)
I0720 23:55:37.624949 24334 layer_factory.hpp:74] Creating layer label_data_1_split
I0720 23:55:37.624959 24334 net.cpp:85] Creating Layer label_data_1_split
I0720 23:55:37.624969 24334 net.cpp:381] label_data_1_split <- label
I0720 23:55:37.624979 24334 net.cpp:339] label_data_1_split -> label_data_1_split_0
I0720 23:55:37.624994 24334 net.cpp:339] label_data_1_split -> label_data_1_split_1
I0720 23:55:37.625006 24334 net.cpp:114] Setting up label_data_1_split
I0720 23:55:37.625020 24334 net.cpp:121] Top shape: 1 1 388 388 (150544)
I0720 23:55:37.625028 24334 net.cpp:121] Top shape: 1 1 388 388 (150544)
I0720 23:55:37.625037 24334 layer_factory.hpp:74] Creating layer conv1_1
I0720 23:55:37.625048 24334 net.cpp:85] Creating Layer conv1_1
I0720 23:55:37.625057 24334 net.cpp:381] conv1_1 <- data_data_0_split_0
I0720 23:55:37.625068 24334 net.cpp:339] conv1_1 -> conv1_1
I0720 23:55:37.625082 24334 net.cpp:114] Setting up conv1_1
I0720 23:55:37.626165 24334 net.cpp:121] Top shape: 1 64 586 586 (21977344)
I0720 23:55:37.626189 24334 layer_factory.hpp:74] Creating layer relu1_1
I0720 23:55:37.626204 24334 net.cpp:85] Creating Layer relu1_1
I0720 23:55:37.626214 24334 net.cpp:381] relu1_1 <- conv1_1
I0720 23:55:37.626224 24334 net.cpp:328] relu1_1 -> conv1_1 (in-place)
I0720 23:55:37.626235 24334 net.cpp:114] Setting up relu1_1
I0720 23:55:37.626245 24334 net.cpp:121] Top shape: 1 64 586 586 (21977344)
I0720 23:55:37.626252 24334 layer_factory.hpp:74] Creating layer conv1_2
I0720 23:55:37.626263 24334 net.cpp:85] Creating Layer conv1_2
I0720 23:55:37.626269 24334 net.cpp:381] conv1_2 <- conv1_1
I0720 23:55:37.626282 24334 net.cpp:339] conv1_2 -> conv1_2
I0720 23:55:37.626296 24334 net.cpp:114] Setting up conv1_2
I0720 23:55:37.627473 24334 net.cpp:121] Top shape: 1 64 586 586 (21977344)
I0720 23:55:37.627495 24334 layer_factory.hpp:74] Creating layer relu1_2
I0720 23:55:37.627504 24334 net.cpp:85] Creating Layer relu1_2
I0720 23:55:37.627511 24334 net.cpp:381] relu1_2 <- conv1_2
I0720 23:55:37.627523 24334 net.cpp:328] relu1_2 -> conv1_2 (in-place)
I0720 23:55:37.627533 24334 net.cpp:114] Setting up relu1_2
I0720 23:55:37.627542 24334 net.cpp:121] Top shape: 1 64 586 586 (21977344)
I0720 23:55:37.627549 24334 layer_factory.hpp:74] Creating layer pool1
I0720 23:55:37.627559 24334 net.cpp:85] Creating Layer pool1
I0720 23:55:37.627567 24334 net.cpp:381] pool1 <- conv1_2
I0720 23:55:37.627578 24334 net.cpp:339] pool1 -> pool1
I0720 23:55:37.627590 24334 net.cpp:114] Setting up pool1
I0720 23:55:37.627605 24334 net.cpp:121] Top shape: 1 64 293 293 (5494336)
I0720 23:55:37.627614 24334 layer_factory.hpp:74] Creating layer conv2_1
I0720 23:55:37.627626 24334 net.cpp:85] Creating Layer conv2_1
I0720 23:55:37.627635 24334 net.cpp:381] conv2_1 <- pool1
I0720 23:55:37.627648 24334 net.cpp:339] conv2_1 -> conv2_1
I0720 23:55:37.627658 24334 net.cpp:114] Setting up conv2_1
I0720 23:55:37.628186 24334 net.cpp:121] Top shape: 1 128 293 293 (10988672)
I0720 23:55:37.628207 24334 layer_factory.hpp:74] Creating layer relu2_1
I0720 23:55:37.628219 24334 net.cpp:85] Creating Layer relu2_1
I0720 23:55:37.628227 24334 net.cpp:381] relu2_1 <- conv2_1
I0720 23:55:37.628237 24334 net.cpp:328] relu2_1 -> conv2_1 (in-place)
I0720 23:55:37.628247 24334 net.cpp:114] Setting up relu2_1
I0720 23:55:37.628257 24334 net.cpp:121] Top shape: 1 128 293 293 (10988672)
I0720 23:55:37.628264 24334 layer_factory.hpp:74] Creating layer conv2_2
I0720 23:55:37.628301 24334 net.cpp:85] Creating Layer conv2_2
I0720 23:55:37.628309 24334 net.cpp:381] conv2_2 <- conv2_1
I0720 23:55:37.628322 24334 net.cpp:339] conv2_2 -> conv2_2
I0720 23:55:37.628334 24334 net.cpp:114] Setting up conv2_2
I0720 23:55:37.629050 24334 net.cpp:121] Top shape: 1 128 293 293 (10988672)
I0720 23:55:37.629066 24334 layer_factory.hpp:74] Creating layer relu2_2
I0720 23:55:37.629076 24334 net.cpp:85] Creating Layer relu2_2
I0720 23:55:37.629082 24334 net.cpp:381] relu2_2 <- conv2_2
I0720 23:55:37.629096 24334 net.cpp:328] relu2_2 -> conv2_2 (in-place)
I0720 23:55:37.629104 24334 net.cpp:114] Setting up relu2_2
I0720 23:55:37.629112 24334 net.cpp:121] Top shape: 1 128 293 293 (10988672)
I0720 23:55:37.629122 24334 layer_factory.hpp:74] Creating layer pool2
I0720 23:55:37.629130 24334 net.cpp:85] Creating Layer pool2
I0720 23:55:37.629137 24334 net.cpp:381] pool2 <- conv2_2
I0720 23:55:37.629147 24334 net.cpp:339] pool2 -> pool2
I0720 23:55:37.629158 24334 net.cpp:114] Setting up pool2
I0720 23:55:37.629169 24334 net.cpp:121] Top shape: 1 128 147 147 (2765952)
I0720 23:55:37.629179 24334 layer_factory.hpp:74] Creating layer conv3_1
I0720 23:55:37.629190 24334 net.cpp:85] Creating Layer conv3_1
I0720 23:55:37.629199 24334 net.cpp:381] conv3_1 <- pool2
I0720 23:55:37.629210 24334 net.cpp:339] conv3_1 -> conv3_1
I0720 23:55:37.629220 24334 net.cpp:114] Setting up conv3_1
I0720 23:55:37.630152 24334 net.cpp:121] Top shape: 1 256 147 147 (5531904)
I0720 23:55:37.630174 24334 layer_factory.hpp:74] Creating layer relu3_1
I0720 23:55:37.630183 24334 net.cpp:85] Creating Layer relu3_1
I0720 23:55:37.630190 24334 net.cpp:381] relu3_1 <- conv3_1
I0720 23:55:37.630201 24334 net.cpp:328] relu3_1 -> conv3_1 (in-place)
I0720 23:55:37.630209 24334 net.cpp:114] Setting up relu3_1
I0720 23:55:37.630218 24334 net.cpp:121] Top shape: 1 256 147 147 (5531904)
I0720 23:55:37.630225 24334 layer_factory.hpp:74] Creating layer conv3_2
I0720 23:55:37.630234 24334 net.cpp:85] Creating Layer conv3_2
I0720 23:55:37.630241 24334 net.cpp:381] conv3_2 <- conv3_1
I0720 23:55:37.630250 24334 net.cpp:339] conv3_2 -> conv3_2
I0720 23:55:37.630260 24334 net.cpp:114] Setting up conv3_2
I0720 23:55:37.632035 24334 net.cpp:121] Top shape: 1 256 147 147 (5531904)
I0720 23:55:37.632053 24334 layer_factory.hpp:74] Creating layer relu3_2
I0720 23:55:37.632066 24334 net.cpp:85] Creating Layer relu3_2
I0720 23:55:37.632073 24334 net.cpp:381] relu3_2 <- conv3_2
I0720 23:55:37.632081 24334 net.cpp:328] relu3_2 -> conv3_2 (in-place)
I0720 23:55:37.632091 24334 net.cpp:114] Setting up relu3_2
I0720 23:55:37.632099 24334 net.cpp:121] Top shape: 1 256 147 147 (5531904)
I0720 23:55:37.632105 24334 layer_factory.hpp:74] Creating layer conv3_3
I0720 23:55:37.632117 24334 net.cpp:85] Creating Layer conv3_3
I0720 23:55:37.632124 24334 net.cpp:381] conv3_3 <- conv3_2
I0720 23:55:37.632133 24334 net.cpp:339] conv3_3 -> conv3_3
I0720 23:55:37.632143 24334 net.cpp:114] Setting up conv3_3
I0720 23:55:37.633942 24334 net.cpp:121] Top shape: 1 256 147 147 (5531904)
I0720 23:55:37.633960 24334 layer_factory.hpp:74] Creating layer relu3_3
I0720 23:55:37.633972 24334 net.cpp:85] Creating Layer relu3_3
I0720 23:55:37.633985 24334 net.cpp:381] relu3_3 <- conv3_3
I0720 23:55:37.633994 24334 net.cpp:328] relu3_3 -> conv3_3 (in-place)
I0720 23:55:37.634003 24334 net.cpp:114] Setting up relu3_3
I0720 23:55:37.634013 24334 net.cpp:121] Top shape: 1 256 147 147 (5531904)
I0720 23:55:37.634021 24334 layer_factory.hpp:74] Creating layer pool3
I0720 23:55:37.634047 24334 net.cpp:85] Creating Layer pool3
I0720 23:55:37.634054 24334 net.cpp:381] pool3 <- conv3_3
I0720 23:55:37.634066 24334 net.cpp:339] pool3 -> pool3
I0720 23:55:37.634080 24334 net.cpp:114] Setting up pool3
I0720 23:55:37.634093 24334 net.cpp:121] Top shape: 1 256 74 74 (1401856)
I0720 23:55:37.634102 24334 layer_factory.hpp:74] Creating layer pool3_pool3_0_split
I0720 23:55:37.634111 24334 net.cpp:85] Creating Layer pool3_pool3_0_split
I0720 23:55:37.634119 24334 net.cpp:381] pool3_pool3_0_split <- pool3
I0720 23:55:37.634130 24334 net.cpp:339] pool3_pool3_0_split -> pool3_pool3_0_split_0
I0720 23:55:37.634142 24334 net.cpp:339] pool3_pool3_0_split -> pool3_pool3_0_split_1
I0720 23:55:37.634155 24334 net.cpp:114] Setting up pool3_pool3_0_split
I0720 23:55:37.634166 24334 net.cpp:121] Top shape: 1 256 74 74 (1401856)
I0720 23:55:37.634176 24334 net.cpp:121] Top shape: 1 256 74 74 (1401856)
I0720 23:55:37.634183 24334 layer_factory.hpp:74] Creating layer conv4_1
I0720 23:55:37.634193 24334 net.cpp:85] Creating Layer conv4_1
I0720 23:55:37.634203 24334 net.cpp:381] conv4_1 <- pool3_pool3_0_split_0
I0720 23:55:37.634213 24334 net.cpp:339] conv4_1 -> conv4_1
I0720 23:55:37.634225 24334 net.cpp:114] Setting up conv4_1
I0720 23:55:37.649219 24334 net.cpp:121] Top shape: 1 512 74 74 (2803712)
I0720 23:55:37.649240 24334 layer_factory.hpp:74] Creating layer relu4_1
I0720 23:55:37.649250 24334 net.cpp:85] Creating Layer relu4_1
I0720 23:55:37.649260 24334 net.cpp:381] relu4_1 <- conv4_1
I0720 23:55:37.649271 24334 net.cpp:328] relu4_1 -> conv4_1 (in-place)
I0720 23:55:37.649282 24334 net.cpp:114] Setting up relu4_1
I0720 23:55:37.649291 24334 net.cpp:121] Top shape: 1 512 74 74 (2803712)
I0720 23:55:37.649301 24334 layer_factory.hpp:74] Creating layer conv4_2
I0720 23:55:37.649310 24334 net.cpp:85] Creating Layer conv4_2
I0720 23:55:37.649318 24334 net.cpp:381] conv4_2 <- conv4_1
I0720 23:55:37.649330 24334 net.cpp:339] conv4_2 -> conv4_2
I0720 23:55:37.649344 24334 net.cpp:114] Setting up conv4_2
I0720 23:55:37.671391 24334 net.cpp:121] Top shape: 1 512 74 74 (2803712)
I0720 23:55:37.671419 24334 layer_factory.hpp:74] Creating layer relu4_2
I0720 23:55:37.671430 24334 net.cpp:85] Creating Layer relu4_2
I0720 23:55:37.671437 24334 net.cpp:381] relu4_2 <- conv4_2
I0720 23:55:37.671449 24334 net.cpp:328] relu4_2 -> conv4_2 (in-place)
I0720 23:55:37.671461 24334 net.cpp:114] Setting up relu4_2
I0720 23:55:37.671470 24334 net.cpp:121] Top shape: 1 512 74 74 (2803712)
I0720 23:55:37.671478 24334 layer_factory.hpp:74] Creating layer conv4_3
I0720 23:55:37.671488 24334 net.cpp:85] Creating Layer conv4_3
I0720 23:55:37.671494 24334 net.cpp:381] conv4_3 <- conv4_2
I0720 23:55:37.671504 24334 net.cpp:339] conv4_3 -> conv4_3
I0720 23:55:37.671515 24334 net.cpp:114] Setting up conv4_3
I0720 23:55:37.698462 24334 net.cpp:121] Top shape: 1 512 74 74 (2803712)
I0720 23:55:37.698489 24334 layer_factory.hpp:74] Creating layer relu4_3
I0720 23:55:37.698501 24334 net.cpp:85] Creating Layer relu4_3
I0720 23:55:37.698508 24334 net.cpp:381] relu4_3 <- conv4_3
I0720 23:55:37.698518 24334 net.cpp:328] relu4_3 -> conv4_3 (in-place)
I0720 23:55:37.698526 24334 net.cpp:114] Setting up relu4_3
I0720 23:55:37.698534 24334 net.cpp:121] Top shape: 1 512 74 74 (2803712)
I0720 23:55:37.698539 24334 layer_factory.hpp:74] Creating layer pool4
I0720 23:55:37.698549 24334 net.cpp:85] Creating Layer pool4
I0720 23:55:37.698555 24334 net.cpp:381] pool4 <- conv4_3
I0720 23:55:37.698564 24334 net.cpp:339] pool4 -> pool4
I0720 23:55:37.698572 24334 net.cpp:114] Setting up pool4
I0720 23:55:37.698582 24334 net.cpp:121] Top shape: 1 512 37 37 (700928)
I0720 23:55:37.698588 24334 layer_factory.hpp:74] Creating layer pool4_pool4_0_split
I0720 23:55:37.698598 24334 net.cpp:85] Creating Layer pool4_pool4_0_split
I0720 23:55:37.698603 24334 net.cpp:381] pool4_pool4_0_split <- pool4
I0720 23:55:37.698611 24334 net.cpp:339] pool4_pool4_0_split -> pool4_pool4_0_split_0
I0720 23:55:37.698621 24334 net.cpp:339] pool4_pool4_0_split -> pool4_pool4_0_split_1
I0720 23:55:37.698650 24334 net.cpp:114] Setting up pool4_pool4_0_split
I0720 23:55:37.698659 24334 net.cpp:121] Top shape: 1 512 37 37 (700928)
I0720 23:55:37.698670 24334 net.cpp:121] Top shape: 1 512 37 37 (700928)
I0720 23:55:37.698675 24334 layer_factory.hpp:74] Creating layer conv5_1
I0720 23:55:37.698685 24334 net.cpp:85] Creating Layer conv5_1
I0720 23:55:37.698690 24334 net.cpp:381] conv5_1 <- pool4_pool4_0_split_0
I0720 23:55:37.698701 24334 net.cpp:339] conv5_1 -> conv5_1
I0720 23:55:37.698710 24334 net.cpp:114] Setting up conv5_1
I0720 23:55:37.720986 24334 net.cpp:121] Top shape: 1 512 37 37 (700928)
I0720 23:55:37.721016 24334 layer_factory.hpp:74] Creating layer relu5_1
I0720 23:55:37.721030 24334 net.cpp:85] Creating Layer relu5_1
I0720 23:55:37.721037 24334 net.cpp:381] relu5_1 <- conv5_1
I0720 23:55:37.721045 24334 net.cpp:328] relu5_1 -> conv5_1 (in-place)
I0720 23:55:37.721055 24334 net.cpp:114] Setting up relu5_1
I0720 23:55:37.721062 24334 net.cpp:121] Top shape: 1 512 37 37 (700928)
I0720 23:55:37.721067 24334 layer_factory.hpp:74] Creating layer conv5_2
I0720 23:55:37.721076 24334 net.cpp:85] Creating Layer conv5_2
I0720 23:55:37.721081 24334 net.cpp:381] conv5_2 <- conv5_1
I0720 23:55:37.721091 24334 net.cpp:339] conv5_2 -> conv5_2
I0720 23:55:37.721099 24334 net.cpp:114] Setting up conv5_2
I0720 23:55:37.761669 24334 net.cpp:121] Top shape: 1 512 37 37 (700928)
I0720 23:55:37.761699 24334 layer_factory.hpp:74] Creating layer relu5_2
I0720 23:55:37.761719 24334 net.cpp:85] Creating Layer relu5_2
I0720 23:55:37.761729 24334 net.cpp:381] relu5_2 <- conv5_2
I0720 23:55:37.761737 24334 net.cpp:328] relu5_2 -> conv5_2 (in-place)
I0720 23:55:37.761746 24334 net.cpp:114] Setting up relu5_2
I0720 23:55:37.761754 24334 net.cpp:121] Top shape: 1 512 37 37 (700928)
I0720 23:55:37.761759 24334 layer_factory.hpp:74] Creating layer conv5_3
I0720 23:55:37.761767 24334 net.cpp:85] Creating Layer conv5_3
I0720 23:55:37.761772 24334 net.cpp:381] conv5_3 <- conv5_2
I0720 23:55:37.761781 24334 net.cpp:339] conv5_3 -> conv5_3
I0720 23:55:37.761790 24334 net.cpp:114] Setting up conv5_3
I0720 23:55:37.795666 24334 net.cpp:121] Top shape: 1 512 37 37 (700928)
I0720 23:55:37.795687 24334 layer_factory.hpp:74] Creating layer relu5_3
I0720 23:55:37.795696 24334 net.cpp:85] Creating Layer relu5_3
I0720 23:55:37.795701 24334 net.cpp:381] relu5_3 <- conv5_3
I0720 23:55:37.795711 24334 net.cpp:328] relu5_3 -> conv5_3 (in-place)
I0720 23:55:37.795718 24334 net.cpp:114] Setting up relu5_3
I0720 23:55:37.795725 24334 net.cpp:121] Top shape: 1 512 37 37 (700928)
I0720 23:55:37.795729 24334 layer_factory.hpp:74] Creating layer pool5
I0720 23:55:37.795737 24334 net.cpp:85] Creating Layer pool5
I0720 23:55:37.795742 24334 net.cpp:381] pool5 <- conv5_3
I0720 23:55:37.795748 24334 net.cpp:339] pool5 -> pool5
I0720 23:55:37.795755 24334 net.cpp:114] Setting up pool5
I0720 23:55:37.795764 24334 net.cpp:121] Top shape: 1 512 19 19 (184832)
I0720 23:55:37.795773 24334 layer_factory.hpp:74] Creating layer fc6
I0720 23:55:37.795783 24334 net.cpp:85] Creating Layer fc6
I0720 23:55:37.795786 24334 net.cpp:381] fc6 <- pool5
I0720 23:55:37.795792 24334 net.cpp:339] fc6 -> fc6
I0720 23:55:37.795799 24334 net.cpp:114] Setting up fc6
I0720 23:55:39.437932 24334 net.cpp:121] Top shape: 1 4096 13 13 (692224)
I0720 23:55:39.437959 24334 layer_factory.hpp:74] Creating layer relu6
I0720 23:55:39.437968 24334 net.cpp:85] Creating Layer relu6
I0720 23:55:39.437973 24334 net.cpp:381] relu6 <- fc6
I0720 23:55:39.437981 24334 net.cpp:328] relu6 -> fc6 (in-place)
I0720 23:55:39.437988 24334 net.cpp:114] Setting up relu6
I0720 23:55:39.437994 24334 net.cpp:121] Top shape: 1 4096 13 13 (692224)
I0720 23:55:39.437996 24334 layer_factory.hpp:74] Creating layer drop6
I0720 23:55:39.438002 24334 net.cpp:85] Creating Layer drop6
I0720 23:55:39.438017 24334 net.cpp:381] drop6 <- fc6
I0720 23:55:39.438022 24334 net.cpp:328] drop6 -> fc6 (in-place)
I0720 23:55:39.438027 24334 net.cpp:114] Setting up drop6
I0720 23:55:39.438032 24334 net.cpp:121] Top shape: 1 4096 13 13 (692224)
I0720 23:55:39.438053 24334 layer_factory.hpp:74] Creating layer fc7
I0720 23:55:39.438060 24334 net.cpp:85] Creating Layer fc7
I0720 23:55:39.438063 24334 net.cpp:381] fc7 <- fc6
I0720 23:55:39.438068 24334 net.cpp:339] fc7 -> fc7
I0720 23:55:39.438074 24334 net.cpp:114] Setting up fc7
I0720 23:55:39.676789 24334 net.cpp:121] Top shape: 1 4096 13 13 (692224)
I0720 23:55:39.676813 24334 layer_factory.hpp:74] Creating layer relu7
I0720 23:55:39.676821 24334 net.cpp:85] Creating Layer relu7
I0720 23:55:39.676826 24334 net.cpp:381] relu7 <- fc7
I0720 23:55:39.676832 24334 net.cpp:328] relu7 -> fc7 (in-place)
I0720 23:55:39.676839 24334 net.cpp:114] Setting up relu7
I0720 23:55:39.676844 24334 net.cpp:121] Top shape: 1 4096 13 13 (692224)
I0720 23:55:39.676847 24334 layer_factory.hpp:74] Creating layer drop7
I0720 23:55:39.676854 24334 net.cpp:85] Creating Layer drop7
I0720 23:55:39.676857 24334 net.cpp:381] drop7 <- fc7
I0720 23:55:39.676872 24334 net.cpp:328] drop7 -> fc7 (in-place)
I0720 23:55:39.676877 24334 net.cpp:114] Setting up drop7
I0720 23:55:39.676883 24334 net.cpp:121] Top shape: 1 4096 13 13 (692224)
I0720 23:55:39.676887 24334 layer_factory.hpp:74] Creating layer score-fr
I0720 23:55:39.676894 24334 net.cpp:85] Creating Layer score-fr
I0720 23:55:39.676898 24334 net.cpp:381] score-fr <- fc7
I0720 23:55:39.676903 24334 net.cpp:339] score-fr -> score
I0720 23:55:39.676908 24334 net.cpp:114] Setting up score-fr
I0720 23:55:39.676926 24334 net.cpp:121] Top shape: 1 2 13 13 (338)
I0720 23:55:39.676933 24334 layer_factory.hpp:74] Creating layer score2
I0720 23:55:39.676939 24334 net.cpp:85] Creating Layer score2
I0720 23:55:39.676942 24334 net.cpp:381] score2 <- score
I0720 23:55:39.676947 24334 net.cpp:339] score2 -> score2
I0720 23:55:39.676957 24334 net.cpp:114] Setting up score2
I0720 23:55:39.676970 24334 net.cpp:121] Top shape: 1 2 28 28 (1568)
I0720 23:55:39.676985 24334 layer_factory.hpp:74] Creating layer score2_score2_0_split
I0720 23:55:39.676997 24334 net.cpp:85] Creating Layer score2_score2_0_split
I0720 23:55:39.677002 24334 net.cpp:381] score2_score2_0_split <- score2
I0720 23:55:39.677008 24334 net.cpp:339] score2_score2_0_split -> score2_score2_0_split_0
I0720 23:55:39.677013 24334 net.cpp:339] score2_score2_0_split -> score2_score2_0_split_1
I0720 23:55:39.677018 24334 net.cpp:114] Setting up score2_score2_0_split
I0720 23:55:39.677026 24334 net.cpp:121] Top shape: 1 2 28 28 (1568)
I0720 23:55:39.677029 24334 net.cpp:121] Top shape: 1 2 28 28 (1568)
I0720 23:55:39.677033 24334 layer_factory.hpp:74] Creating layer score-pool4
I0720 23:55:39.677038 24334 net.cpp:85] Creating Layer score-pool4
I0720 23:55:39.677042 24334 net.cpp:381] score-pool4 <- pool4_pool4_0_split_1
I0720 23:55:39.677047 24334 net.cpp:339] score-pool4 -> score-pool4
I0720 23:55:39.677052 24334 net.cpp:114] Setting up score-pool4
I0720 23:55:39.677065 24334 net.cpp:121] Top shape: 1 2 37 37 (2738)
I0720 23:55:39.677070 24334 layer_factory.hpp:74] Creating layer crop
I0720 23:55:39.677075 24334 net.cpp:85] Creating Layer crop
I0720 23:55:39.677079 24334 net.cpp:381] crop <- score-pool4
I0720 23:55:39.677083 24334 net.cpp:381] crop <- score2_score2_0_split_0
I0720 23:55:39.677088 24334 net.cpp:339] crop -> score-pool4c
I0720 23:55:39.677093 24334 net.cpp:114] Setting up crop
I0720 23:55:39.677130 24334 net.cpp:121] Top shape: 1 2 28 28 (1568)
I0720 23:55:39.677136 24334 layer_factory.hpp:74] Creating layer fuse
I0720 23:55:39.677142 24334 net.cpp:85] Creating Layer fuse
I0720 23:55:39.677146 24334 net.cpp:381] fuse <- score2_score2_0_split_1
I0720 23:55:39.677150 24334 net.cpp:381] fuse <- score-pool4c
I0720 23:55:39.677155 24334 net.cpp:339] fuse -> score-fused
I0720 23:55:39.677161 24334 net.cpp:114] Setting up fuse
I0720 23:55:39.677167 24334 net.cpp:121] Top shape: 1 2 28 28 (1568)
I0720 23:55:39.677171 24334 layer_factory.hpp:74] Creating layer score4
I0720 23:55:39.677176 24334 net.cpp:85] Creating Layer score4
I0720 23:55:39.677181 24334 net.cpp:381] score4 <- score-fused
I0720 23:55:39.677184 24334 net.cpp:339] score4 -> score4
I0720 23:55:39.677204 24334 net.cpp:114] Setting up score4
I0720 23:55:39.677213 24334 net.cpp:121] Top shape: 1 2 58 58 (6728)
I0720 23:55:39.677217 24334 layer_factory.hpp:74] Creating layer score4_score4_0_split
I0720 23:55:39.677222 24334 net.cpp:85] Creating Layer score4_score4_0_split
I0720 23:55:39.677225 24334 net.cpp:381] score4_score4_0_split <- score4
I0720 23:55:39.677232 24334 net.cpp:339] score4_score4_0_split -> score4_score4_0_split_0
I0720 23:55:39.677237 24334 net.cpp:339] score4_score4_0_split -> score4_score4_0_split_1
I0720 23:55:39.677242 24334 net.cpp:114] Setting up score4_score4_0_split
I0720 23:55:39.677247 24334 net.cpp:121] Top shape: 1 2 58 58 (6728)
I0720 23:55:39.677250 24334 net.cpp:121] Top shape: 1 2 58 58 (6728)
I0720 23:55:39.677253 24334 layer_factory.hpp:74] Creating layer score-pool3
I0720 23:55:39.677259 24334 net.cpp:85] Creating Layer score-pool3
I0720 23:55:39.677263 24334 net.cpp:381] score-pool3 <- pool3_pool3_0_split_1
I0720 23:55:39.677268 24334 net.cpp:339] score-pool3 -> score-pool3
I0720 23:55:39.677273 24334 net.cpp:114] Setting up score-pool3
I0720 23:55:39.677285 24334 net.cpp:121] Top shape: 1 2 74 74 (10952)
I0720 23:55:39.677291 24334 layer_factory.hpp:74] Creating layer crop
I0720 23:55:39.677295 24334 net.cpp:85] Creating Layer crop
I0720 23:55:39.677299 24334 net.cpp:381] crop <- score-pool3
I0720 23:55:39.677304 24334 net.cpp:381] crop <- score4_score4_0_split_0
I0720 23:55:39.677309 24334 net.cpp:339] crop -> score-pool3c
I0720 23:55:39.677314 24334 net.cpp:114] Setting up crop
I0720 23:55:39.677346 24334 net.cpp:121] Top shape: 1 2 58 58 (6728)
I0720 23:55:39.677350 24334 layer_factory.hpp:74] Creating layer fuse
I0720 23:55:39.677356 24334 net.cpp:85] Creating Layer fuse
I0720 23:55:39.677358 24334 net.cpp:381] fuse <- score4_score4_0_split_1
I0720 23:55:39.677362 24334 net.cpp:381] fuse <- score-pool3c
I0720 23:55:39.677367 24334 net.cpp:339] fuse -> score-final
I0720 23:55:39.677372 24334 net.cpp:114] Setting up fuse
I0720 23:55:39.677377 24334 net.cpp:121] Top shape: 1 2 58 58 (6728)
I0720 23:55:39.677381 24334 layer_factory.hpp:74] Creating layer upsample
I0720 23:55:39.677386 24334 net.cpp:85] Creating Layer upsample
I0720 23:55:39.677388 24334 net.cpp:381] upsample <- score-final
I0720 23:55:39.677395 24334 net.cpp:339] upsample -> bigscore
I0720 23:55:39.677400 24334 net.cpp:114] Setting up upsample
I0720 23:55:39.677412 24334 net.cpp:121] Top shape: 1 2 472 472 (445568)
I0720 23:55:39.677417 24334 layer_factory.hpp:74] Creating layer crop
I0720 23:55:39.677423 24334 net.cpp:85] Creating Layer crop
I0720 23:55:39.677425 24334 net.cpp:381] crop <- bigscore
I0720 23:55:39.677429 24334 net.cpp:381] crop <- data_data_0_split_1
I0720 23:55:39.677434 24334 net.cpp:339] crop -> upscore
I0720 23:55:39.677439 24334 net.cpp:114] Setting up crop
I0720 23:55:39.677484 24334 net.cpp:121] Top shape: 1 2 388 388 (301088)
I0720 23:55:39.677487 24334 layer_factory.hpp:74] Creating layer upscore_crop_0_split
I0720 23:55:39.677491 24334 net.cpp:85] Creating Layer upscore_crop_0_split
I0720 23:55:39.677496 24334 net.cpp:381] upscore_crop_0_split <- upscore
I0720 23:55:39.677501 24334 net.cpp:339] upscore_crop_0_split -> upscore_crop_0_split_0
I0720 23:55:39.677506 24334 net.cpp:339] upscore_crop_0_split -> upscore_crop_0_split_1
I0720 23:55:39.677511 24334 net.cpp:114] Setting up upscore_crop_0_split
I0720 23:55:39.677516 24334 net.cpp:121] Top shape: 1 2 388 388 (301088)
I0720 23:55:39.677520 24334 net.cpp:121] Top shape: 1 2 388 388 (301088)
I0720 23:55:39.677523 24334 layer_factory.hpp:74] Creating layer loss
I0720 23:55:39.677530 24334 net.cpp:85] Creating Layer loss
I0720 23:55:39.677533 24334 net.cpp:381] loss <- upscore_crop_0_split_0
I0720 23:55:39.677537 24334 net.cpp:381] loss <- label_data_1_split_0
I0720 23:55:39.677542 24334 net.cpp:339] loss -> loss
I0720 23:55:39.677547 24334 net.cpp:114] Setting up loss
I0720 23:55:39.677552 24334 layer_factory.hpp:74] Creating layer loss
I0720 23:55:39.678004 24334 net.cpp:121] Top shape: (1)
I0720 23:55:39.678019 24334 net.cpp:123]     with loss weight 1
I0720 23:55:39.678038 24334 layer_factory.hpp:74] Creating layer accuracy
I0720 23:55:39.678048 24334 net.cpp:85] Creating Layer accuracy
I0720 23:55:39.678052 24334 net.cpp:381] accuracy <- upscore_crop_0_split_1
I0720 23:55:39.678057 24334 net.cpp:381] accuracy <- label_data_1_split_1
I0720 23:55:39.678062 24334 net.cpp:339] accuracy -> accuracy
I0720 23:55:39.678068 24334 net.cpp:114] Setting up accuracy
I0720 23:55:39.678078 24334 net.cpp:121] Top shape: 1 1 1 3 (3)
I0720 23:55:39.678082 24334 net.cpp:170] accuracy does not need backward computation.
I0720 23:55:39.678086 24334 net.cpp:168] loss needs backward computation.
I0720 23:55:39.678089 24334 net.cpp:168] upscore_crop_0_split needs backward computation.
I0720 23:55:39.678093 24334 net.cpp:168] crop needs backward computation.
I0720 23:55:39.678097 24334 net.cpp:168] upsample needs backward computation.
…
