…
I0721 00:03:05.166946 25895 net.cpp:42] Initializing net from parameters: 
name: "FCN"
state {
  phase: TRAIN
}
layer {
  name: "data"
  type: "ImageSegData"
  top: "data"
  top: "label"
  include {
    phase: TRAIN
  }
  transform_param {
    mirror: true
    crop_size: 388
    mean_value: 104.008
    mean_value: 116.669
    mean_value: 122.675
  }
  image_data_param {
    source: "/media/BigDisk/xiaoyong/datafrommac/ourfacedata_train_2/traindatalist_2.txt"
    batch_size: 1
    shuffle: true
    root_folder: ""
    ignore_label: 255
    label_type: PIXEL
  }
}
layer {
  name: "conv1_1"
  type: "Convolution"
  bottom: "data"
  top: "conv1_1"
  param {
    lr_mult: 1
    decay_mult: 1
  }
  param {
    lr_mult: 2
    decay_mult: 0
  }
  convolution_param {
    num_output: 64
    pad: 100
    kernel_size: 3
    engine: CAFFE
  }
}
layer {
  name: "relu1_1"
  type: "ReLU"
  bottom: "conv1_1"
  top: "conv1_1"
}
layer {
  name: "conv1_2"
  type: "Convolution"
  bottom: "conv1_1"
  top: "conv1_2"
  param {
    lr_mult: 1
    decay_mult: 1
  }
  param {
    lr_mult: 2
    decay_mult: 0
  }
  convolution_param {
    num_output: 64
    pad: 1
    kernel_size: 3
    engine: CAFFE
  }
}
layer {
  name: "relu1_2"
  type: "ReLU"
  bottom: "conv1_2"
  top: "conv1_2"
}
layer {
  name: "pool1"
  type: "Pooling"
  bottom: "conv1_2"
  top: "pool1"
  pooling_param {
    pool: MAX
    kernel_size: 2
    stride: 2
  }
}
layer {
  name: "conv2_1"
  type: "Convolution"
  bottom: "pool1"
  top: "conv2_1"
  param {
    lr_mult: 1
    decay_mult: 1
  }
  param {
    lr_mult: 2
    decay_mult: 0
  }
  convolution_param {
    num_output: 128
    pad: 1
    kernel_size: 3
    engine: CAFFE
  }
}
layer {
  name: "relu2_1"
  type: "ReLU"
  bottom: "conv2_1"
  top: "conv2_1"
}
layer {
  name: "conv2_2"
  type: "Convolution"
  bottom: "conv2_1"
  top: "conv2_2"
  param {
    lr_mult: 1
    decay_mult: 1
  }
  param {
    lr_mult: 2
    decay_mult: 0
  }
  convolution_param {
    num_output: 128
    pad: 1
    kernel_size: 3
    engine: CAFFE
  }
}
layer {
  name: "relu2_2"
  type: "ReLU"
  bottom: "conv2_2"
  top: "conv2_2"
}
layer {
  name: "pool2"
  type: "Pooling"
  bottom: "conv2_2"
  top: "pool2"
  pooling_param {
    pool: MAX
    kernel_size: 2
    stride: 2
  }
}
layer {
  name: "conv3_1"
  type: "Convolution"
  bottom: "pool2"
  top: "conv3_1"
  param {
    lr_mult: 1
    decay_mult: 1
  }
  param {
    lr_mult: 2
    decay_mult: 0
  }
  convolution_param {
    num_output: 256
    pad: 1
    kernel_size: 3
    engine: CAFFE
  }
}
layer {
  name: "relu3_1"
  type: "ReLU"
  bottom: "conv3_1"
  top: "conv3_1"
}
layer {
  name: "conv3_2"
  type: "Convolution"
  bottom: "conv3_1"
  top: "conv3_2"
  param {
    lr_mult: 1
    decay_mult: 1
  }
  param {
    lr_mult: 2
    decay_mult: 0
  }
  convolution_param {
    num_output: 256
    pad: 1
    kernel_size: 3
    engine: CAFFE
  }
}
layer {
  name: "relu3_2"
  type: "ReLU"
  bottom: "conv3_2"
  top: "conv3_2"
}
layer {
  name: "conv3_3"
  type: "Convolution"
  bottom: "conv3_2"
  top: "conv3_3"
  param {
    lr_mult: 1
    decay_mult: 1
  }
  param {
    lr_mult: 2
    decay_mult: 0
  }
  convolution_param {
    num_output: 256
    pad: 1
    kernel_size: 3
    engine: CAFFE
  }
}
layer {
  name: "relu3_3"
  type: "ReLU"
  bottom: "conv3_3"
  top: "conv3_3"
}
layer {
  name: "pool3"
  type: "Pooling"
  bottom: "conv3_3"
  top: "pool3"
  pooling_param {
    pool: MAX
    kernel_size: 2
    stride: 2
  }
}
layer {
  name: "conv4_1"
  type: "Convolution"
  bottom: "pool3"
  top: "conv4_1"
  param {
    lr_mult: 1
    decay_mult: 1
  }
  param {
    lr_mult: 2
    decay_mult: 0
  }
  convolution_param {
    num_output: 512
    pad: 1
    kernel_size: 3
    engine: CAFFE
  }
}
layer {
  name: "relu4_1"
  type: "ReLU"
  bottom: "conv4_1"
  top: "conv4_1"
}
layer {
  name: "conv4_2"
  type: "Convolution"
  bottom: "conv4_1"
  top: "conv4_2"
  param {
    lr_mult: 1
    decay_mult: 1
  }
  param {
    lr_mult: 2
    decay_mult: 0
  }
  convolution_param {
    num_output: 512
    pad: 1
    kernel_size: 3
    engine: CAFFE
  }
}
layer {
  name: "relu4_2"
  type: "ReLU"
  bottom: "conv4_2"
  top: "conv4_2"
}
layer {
  name: "conv4_3"
  type: "Convolution"
  bottom: "conv4_2"
  top: "conv4_3"
  param {
    lr_mult: 1
    decay_mult: 1
  }
  param {
    lr_mult: 2
    decay_mult: 0
  }
  convolution_param {
    num_output: 512
    pad: 1
    kernel_size: 3
    engine: CAFFE
  }
}
layer {
  name: "relu4_3"
  type: "ReLU"
  bottom: "conv4_3"
  top: "conv4_3"
}
layer {
  name: "pool4"
  type: "Pooling"
  bottom: "conv4_3"
  top: "pool4"
  pooling_param {
    pool: MAX
    kernel_size: 2
    stride: 2
  }
}
layer {
  name: "conv5_1"
  type: "Convolution"
  bottom: "pool4"
  top: "conv5_1"
  param {
    lr_mult: 1
    decay_mult: 1
  }
  param {
    lr_mult: 2
    decay_mult: 0
  }
  convolution_param {
    num_output: 512
    pad: 1
    kernel_size: 3
    engine: CAFFE
  }
}
layer {
  name: "relu5_1"
  type: "ReLU"
  bottom: "conv5_1"
  top: "conv5_1"
}
layer {
  name: "conv5_2"
  type: "Convolution"
  bottom: "conv5_1"
  top: "conv5_2"
  param {
    lr_mult: 1
    decay_mult: 1
  }
  param {
    lr_mult: 2
    decay_mult: 0
  }
  convolution_param {
    num_output: 512
    pad: 1
    kernel_size: 3
    engine: CAFFE
  }
}
layer {
  name: "relu5_2"
  type: "ReLU"
  bottom: "conv5_2"
  top: "conv5_2"
}
layer {
  name: "conv5_3"
  type: "Convolution"
  bottom: "conv5_2"
  top: "conv5_3"
  param {
    lr_mult: 1
    decay_mult: 1
  }
  param {
    lr_mult: 2
    decay_mult: 0
  }
  convolution_param {
    num_output: 512
    pad: 1
    kernel_size: 3
    engine: CAFFE
  }
}
layer {
  name: "relu5_3"
  type: "ReLU"
  bottom: "conv5_3"
  top: "conv5_3"
}
layer {
  name: "pool5"
  type: "Pooling"
  bottom: "conv5_3"
  top: "pool5"
  pooling_param {
    pool: MAX
    kernel_size: 2
    stride: 2
  }
}
layer {
  name: "fc6"
  type: "Convolution"
  bottom: "pool5"
  top: "fc6"
  param {
    lr_mult: 1
    decay_mult: 1
  }
  param {
    lr_mult: 2
    decay_mult: 0
  }
  convolution_param {
    num_output: 4096
    kernel_size: 7
    engine: CAFFE
  }
}
layer {
  name: "relu6"
  type: "ReLU"
  bottom: "fc6"
  top: "fc6"
}
layer {
  name: "drop6"
  type: "Dropout"
  bottom: "fc6"
  top: "fc6"
  dropout_param {
    dropout_ratio: 0.5
  }
}
layer {
  name: "fc7"
  type: "Convolution"
  bottom: "fc6"
  top: "fc7"
  param {
    lr_mult: 1
    decay_mult: 1
  }
  param {
    lr_mult: 2
    decay_mult: 0
  }
  convolution_param {
    num_output: 4096
    kernel_size: 1
    engine: CAFFE
  }
}
layer {
  name: "relu7"
  type: "ReLU"
  bottom: "fc7"
  top: "fc7"
}
layer {
  name: "drop7"
  type: "Dropout"
  bottom: "fc7"
  top: "fc7"
  dropout_param {
    dropout_ratio: 0.5
  }
}
layer {
  name: "score-fr"
  type: "Convolution"
  bottom: "fc7"
  top: "score"
  param {
    lr_mult: 1
    decay_mult: 1
  }
  param {
    lr_mult: 2
    decay_mult: 0
  }
  convolution_param {
    num_output: 2
    kernel_size: 1
    engine: CAFFE
  }
}
layer {
  name: "score2"
  type: "Deconvolution"
  bottom: "score"
  top: "score2"
  param {
    lr_mult: 1
    decay_mult: 1
  }
  param {
    lr_mult: 2
    decay_mult: 0
  }
  convolution_param {
    num_output: 2
    kernel_size: 4
    stride: 2
  }
}
layer {
  name: "score-pool4"
  type: "Convolution"
  bottom: "pool4"
  top: "score-pool4"
  param {
    lr_mult: 1
    decay_mult: 1
  }
  param {
    lr_mult: 2
    decay_mult: 0
  }
  convolution_param {
    num_output: 2
    kernel_size: 1
    engine: CAFFE
  }
}
layer {
  name: "crop"
  type: "Crop"
  bottom: "score-pool4"
  bottom: "score2"
  top: "score-pool4c"
}
layer {
  name: "fuse"
  type: "Eltwise"
  bottom: "score2"
  bottom: "score-pool4c"
  top: "score-fused"
  eltwise_param {
    operation: SUM
  }
}
layer {
  name: "score4"
  type: "Deconvolution"
  bottom: "score-fused"
  top: "score4"
  param {
    lr_mult: 1
    decay_mult: 1
  }
  convolution_param {
    num_output: 2
    bias_term: false
    kernel_size: 4
    stride: 2
  }
}
layer {
  name: "score-pool3"
  type: "Convolution"
  bottom: "pool3"
  top: "score-pool3"
  param {
    lr_mult: 1
    decay_mult: 1
  }
  param {
    lr_mult: 2
    decay_mult: 0
  }
  convolution_param {
    num_output: 2
    kernel_size: 1
    engine: CAFFE
  }
}
layer {
  name: "crop"
  type: "Crop"
  bottom: "score-pool3"
  bottom: "score4"
  top: "score-pool3c"
}
layer {
  name: "fuse"
  type: "Eltwise"
  bottom: "score4"
  bottom: "score-pool3c"
  top: "score-final"
  eltwise_param {
    operation: SUM
  }
}
layer {
  name: "upsample"
  type: "Deconvolution"
  bottom: "score-final"
  top: "bigscore"
  param {
    lr_mult: 1
  }
  convolution_param {
    num_output: 2
    bias_term: false
    kernel_size: 16
    stride: 8
  }
}
layer {
  name: "crop"
  type: "Crop"
  bottom: "bigscore"
  bottom: "data"
  top: "upscore"
}
layer {
  name: "loss"
  type: "SoftmaxWithLoss"
  bottom: "upscore"
  bottom: "label"
  top: "loss"
  loss_param {
    ignore_label: 255
  }
}
I0721 00:03:05.167237 25895 layer_factory.hpp:74] Creating layer data
I0721 00:03:05.167263 25895 net.cpp:85] Creating Layer data
I0721 00:03:05.167276 25895 net.cpp:339] data -> data
I0721 00:03:05.167295 25895 net.cpp:339] data -> label
I0721 00:03:05.167312 25895 net.cpp:339] data -> (automatic)
I0721 00:03:05.167323 25895 net.cpp:114] Setting up data
I0721 00:03:05.167734 25895 image_seg_data_layer.cpp:46] Opening file /media/BigDisk/xiaoyong/datafrommac/ourfacedata_train_2/traindatalist_2.txt
I0721 00:03:05.169008 25895 image_seg_data_layer.cpp:63] Shuffling data
I0721 00:03:05.169131 25895 image_seg_data_layer.cpp:68] A total of 900 images.
I0721 00:03:05.183184 25895 image_seg_data_layer.cpp:114] output data size: 1,3,388,388
I0721 00:03:05.183200 25895 image_seg_data_layer.cpp:118] output label size: 1,1,388,388
I0721 00:03:05.183212 25895 image_seg_data_layer.cpp:122] output data_dim size: 1,1,1,2
I0721 00:03:05.189141 25895 net.cpp:121] Top shape: 1 3 388 388 (451632)
I0721 00:03:05.189157 25895 net.cpp:121] Top shape: 1 1 388 388 (150544)
I0721 00:03:05.189165 25895 net.cpp:121] Top shape: 1 1 1 2 (2)
I0721 00:03:05.189177 25895 layer_factory.hpp:74] Creating layer data_data_0_split
I0721 00:03:05.189189 25895 net.cpp:85] Creating Layer data_data_0_split
I0721 00:03:05.189198 25895 net.cpp:381] data_data_0_split <- data
I0721 00:03:05.189219 25895 net.cpp:339] data_data_0_split -> data_data_0_split_0
I0721 00:03:05.189234 25895 net.cpp:339] data_data_0_split -> data_data_0_split_1
I0721 00:03:05.189246 25895 net.cpp:114] Setting up data_data_0_split
I0721 00:03:05.189265 25895 net.cpp:121] Top shape: 1 3 388 388 (451632)
I0721 00:03:05.189282 25895 net.cpp:121] Top shape: 1 3 388 388 (451632)
I0721 00:03:05.189291 25895 layer_factory.hpp:74] Creating layer conv1_1
I0721 00:03:05.189306 25895 net.cpp:85] Creating Layer conv1_1
I0721 00:03:05.189316 25895 net.cpp:381] conv1_1 <- data_data_0_split_0
I0721 00:03:05.189326 25895 net.cpp:339] conv1_1 -> conv1_1
I0721 00:03:05.189355 25895 net.cpp:114] Setting up conv1_1
I0721 00:03:05.190183 25895 net.cpp:121] Top shape: 1 64 586 586 (21977344)
I0721 00:03:05.190206 25895 layer_factory.hpp:74] Creating layer relu1_1
I0721 00:03:05.190217 25895 net.cpp:85] Creating Layer relu1_1
I0721 00:03:05.190223 25895 net.cpp:381] relu1_1 <- conv1_1
I0721 00:03:05.190233 25895 net.cpp:328] relu1_1 -> conv1_1 (in-place)
I0721 00:03:05.190244 25895 net.cpp:114] Setting up relu1_1
I0721 00:03:05.190253 25895 net.cpp:121] Top shape: 1 64 586 586 (21977344)
I0721 00:03:05.190263 25895 layer_factory.hpp:74] Creating layer conv1_2
I0721 00:03:05.190276 25895 net.cpp:85] Creating Layer conv1_2
I0721 00:03:05.190289 25895 net.cpp:381] conv1_2 <- conv1_1
I0721 00:03:05.190301 25895 net.cpp:339] conv1_2 -> conv1_2
I0721 00:03:05.190316 25895 net.cpp:114] Setting up conv1_2
I0721 00:03:05.191236 25895 net.cpp:121] Top shape: 1 64 586 586 (21977344)
I0721 00:03:05.191256 25895 layer_factory.hpp:74] Creating layer relu1_2
I0721 00:03:05.191267 25895 net.cpp:85] Creating Layer relu1_2
I0721 00:03:05.191277 25895 net.cpp:381] relu1_2 <- conv1_2
I0721 00:03:05.191294 25895 net.cpp:328] relu1_2 -> conv1_2 (in-place)
I0721 00:03:05.191306 25895 net.cpp:114] Setting up relu1_2
I0721 00:03:05.191315 25895 net.cpp:121] Top shape: 1 64 586 586 (21977344)
I0721 00:03:05.191323 25895 layer_factory.hpp:74] Creating layer pool1
I0721 00:03:05.191331 25895 net.cpp:85] Creating Layer pool1
I0721 00:03:05.191344 25895 net.cpp:381] pool1 <- conv1_2
I0721 00:03:05.191356 25895 net.cpp:339] pool1 -> pool1
I0721 00:03:05.191371 25895 net.cpp:114] Setting up pool1
I0721 00:03:05.191400 25895 net.cpp:121] Top shape: 1 64 293 293 (5494336)
I0721 00:03:05.191411 25895 layer_factory.hpp:74] Creating layer conv2_1
I0721 00:03:05.191421 25895 net.cpp:85] Creating Layer conv2_1
I0721 00:03:05.191433 25895 net.cpp:381] conv2_1 <- pool1
I0721 00:03:05.191443 25895 net.cpp:339] conv2_1 -> conv2_1
I0721 00:03:05.191457 25895 net.cpp:114] Setting up conv2_1
I0721 00:03:05.191814 25895 net.cpp:121] Top shape: 1 128 293 293 (10988672)
I0721 00:03:05.191838 25895 layer_factory.hpp:74] Creating layer relu2_1
I0721 00:03:05.191854 25895 net.cpp:85] Creating Layer relu2_1
I0721 00:03:05.191861 25895 net.cpp:381] relu2_1 <- conv2_1
I0721 00:03:05.191877 25895 net.cpp:328] relu2_1 -> conv2_1 (in-place)
I0721 00:03:05.191889 25895 net.cpp:114] Setting up relu2_1
I0721 00:03:05.191897 25895 net.cpp:121] Top shape: 1 128 293 293 (10988672)
I0721 00:03:05.191908 25895 layer_factory.hpp:74] Creating layer conv2_2
I0721 00:03:05.191916 25895 net.cpp:85] Creating Layer conv2_2
I0721 00:03:05.191927 25895 net.cpp:381] conv2_2 <- conv2_1
I0721 00:03:05.191938 25895 net.cpp:339] conv2_2 -> conv2_2
I0721 00:03:05.191952 25895 net.cpp:114] Setting up conv2_2
I0721 00:03:05.192458 25895 net.cpp:121] Top shape: 1 128 293 293 (10988672)
I0721 00:03:05.192474 25895 layer_factory.hpp:74] Creating layer relu2_2
I0721 00:03:05.192487 25895 net.cpp:85] Creating Layer relu2_2
I0721 00:03:05.192499 25895 net.cpp:381] relu2_2 <- conv2_2
I0721 00:03:05.192513 25895 net.cpp:328] relu2_2 -> conv2_2 (in-place)
I0721 00:03:05.192528 25895 net.cpp:114] Setting up relu2_2
I0721 00:03:05.192538 25895 net.cpp:121] Top shape: 1 128 293 293 (10988672)
I0721 00:03:05.192550 25895 layer_factory.hpp:74] Creating layer pool2
I0721 00:03:05.192561 25895 net.cpp:85] Creating Layer pool2
I0721 00:03:05.192572 25895 net.cpp:381] pool2 <- conv2_2
I0721 00:03:05.192580 25895 net.cpp:339] pool2 -> pool2
I0721 00:03:05.192589 25895 net.cpp:114] Setting up pool2
I0721 00:03:05.192600 25895 net.cpp:121] Top shape: 1 128 147 147 (2765952)
I0721 00:03:05.192606 25895 layer_factory.hpp:74] Creating layer conv3_1
I0721 00:03:05.192617 25895 net.cpp:85] Creating Layer conv3_1
I0721 00:03:05.192626 25895 net.cpp:381] conv3_1 <- pool2
I0721 00:03:05.192634 25895 net.cpp:339] conv3_1 -> conv3_1
I0721 00:03:05.192646 25895 net.cpp:114] Setting up conv3_1
I0721 00:03:05.193248 25895 net.cpp:121] Top shape: 1 256 147 147 (5531904)
I0721 00:03:05.193264 25895 layer_factory.hpp:74] Creating layer relu3_1
I0721 00:03:05.193289 25895 net.cpp:85] Creating Layer relu3_1
I0721 00:03:05.193296 25895 net.cpp:381] relu3_1 <- conv3_1
I0721 00:03:05.193308 25895 net.cpp:328] relu3_1 -> conv3_1 (in-place)
I0721 00:03:05.193315 25895 net.cpp:114] Setting up relu3_1
I0721 00:03:05.193327 25895 net.cpp:121] Top shape: 1 256 147 147 (5531904)
I0721 00:03:05.193336 25895 layer_factory.hpp:74] Creating layer conv3_2
I0721 00:03:05.193346 25895 net.cpp:85] Creating Layer conv3_2
I0721 00:03:05.193354 25895 net.cpp:381] conv3_2 <- conv3_1
I0721 00:03:05.193362 25895 net.cpp:339] conv3_2 -> conv3_2
I0721 00:03:05.193372 25895 net.cpp:114] Setting up conv3_2
I0721 00:03:05.195438 25895 net.cpp:121] Top shape: 1 256 147 147 (5531904)
I0721 00:03:05.195490 25895 layer_factory.hpp:74] Creating layer relu3_2
I0721 00:03:05.195523 25895 net.cpp:85] Creating Layer relu3_2
I0721 00:03:05.195544 25895 net.cpp:381] relu3_2 <- conv3_2
I0721 00:03:05.195574 25895 net.cpp:328] relu3_2 -> conv3_2 (in-place)
I0721 00:03:05.195590 25895 net.cpp:114] Setting up relu3_2
I0721 00:03:05.195601 25895 net.cpp:121] Top shape: 1 256 147 147 (5531904)
I0721 00:03:05.195611 25895 layer_factory.hpp:74] Creating layer conv3_3
I0721 00:03:05.195636 25895 net.cpp:85] Creating Layer conv3_3
I0721 00:03:05.195647 25895 net.cpp:381] conv3_3 <- conv3_2
I0721 00:03:05.195662 25895 net.cpp:339] conv3_3 -> conv3_3
I0721 00:03:05.195677 25895 net.cpp:114] Setting up conv3_3
I0721 00:03:05.196871 25895 net.cpp:121] Top shape: 1 256 147 147 (5531904)
I0721 00:03:05.196905 25895 layer_factory.hpp:74] Creating layer relu3_3
I0721 00:03:05.196920 25895 net.cpp:85] Creating Layer relu3_3
I0721 00:03:05.196933 25895 net.cpp:381] relu3_3 <- conv3_3
I0721 00:03:05.196944 25895 net.cpp:328] relu3_3 -> conv3_3 (in-place)
I0721 00:03:05.196959 25895 net.cpp:114] Setting up relu3_3
I0721 00:03:05.196969 25895 net.cpp:121] Top shape: 1 256 147 147 (5531904)
I0721 00:03:05.196979 25895 layer_factory.hpp:74] Creating layer pool3
I0721 00:03:05.196990 25895 net.cpp:85] Creating Layer pool3
I0721 00:03:05.197003 25895 net.cpp:381] pool3 <- conv3_3
I0721 00:03:05.197015 25895 net.cpp:339] pool3 -> pool3
I0721 00:03:05.197026 25895 net.cpp:114] Setting up pool3
I0721 00:03:05.197041 25895 net.cpp:121] Top shape: 1 256 74 74 (1401856)
I0721 00:03:05.197051 25895 layer_factory.hpp:74] Creating layer pool3_pool3_0_split
I0721 00:03:05.197062 25895 net.cpp:85] Creating Layer pool3_pool3_0_split
I0721 00:03:05.197073 25895 net.cpp:381] pool3_pool3_0_split <- pool3
I0721 00:03:05.197083 25895 net.cpp:339] pool3_pool3_0_split -> pool3_pool3_0_split_0
I0721 00:03:05.197098 25895 net.cpp:339] pool3_pool3_0_split -> pool3_pool3_0_split_1
I0721 00:03:05.197108 25895 net.cpp:114] Setting up pool3_pool3_0_split
I0721 00:03:05.197125 25895 net.cpp:121] Top shape: 1 256 74 74 (1401856)
I0721 00:03:05.197139 25895 net.cpp:121] Top shape: 1 256 74 74 (1401856)
I0721 00:03:05.197147 25895 layer_factory.hpp:74] Creating layer conv4_1
I0721 00:03:05.197163 25895 net.cpp:85] Creating Layer conv4_1
I0721 00:03:05.197175 25895 net.cpp:381] conv4_1 <- pool3_pool3_0_split_0
I0721 00:03:05.197188 25895 net.cpp:339] conv4_1 -> conv4_1
I0721 00:03:05.197202 25895 net.cpp:114] Setting up conv4_1
I0721 00:03:05.212991 25895 net.cpp:121] Top shape: 1 512 74 74 (2803712)
I0721 00:03:05.213027 25895 layer_factory.hpp:74] Creating layer relu4_1
I0721 00:03:05.213043 25895 net.cpp:85] Creating Layer relu4_1
I0721 00:03:05.213053 25895 net.cpp:381] relu4_1 <- conv4_1
I0721 00:03:05.213070 25895 net.cpp:328] relu4_1 -> conv4_1 (in-place)
I0721 00:03:05.213083 25895 net.cpp:114] Setting up relu4_1
I0721 00:03:05.213093 25895 net.cpp:121] Top shape: 1 512 74 74 (2803712)
I0721 00:03:05.213104 25895 layer_factory.hpp:74] Creating layer conv4_2
I0721 00:03:05.213119 25895 net.cpp:85] Creating Layer conv4_2
I0721 00:03:05.213130 25895 net.cpp:381] conv4_2 <- conv4_1
I0721 00:03:05.213143 25895 net.cpp:339] conv4_2 -> conv4_2
I0721 00:03:05.213160 25895 net.cpp:114] Setting up conv4_2
I0721 00:03:05.235174 25895 net.cpp:121] Top shape: 1 512 74 74 (2803712)
I0721 00:03:05.235213 25895 layer_factory.hpp:74] Creating layer relu4_2
I0721 00:03:05.235229 25895 net.cpp:85] Creating Layer relu4_2
I0721 00:03:05.235239 25895 net.cpp:381] relu4_2 <- conv4_2
I0721 00:03:05.235254 25895 net.cpp:328] relu4_2 -> conv4_2 (in-place)
I0721 00:03:05.235265 25895 net.cpp:114] Setting up relu4_2
I0721 00:03:05.235281 25895 net.cpp:121] Top shape: 1 512 74 74 (2803712)
I0721 00:03:05.235296 25895 layer_factory.hpp:74] Creating layer conv4_3
I0721 00:03:05.235312 25895 net.cpp:85] Creating Layer conv4_3
I0721 00:03:05.235323 25895 net.cpp:381] conv4_3 <- conv4_2
I0721 00:03:05.235334 25895 net.cpp:339] conv4_3 -> conv4_3
I0721 00:03:05.235348 25895 net.cpp:114] Setting up conv4_3
I0721 00:03:05.267026 25895 net.cpp:121] Top shape: 1 512 74 74 (2803712)
I0721 00:03:05.267063 25895 layer_factory.hpp:74] Creating layer relu4_3
I0721 00:03:05.267079 25895 net.cpp:85] Creating Layer relu4_3
I0721 00:03:05.267091 25895 net.cpp:381] relu4_3 <- conv4_3
I0721 00:03:05.267104 25895 net.cpp:328] relu4_3 -> conv4_3 (in-place)
I0721 00:03:05.267117 25895 net.cpp:114] Setting up relu4_3
I0721 00:03:05.267133 25895 net.cpp:121] Top shape: 1 512 74 74 (2803712)
I0721 00:03:05.267144 25895 layer_factory.hpp:74] Creating layer pool4
I0721 00:03:05.267163 25895 net.cpp:85] Creating Layer pool4
I0721 00:03:05.267177 25895 net.cpp:381] pool4 <- conv4_3
I0721 00:03:05.267191 25895 net.cpp:339] pool4 -> pool4
I0721 00:03:05.267206 25895 net.cpp:114] Setting up pool4
I0721 00:03:05.267223 25895 net.cpp:121] Top shape: 1 512 37 37 (700928)
I0721 00:03:05.267237 25895 layer_factory.hpp:74] Creating layer pool4_pool4_0_split
I0721 00:03:05.267248 25895 net.cpp:85] Creating Layer pool4_pool4_0_split
I0721 00:03:05.267262 25895 net.cpp:381] pool4_pool4_0_split <- pool4
I0721 00:03:05.267272 25895 net.cpp:339] pool4_pool4_0_split -> pool4_pool4_0_split_0
I0721 00:03:05.267287 25895 net.cpp:339] pool4_pool4_0_split -> pool4_pool4_0_split_1
I0721 00:03:05.267297 25895 net.cpp:114] Setting up pool4_pool4_0_split
I0721 00:03:05.267309 25895 net.cpp:121] Top shape: 1 512 37 37 (700928)
I0721 00:03:05.267323 25895 net.cpp:121] Top shape: 1 512 37 37 (700928)
I0721 00:03:05.267331 25895 layer_factory.hpp:74] Creating layer conv5_1
I0721 00:03:05.267350 25895 net.cpp:85] Creating Layer conv5_1
I0721 00:03:05.267362 25895 net.cpp:381] conv5_1 <- pool4_pool4_0_split_0
I0721 00:03:05.267376 25895 net.cpp:339] conv5_1 -> conv5_1
I0721 00:03:05.267390 25895 net.cpp:114] Setting up conv5_1
I0721 00:03:05.290359 25895 net.cpp:121] Top shape: 1 512 37 37 (700928)
I0721 00:03:05.290401 25895 layer_factory.hpp:74] Creating layer relu5_1
I0721 00:03:05.290418 25895 net.cpp:85] Creating Layer relu5_1
I0721 00:03:05.290433 25895 net.cpp:381] relu5_1 <- conv5_1
I0721 00:03:05.290451 25895 net.cpp:328] relu5_1 -> conv5_1 (in-place)
I0721 00:03:05.290462 25895 net.cpp:114] Setting up relu5_1
I0721 00:03:05.290482 25895 net.cpp:121] Top shape: 1 512 37 37 (700928)
I0721 00:03:05.290498 25895 layer_factory.hpp:74] Creating layer conv5_2
I0721 00:03:05.290510 25895 net.cpp:85] Creating Layer conv5_2
I0721 00:03:05.290524 25895 net.cpp:381] conv5_2 <- conv5_1
I0721 00:03:05.290539 25895 net.cpp:339] conv5_2 -> conv5_2
I0721 00:03:05.290556 25895 net.cpp:114] Setting up conv5_2
I0721 00:03:05.321964 25895 net.cpp:121] Top shape: 1 512 37 37 (700928)
I0721 00:03:05.322001 25895 layer_factory.hpp:74] Creating layer relu5_2
I0721 00:03:05.322016 25895 net.cpp:85] Creating Layer relu5_2
I0721 00:03:05.322028 25895 net.cpp:381] relu5_2 <- conv5_2
I0721 00:03:05.322041 25895 net.cpp:328] relu5_2 -> conv5_2 (in-place)
I0721 00:03:05.322054 25895 net.cpp:114] Setting up relu5_2
I0721 00:03:05.322067 25895 net.cpp:121] Top shape: 1 512 37 37 (700928)
I0721 00:03:05.322077 25895 layer_factory.hpp:74] Creating layer conv5_3
I0721 00:03:05.322093 25895 net.cpp:85] Creating Layer conv5_3
I0721 00:03:05.322105 25895 net.cpp:381] conv5_3 <- conv5_2
I0721 00:03:05.322120 25895 net.cpp:339] conv5_3 -> conv5_3
I0721 00:03:05.322155 25895 net.cpp:114] Setting up conv5_3
I0721 00:03:05.355319 25895 net.cpp:121] Top shape: 1 512 37 37 (700928)
I0721 00:03:05.355352 25895 layer_factory.hpp:74] Creating layer relu5_3
I0721 00:03:05.355368 25895 net.cpp:85] Creating Layer relu5_3
I0721 00:03:05.355379 25895 net.cpp:381] relu5_3 <- conv5_3
I0721 00:03:05.355394 25895 net.cpp:328] relu5_3 -> conv5_3 (in-place)
I0721 00:03:05.355407 25895 net.cpp:114] Setting up relu5_3
I0721 00:03:05.355417 25895 net.cpp:121] Top shape: 1 512 37 37 (700928)
I0721 00:03:05.355429 25895 layer_factory.hpp:74] Creating layer pool5
I0721 00:03:05.355444 25895 net.cpp:85] Creating Layer pool5
I0721 00:03:05.355458 25895 net.cpp:381] pool5 <- conv5_3
I0721 00:03:05.355468 25895 net.cpp:339] pool5 -> pool5
I0721 00:03:05.355484 25895 net.cpp:114] Setting up pool5
I0721 00:03:05.355500 25895 net.cpp:121] Top shape: 1 512 19 19 (184832)
I0721 00:03:05.355510 25895 layer_factory.hpp:74] Creating layer fc6
I0721 00:03:05.355532 25895 net.cpp:85] Creating Layer fc6
I0721 00:03:05.355546 25895 net.cpp:381] fc6 <- pool5
I0721 00:03:05.355563 25895 net.cpp:339] fc6 -> fc6
I0721 00:03:05.355583 25895 net.cpp:114] Setting up fc6
I0721 00:03:06.687885 25895 net.cpp:121] Top shape: 1 4096 13 13 (692224)
I0721 00:03:06.687927 25895 layer_factory.hpp:74] Creating layer relu6
I0721 00:03:06.687945 25895 net.cpp:85] Creating Layer relu6
I0721 00:03:06.687954 25895 net.cpp:381] relu6 <- fc6
I0721 00:03:06.687968 25895 net.cpp:328] relu6 -> fc6 (in-place)
I0721 00:03:06.687984 25895 net.cpp:114] Setting up relu6
I0721 00:03:06.687994 25895 net.cpp:121] Top shape: 1 4096 13 13 (692224)
I0721 00:03:06.688000 25895 layer_factory.hpp:74] Creating layer drop6
I0721 00:03:06.688021 25895 net.cpp:85] Creating Layer drop6
I0721 00:03:06.688029 25895 net.cpp:381] drop6 <- fc6
I0721 00:03:06.688040 25895 net.cpp:328] drop6 -> fc6 (in-place)
I0721 00:03:06.688050 25895 net.cpp:114] Setting up drop6
I0721 00:03:06.688063 25895 net.cpp:121] Top shape: 1 4096 13 13 (692224)
I0721 00:03:06.688078 25895 layer_factory.hpp:74] Creating layer fc7
I0721 00:03:06.688092 25895 net.cpp:85] Creating Layer fc7
I0721 00:03:06.688101 25895 net.cpp:381] fc7 <- fc6
I0721 00:03:06.688108 25895 net.cpp:339] fc7 -> fc7
I0721 00:03:06.688119 25895 net.cpp:114] Setting up fc7
I0721 00:03:06.969869 25895 net.cpp:121] Top shape: 1 4096 13 13 (692224)
I0721 00:03:06.969908 25895 layer_factory.hpp:74] Creating layer relu7
I0721 00:03:06.969925 25895 net.cpp:85] Creating Layer relu7
I0721 00:03:06.969935 25895 net.cpp:381] relu7 <- fc7
I0721 00:03:06.969949 25895 net.cpp:328] relu7 -> fc7 (in-place)
I0721 00:03:06.969961 25895 net.cpp:114] Setting up relu7
I0721 00:03:06.969969 25895 net.cpp:121] Top shape: 1 4096 13 13 (692224)
I0721 00:03:06.969977 25895 layer_factory.hpp:74] Creating layer drop7
I0721 00:03:06.969990 25895 net.cpp:85] Creating Layer drop7
I0721 00:03:06.970000 25895 net.cpp:381] drop7 <- fc7
I0721 00:03:06.970010 25895 net.cpp:328] drop7 -> fc7 (in-place)
I0721 00:03:06.970024 25895 net.cpp:114] Setting up drop7
I0721 00:03:06.970036 25895 net.cpp:121] Top shape: 1 4096 13 13 (692224)
I0721 00:03:06.970043 25895 layer_factory.hpp:74] Creating layer score-fr
I0721 00:03:06.970057 25895 net.cpp:85] Creating Layer score-fr
I0721 00:03:06.970063 25895 net.cpp:381] score-fr <- fc7
I0721 00:03:06.970072 25895 net.cpp:339] score-fr -> score
I0721 00:03:06.970083 25895 net.cpp:114] Setting up score-fr
I0721 00:03:06.970123 25895 net.cpp:121] Top shape: 1 2 13 13 (338)
I0721 00:03:06.970139 25895 layer_factory.hpp:74] Creating layer score2
I0721 00:03:06.970149 25895 net.cpp:85] Creating Layer score2
I0721 00:03:06.970155 25895 net.cpp:381] score2 <- score
I0721 00:03:06.970170 25895 net.cpp:339] score2 -> score2
I0721 00:03:06.970180 25895 net.cpp:114] Setting up score2
I0721 00:03:06.970199 25895 net.cpp:121] Top shape: 1 2 28 28 (1568)
I0721 00:03:06.970223 25895 layer_factory.hpp:74] Creating layer score2_score2_0_split
I0721 00:03:06.970237 25895 net.cpp:85] Creating Layer score2_score2_0_split
I0721 00:03:06.970268 25895 net.cpp:381] score2_score2_0_split <- score2
I0721 00:03:06.970283 25895 net.cpp:339] score2_score2_0_split -> score2_score2_0_split_0
I0721 00:03:06.970296 25895 net.cpp:339] score2_score2_0_split -> score2_score2_0_split_1
I0721 00:03:06.970314 25895 net.cpp:114] Setting up score2_score2_0_split
I0721 00:03:06.970330 25895 net.cpp:121] Top shape: 1 2 28 28 (1568)
I0721 00:03:06.970341 25895 net.cpp:121] Top shape: 1 2 28 28 (1568)
I0721 00:03:06.970355 25895 layer_factory.hpp:74] Creating layer score-pool4
I0721 00:03:06.970368 25895 net.cpp:85] Creating Layer score-pool4
I0721 00:03:06.970374 25895 net.cpp:381] score-pool4 <- pool4_pool4_0_split_1
I0721 00:03:06.970383 25895 net.cpp:339] score-pool4 -> score-pool4
I0721 00:03:06.970392 25895 net.cpp:114] Setting up score-pool4
I0721 00:03:06.970419 25895 net.cpp:121] Top shape: 1 2 37 37 (2738)
I0721 00:03:06.970434 25895 layer_factory.hpp:74] Creating layer crop
I0721 00:03:06.970445 25895 net.cpp:85] Creating Layer crop
I0721 00:03:06.970460 25895 net.cpp:381] crop <- score-pool4
I0721 00:03:06.970473 25895 net.cpp:381] crop <- score2_score2_0_split_0
I0721 00:03:06.970480 25895 net.cpp:339] crop -> score-pool4c
I0721 00:03:06.970491 25895 net.cpp:114] Setting up crop
I0721 00:03:06.970568 25895 net.cpp:121] Top shape: 1 2 28 28 (1568)
I0721 00:03:06.970579 25895 layer_factory.hpp:74] Creating layer fuse
I0721 00:03:06.970590 25895 net.cpp:85] Creating Layer fuse
I0721 00:03:06.970598 25895 net.cpp:381] fuse <- score2_score2_0_split_1
I0721 00:03:06.970607 25895 net.cpp:381] fuse <- score-pool4c
I0721 00:03:06.970615 25895 net.cpp:339] fuse -> score-fused
I0721 00:03:06.970630 25895 net.cpp:114] Setting up fuse
I0721 00:03:06.970640 25895 net.cpp:121] Top shape: 1 2 28 28 (1568)
I0721 00:03:06.970649 25895 layer_factory.hpp:74] Creating layer score4
I0721 00:03:06.970664 25895 net.cpp:85] Creating Layer score4
I0721 00:03:06.970672 25895 net.cpp:381] score4 <- score-fused
I0721 00:03:06.970684 25895 net.cpp:339] score4 -> score4
I0721 00:03:06.970696 25895 net.cpp:114] Setting up score4
I0721 00:03:06.970718 25895 net.cpp:121] Top shape: 1 2 58 58 (6728)
I0721 00:03:06.970729 25895 layer_factory.hpp:74] Creating layer score4_score4_0_split
I0721 00:03:06.970738 25895 net.cpp:85] Creating Layer score4_score4_0_split
I0721 00:03:06.970744 25895 net.cpp:381] score4_score4_0_split <- score4
I0721 00:03:06.970754 25895 net.cpp:339] score4_score4_0_split -> score4_score4_0_split_0
I0721 00:03:06.970762 25895 net.cpp:339] score4_score4_0_split -> score4_score4_0_split_1
I0721 00:03:06.970768 25895 net.cpp:114] Setting up score4_score4_0_split
I0721 00:03:06.970777 25895 net.cpp:121] Top shape: 1 2 58 58 (6728)
I0721 00:03:06.970782 25895 net.cpp:121] Top shape: 1 2 58 58 (6728)
I0721 00:03:06.970788 25895 layer_factory.hpp:74] Creating layer score-pool3
I0721 00:03:06.970795 25895 net.cpp:85] Creating Layer score-pool3
I0721 00:03:06.970800 25895 net.cpp:381] score-pool3 <- pool3_pool3_0_split_1
I0721 00:03:06.970808 25895 net.cpp:339] score-pool3 -> score-pool3
I0721 00:03:06.970815 25895 net.cpp:114] Setting up score-pool3
I0721 00:03:06.970837 25895 net.cpp:121] Top shape: 1 2 74 74 (10952)
I0721 00:03:06.970851 25895 layer_factory.hpp:74] Creating layer crop
I0721 00:03:06.970861 25895 net.cpp:85] Creating Layer crop
I0721 00:03:06.970870 25895 net.cpp:381] crop <- score-pool3
I0721 00:03:06.970878 25895 net.cpp:381] crop <- score4_score4_0_split_0
I0721 00:03:06.970888 25895 net.cpp:339] crop -> score-pool3c
I0721 00:03:06.970903 25895 net.cpp:114] Setting up crop
I0721 00:03:06.970953 25895 net.cpp:121] Top shape: 1 2 58 58 (6728)
I0721 00:03:06.970966 25895 layer_factory.hpp:74] Creating layer fuse
I0721 00:03:06.970979 25895 net.cpp:85] Creating Layer fuse
I0721 00:03:06.970986 25895 net.cpp:381] fuse <- score4_score4_0_split_1
I0721 00:03:06.970996 25895 net.cpp:381] fuse <- score-pool3c
I0721 00:03:06.971004 25895 net.cpp:339] fuse -> score-final
I0721 00:03:06.971015 25895 net.cpp:114] Setting up fuse
I0721 00:03:06.971027 25895 net.cpp:121] Top shape: 1 2 58 58 (6728)
I0721 00:03:06.971051 25895 layer_factory.hpp:74] Creating layer upsample
I0721 00:03:06.971062 25895 net.cpp:85] Creating Layer upsample
I0721 00:03:06.971070 25895 net.cpp:381] upsample <- score-final
I0721 00:03:06.971078 25895 net.cpp:339] upsample -> bigscore
I0721 00:03:06.971088 25895 net.cpp:114] Setting up upsample
I0721 00:03:06.971108 25895 net.cpp:121] Top shape: 1 2 472 472 (445568)
I0721 00:03:06.971122 25895 layer_factory.hpp:74] Creating layer crop
I0721 00:03:06.971132 25895 net.cpp:85] Creating Layer crop
I0721 00:03:06.971139 25895 net.cpp:381] crop <- bigscore
I0721 00:03:06.971148 25895 net.cpp:381] crop <- data_data_0_split_1
I0721 00:03:06.971163 25895 net.cpp:339] crop -> upscore
I0721 00:03:06.971173 25895 net.cpp:114] Setting up crop
I0721 00:03:06.971241 25895 net.cpp:121] Top shape: 1 2 388 388 (301088)
I0721 00:03:06.971252 25895 layer_factory.hpp:74] Creating layer loss
I0721 00:03:06.971266 25895 net.cpp:85] Creating Layer loss
I0721 00:03:06.971271 25895 net.cpp:381] loss <- upscore
I0721 00:03:06.971281 25895 net.cpp:381] loss <- label
I0721 00:03:06.971290 25895 net.cpp:339] loss -> loss
I0721 00:03:06.971314 25895 net.cpp:114] Setting up loss
I0721 00:03:06.971333 25895 layer_factory.hpp:74] Creating layer loss
…
I0721 00:03:06.974462 25895 net.cpp:42] Initializing net from parameters: 
name: "FCN"
state {
  phase: TEST
}
layer {
  name: "data"
  type: "ImageSegData"
  top: "data"
  top: "label"
  include {
    phase: TEST
  }
  transform_param {
    mirror: true
    crop_size: 388
    mean_value: 104.008
    mean_value: 116.669
    mean_value: 122.675
  }
  image_data_param {
    source: "/media/BigDisk/xiaoyong/datafrommac/ourfacedata_train_2/ourtestdatalist.txt"
    batch_size: 1
    shuffle: true
    root_folder: ""
    ignore_label: 255
    label_type: PIXEL
  }
}
layer {
  name: "conv1_1"
  type: "Convolution"
  bottom: "data"
  top: "conv1_1"
  param {
    lr_mult: 1
    decay_mult: 1
  }
  param {
    lr_mult: 2
    decay_mult: 0
  }
  convolution_param {
    num_output: 64
    pad: 100
    kernel_size: 3
    engine: CAFFE
  }
}
layer {
  name: "relu1_1"
  type: "ReLU"
  bottom: "conv1_1"
  top: "conv1_1"
}
layer {
  name: "conv1_2"
  type: "Convolution"
  bottom: "conv1_1"
  top: "conv1_2"
  param {
    lr_mult: 1
    decay_mult: 1
  }
  param {
    lr_mult: 2
    decay_mult: 0
  }
  convolution_param {
    num_output: 64
    pad: 1
    kernel_size: 3
    engine: CAFFE
  }
}
layer {
  name: "relu1_2"
  type: "ReLU"
  bottom: "conv1_2"
  top: "conv1_2"
}
layer {
  name: "pool1"
  type: "Pooling"
  bottom: "conv1_2"
  top: "pool1"
  pooling_param {
    pool: MAX
    kernel_size: 2
    stride: 2
  }
}
layer {
  name: "conv2_1"
  type: "Convolution"
  bottom: "pool1"
  top: "conv2_1"
  param {
    lr_mult: 1
    decay_mult: 1
  }
  param {
    lr_mult: 2
    decay_mult: 0
  }
  convolution_param {
    num_output: 128
    pad: 1
    kernel_size: 3
    engine: CAFFE
  }
}
layer {
  name: "relu2_1"
  type: "ReLU"
  bottom: "conv2_1"
  top: "conv2_1"
}
layer {
  name: "conv2_2"
  type: "Convolution"
  bottom: "conv2_1"
  top: "conv2_2"
  param {
    lr_mult: 1
    decay_mult: 1
  }
  param {
    lr_mult: 2
    decay_mult: 0
  }
  convolution_param {
    num_output: 128
    pad: 1
    kernel_size: 3
    engine: CAFFE
  }
}
layer {
  name: "relu2_2"
  type: "ReLU"
  bottom: "conv2_2"
  top: "conv2_2"
}
layer {
  name: "pool2"
  type: "Pooling"
  bottom: "conv2_2"
  top: "pool2"
  pooling_param {
    pool: MAX
    kernel_size: 2
    stride: 2
  }
}
layer {
  name: "conv3_1"
  type: "Convolution"
  bottom: "pool2"
  top: "conv3_1"
  param {
    lr_mult: 1
    decay_mult: 1
  }
  param {
    lr_mult: 2
    decay_mult: 0
  }
  convolution_param {
    num_output: 256
    pad: 1
    kernel_size: 3
    engine: CAFFE
  }
}
layer {
  name: "relu3_1"
  type: "ReLU"
  bottom: "conv3_1"
  top: "conv3_1"
}
layer {
  name: "conv3_2"
  type: "Convolution"
  bottom: "conv3_1"
  top: "conv3_2"
  param {
    lr_mult: 1
    decay_mult: 1
  }
  param {
    lr_mult: 2
    decay_mult: 0
  }
  convolution_param {
    num_output: 256
    pad: 1
    kernel_size: 3
    engine: CAFFE
  }
}
layer {
  name: "relu3_2"
  type: "ReLU"
  bottom: "conv3_2"
  top: "conv3_2"
}
layer {
  name: "conv3_3"
  type: "Convolution"
  bottom: "conv3_2"
  top: "conv3_3"
  param {
    lr_mult: 1
    decay_mult: 1
  }
  param {
    lr_mult: 2
    decay_mult: 0
  }
  convolution_param {
    num_output: 256
    pad: 1
    kernel_size: 3
    engine: CAFFE
  }
}
layer {
  name: "relu3_3"
  type: "ReLU"
  bottom: "conv3_3"
  top: "conv3_3"
}
layer {
  name: "pool3"
  type: "Pooling"
  bottom: "conv3_3"
  top: "pool3"
  pooling_param {
    pool: MAX
    kernel_size: 2
    stride: 2
  }
}
layer {
  name: "conv4_1"
  type: "Convolution"
  bottom: "pool3"
  top: "conv4_1"
  param {
    lr_mult: 1
    decay_mult: 1
  }
  param {
    lr_mult: 2
    decay_mult: 0
  }
  convolution_param {
    num_output: 512
    pad: 1
    kernel_size: 3
    engine: CAFFE
  }
}
layer {
  name: "relu4_1"
  type: "ReLU"
  bottom: "conv4_1"
  top: "conv4_1"
}
layer {
  name: "conv4_2"
  type: "Convolution"
  bottom: "conv4_1"
  top: "conv4_2"
  param {
    lr_mult: 1
    decay_mult: 1
  }
  param {
    lr_mult: 2
    decay_mult: 0
  }
  convolution_param {
    num_output: 512
    pad: 1
    kernel_size: 3
    engine: CAFFE
  }
}
layer {
  name: "relu4_2"
  type: "ReLU"
  bottom: "conv4_2"
  top: "conv4_2"
}
layer {
  name: "conv4_3"
  type: "Convolution"
  bottom: "conv4_2"
  top: "conv4_3"
  param {
    lr_mult: 1
    decay_mult: 1
  }
  param {
    lr_mult: 2
    decay_mult: 0
  }
  convolution_param {
    num_output: 512
    pad: 1
    kernel_size: 3
    engine: CAFFE
  }
}
layer {
  name: "relu4_3"
  type: "ReLU"
  bottom: "conv4_3"
  top: "conv4_3"
}
layer {
  name: "pool4"
  type: "Pooling"
  bottom: "conv4_3"
  top: "pool4"
  pooling_param {
    pool: MAX
    kernel_size: 2
    stride: 2
  }
}
layer {
  name: "conv5_1"
  type: "Convolution"
  bottom: "pool4"
  top: "conv5_1"
  param {
    lr_mult: 1
    decay_mult: 1
  }
  param {
    lr_mult: 2
    decay_mult: 0
  }
  convolution_param {
    num_output: 512
    pad: 1
    kernel_size: 3
    engine: CAFFE
  }
}
layer {
  name: "relu5_1"
  type: "ReLU"
  bottom: "conv5_1"
  top: "conv5_1"
}
layer {
  name: "conv5_2"
  type: "Convolution"
  bottom: "conv5_1"
  top: "conv5_2"
  param {
    lr_mult: 1
    decay_mult: 1
  }
  param {
    lr_mult: 2
    decay_mult: 0
  }
  convolution_param {
    num_output: 512
    pad: 1
    kernel_size: 3
    engine: CAFFE
  }
}
layer {
  name: "relu5_2"
  type: "ReLU"
  bottom: "conv5_2"
  top: "conv5_2"
}
layer {
  name: "conv5_3"
  type: "Convolution"
  bottom: "conv5_2"
  top: "conv5_3"
  param {
    lr_mult: 1
    decay_mult: 1
  }
  param {
    lr_mult: 2
    decay_mult: 0
  }
  convolution_param {
    num_output: 512
    pad: 1
    kernel_size: 3
    engine: CAFFE
  }
}
layer {
  name: "relu5_3"
  type: "ReLU"
  bottom: "conv5_3"
  top: "conv5_3"
}
layer {
  name: "pool5"
  type: "Pooling"
  bottom: "conv5_3"
  top: "pool5"
  pooling_param {
    pool: MAX
    kernel_size: 2
    stride: 2
  }
}
layer {
  name: "fc6"
  type: "Convolution"
  bottom: "pool5"
  top: "fc6"
  param {
    lr_mult: 1
    decay_mult: 1
  }
  param {
    lr_mult: 2
    decay_mult: 0
  }
  convolution_param {
    num_output: 4096
    kernel_size: 7
    engine: CAFFE
  }
}
layer {
  name: "relu6"
  type: "ReLU"
  bottom: "fc6"
  top: "fc6"
}
layer {
  name: "drop6"
  type: "Dropout"
  bottom: "fc6"
  top: "fc6"
  dropout_param {
    dropout_ratio: 0.5
  }
}
layer {
  name: "fc7"
  type: "Convolution"
  bottom: "fc6"
  top: "fc7"
  param {
    lr_mult: 1
    decay_mult: 1
  }
  param {
    lr_mult: 2
    decay_mult: 0
  }
  convolution_param {
    num_output: 4096
    kernel_size: 1
    engine: CAFFE
  }
}
layer {
  name: "relu7"
  type: "ReLU"
  bottom: "fc7"
  top: "fc7"
}
layer {
  name: "drop7"
  type: "Dropout"
  bottom: "fc7"
  top: "fc7"
  dropout_param {
    dropout_ratio: 0.5
  }
}
layer {
  name: "score-fr"
  type: "Convolution"
  bottom: "fc7"
  top: "score"
  param {
    lr_mult: 1
    decay_mult: 1
  }
  param {
    lr_mult: 2
    decay_mult: 0
  }
  convolution_param {
    num_output: 2
    kernel_size: 1
    engine: CAFFE
  }
}
layer {
  name: "score2"
  type: "Deconvolution"
  bottom: "score"
  top: "score2"
  param {
    lr_mult: 1
    decay_mult: 1
  }
  param {
    lr_mult: 2
    decay_mult: 0
  }
  convolution_param {
    num_output: 2
    kernel_size: 4
    stride: 2
  }
}
layer {
  name: "score-pool4"
  type: "Convolution"
  bottom: "pool4"
  top: "score-pool4"
  param {
    lr_mult: 1
    decay_mult: 1
  }
  param {
    lr_mult: 2
    decay_mult: 0
  }
  convolution_param {
    num_output: 2
    kernel_size: 1
    engine: CAFFE
  }
}
layer {
  name: "crop"
  type: "Crop"
  bottom: "score-pool4"
  bottom: "score2"
  top: "score-pool4c"
}
layer {
  name: "fuse"
  type: "Eltwise"
  bottom: "score2"
  bottom: "score-pool4c"
  top: "score-fused"
  eltwise_param {
    operation: SUM
  }
}
layer {
  name: "score4"
  type: "Deconvolution"
  bottom: "score-fused"
  top: "score4"
  param {
    lr_mult: 1
    decay_mult: 1
  }
  convolution_param {
    num_output: 2
    bias_term: false
    kernel_size: 4
    stride: 2
  }
}
layer {
  name: "score-pool3"
  type: "Convolution"
  bottom: "pool3"
  top: "score-pool3"
  param {
    lr_mult: 1
    decay_mult: 1
  }
  param {
    lr_mult: 2
    decay_mult: 0
  }
  convolution_param {
    num_output: 2
    kernel_size: 1
    engine: CAFFE
  }
}
layer {
  name: "crop"
  type: "Crop"
  bottom: "score-pool3"
  bottom: "score4"
  top: "score-pool3c"
}
layer {
  name: "fuse"
  type: "Eltwise"
  bottom: "score4"
  bottom: "score-pool3c"
  top: "score-final"
  eltwise_param {
    operation: SUM
  }
}
layer {
  name: "upsample"
  type: "Deconvolution"
  bottom: "score-final"
  top: "bigscore"
  param {
    lr_mult: 1
  }
  convolution_param {
    num_output: 2
    bias_term: false
    kernel_size: 16
    stride: 8
  }
}
layer {
  name: "crop"
  type: "Crop"
  bottom: "bigscore"
  bottom: "data"
  top: "upscore"
}
layer {
  name: "loss"
  type: "SoftmaxWithLoss"
  bottom: "upscore"
  bottom: "label"
  top: "loss"
  loss_param {
    ignore_label: 255
  }
}
layer {
  name: "accuracy"
  type: "SegAccuracy"
  bottom: "upscore"
  bottom: "label"
  top: "accuracy"
  include {
    phase: TEST
  }
  seg_accuracy_param {
    ignore_label: 255
  }
}
I0721 00:03:06.974742 25895 layer_factory.hpp:74] Creating layer data
I0721 00:03:06.974756 25895 net.cpp:85] Creating Layer data
I0721 00:03:06.974766 25895 net.cpp:339] data -> data
I0721 00:03:06.974778 25895 net.cpp:339] data -> label
I0721 00:03:06.974792 25895 net.cpp:339] data -> (automatic)
I0721 00:03:06.974802 25895 net.cpp:114] Setting up data
I0721 00:03:06.974814 25895 image_seg_data_layer.cpp:46] Opening file /media/BigDisk/xiaoyong/datafrommac/ourfacedata_train_2/ourtestdatalist.txt
I0721 00:03:06.975324 25895 image_seg_data_layer.cpp:63] Shuffling data
I0721 00:03:06.975385 25895 image_seg_data_layer.cpp:68] A total of 355 images.
I0721 00:03:06.990504 25895 image_seg_data_layer.cpp:114] output data size: 1,3,388,388
I0721 00:03:06.990520 25895 image_seg_data_layer.cpp:118] output label size: 1,1,388,388
I0721 00:03:06.990527 25895 image_seg_data_layer.cpp:122] output data_dim size: 1,1,1,2
I0721 00:03:06.990953 25895 net.cpp:121] Top shape: 1 3 388 388 (451632)
I0721 00:03:06.990970 25895 net.cpp:121] Top shape: 1 1 388 388 (150544)
I0721 00:03:06.990980 25895 net.cpp:121] Top shape: 1 1 1 2 (2)
I0721 00:03:06.990988 25895 layer_factory.hpp:74] Creating layer data_data_0_split
I0721 00:03:06.990998 25895 net.cpp:85] Creating Layer data_data_0_split
I0721 00:03:06.991040 25895 net.cpp:381] data_data_0_split <- data
I0721 00:03:06.991052 25895 net.cpp:339] data_data_0_split -> data_data_0_split_0
I0721 00:03:06.991063 25895 net.cpp:339] data_data_0_split -> data_data_0_split_1
I0721 00:03:06.991072 25895 net.cpp:114] Setting up data_data_0_split
I0721 00:03:06.991086 25895 net.cpp:121] Top shape: 1 3 388 388 (451632)
I0721 00:03:06.991094 25895 net.cpp:121] Top shape: 1 3 388 388 (451632)
I0721 00:03:06.991102 25895 layer_factory.hpp:74] Creating layer label_data_1_split
I0721 00:03:06.991113 25895 net.cpp:85] Creating Layer label_data_1_split
I0721 00:03:06.991121 25895 net.cpp:381] label_data_1_split <- label
I0721 00:03:06.991128 25895 net.cpp:339] label_data_1_split -> label_data_1_split_0
I0721 00:03:06.991138 25895 net.cpp:339] label_data_1_split -> label_data_1_split_1
I0721 00:03:06.991147 25895 net.cpp:114] Setting up label_data_1_split
I0721 00:03:06.991158 25895 net.cpp:121] Top shape: 1 1 388 388 (150544)
I0721 00:03:06.991166 25895 net.cpp:121] Top shape: 1 1 388 388 (150544)
I0721 00:03:06.991173 25895 layer_factory.hpp:74] Creating layer conv1_1
I0721 00:03:06.991183 25895 net.cpp:85] Creating Layer conv1_1
I0721 00:03:06.991191 25895 net.cpp:381] conv1_1 <- data_data_0_split_0
I0721 00:03:06.991201 25895 net.cpp:339] conv1_1 -> conv1_1
I0721 00:03:06.991211 25895 net.cpp:114] Setting up conv1_1
I0721 00:03:06.991808 25895 net.cpp:121] Top shape: 1 64 586 586 (21977344)
I0721 00:03:06.991825 25895 layer_factory.hpp:74] Creating layer relu1_1
I0721 00:03:06.991837 25895 net.cpp:85] Creating Layer relu1_1
I0721 00:03:06.991847 25895 net.cpp:381] relu1_1 <- conv1_1
I0721 00:03:06.991857 25895 net.cpp:328] relu1_1 -> conv1_1 (in-place)
I0721 00:03:06.991865 25895 net.cpp:114] Setting up relu1_1
I0721 00:03:06.991873 25895 net.cpp:121] Top shape: 1 64 586 586 (21977344)
I0721 00:03:06.991880 25895 layer_factory.hpp:74] Creating layer conv1_2
I0721 00:03:06.991894 25895 net.cpp:85] Creating Layer conv1_2
I0721 00:03:06.991902 25895 net.cpp:381] conv1_2 <- conv1_1
I0721 00:03:06.991911 25895 net.cpp:339] conv1_2 -> conv1_2
I0721 00:03:06.991920 25895 net.cpp:114] Setting up conv1_2
I0721 00:03:06.992601 25895 net.cpp:121] Top shape: 1 64 586 586 (21977344)
I0721 00:03:06.992619 25895 layer_factory.hpp:74] Creating layer relu1_2
I0721 00:03:06.992630 25895 net.cpp:85] Creating Layer relu1_2
I0721 00:03:06.992640 25895 net.cpp:381] relu1_2 <- conv1_2
I0721 00:03:06.992652 25895 net.cpp:328] relu1_2 -> conv1_2 (in-place)
I0721 00:03:06.992660 25895 net.cpp:114] Setting up relu1_2
I0721 00:03:06.992669 25895 net.cpp:121] Top shape: 1 64 586 586 (21977344)
I0721 00:03:06.992678 25895 layer_factory.hpp:74] Creating layer pool1
I0721 00:03:06.992691 25895 net.cpp:85] Creating Layer pool1
I0721 00:03:06.992699 25895 net.cpp:381] pool1 <- conv1_2
I0721 00:03:06.992708 25895 net.cpp:339] pool1 -> pool1
I0721 00:03:06.992717 25895 net.cpp:114] Setting up pool1
I0721 00:03:06.992727 25895 net.cpp:121] Top shape: 1 64 293 293 (5494336)
I0721 00:03:06.992734 25895 layer_factory.hpp:74] Creating layer conv2_1
I0721 00:03:06.992746 25895 net.cpp:85] Creating Layer conv2_1
I0721 00:03:06.992754 25895 net.cpp:381] conv2_1 <- pool1
I0721 00:03:06.992763 25895 net.cpp:339] conv2_1 -> conv2_1
I0721 00:03:06.992774 25895 net.cpp:114] Setting up conv2_1
I0721 00:03:06.993088 25895 net.cpp:121] Top shape: 1 128 293 293 (10988672)
I0721 00:03:06.993109 25895 layer_factory.hpp:74] Creating layer relu2_1
I0721 00:03:06.993124 25895 net.cpp:85] Creating Layer relu2_1
I0721 00:03:06.993131 25895 net.cpp:381] relu2_1 <- conv2_1
I0721 00:03:06.993140 25895 net.cpp:328] relu2_1 -> conv2_1 (in-place)
I0721 00:03:06.993147 25895 net.cpp:114] Setting up relu2_1
I0721 00:03:06.993158 25895 net.cpp:121] Top shape: 1 128 293 293 (10988672)
I0721 00:03:06.993166 25895 layer_factory.hpp:74] Creating layer conv2_2
I0721 00:03:06.993175 25895 net.cpp:85] Creating Layer conv2_2
I0721 00:03:06.993185 25895 net.cpp:381] conv2_2 <- conv2_1
I0721 00:03:06.993194 25895 net.cpp:339] conv2_2 -> conv2_2
I0721 00:03:06.993206 25895 net.cpp:114] Setting up conv2_2
I0721 00:03:06.993614 25895 net.cpp:121] Top shape: 1 128 293 293 (10988672)
I0721 00:03:06.993629 25895 layer_factory.hpp:74] Creating layer relu2_2
I0721 00:03:06.993643 25895 net.cpp:85] Creating Layer relu2_2
I0721 00:03:06.993650 25895 net.cpp:381] relu2_2 <- conv2_2
I0721 00:03:06.993659 25895 net.cpp:328] relu2_2 -> conv2_2 (in-place)
I0721 00:03:06.993669 25895 net.cpp:114] Setting up relu2_2
I0721 00:03:06.993679 25895 net.cpp:121] Top shape: 1 128 293 293 (10988672)
I0721 00:03:06.993687 25895 layer_factory.hpp:74] Creating layer pool2
I0721 00:03:06.993695 25895 net.cpp:85] Creating Layer pool2
I0721 00:03:06.993703 25895 net.cpp:381] pool2 <- conv2_2
I0721 00:03:06.993717 25895 net.cpp:339] pool2 -> pool2
I0721 00:03:06.993727 25895 net.cpp:114] Setting up pool2
I0721 00:03:06.993739 25895 net.cpp:121] Top shape: 1 128 147 147 (2765952)
I0721 00:03:06.993746 25895 layer_factory.hpp:74] Creating layer conv3_1
I0721 00:03:06.993755 25895 net.cpp:85] Creating Layer conv3_1
I0721 00:03:06.993762 25895 net.cpp:381] conv3_1 <- pool2
I0721 00:03:06.993774 25895 net.cpp:339] conv3_1 -> conv3_1
I0721 00:03:06.993784 25895 net.cpp:114] Setting up conv3_1
I0721 00:03:06.994369 25895 net.cpp:121] Top shape: 1 256 147 147 (5531904)
I0721 00:03:06.994390 25895 layer_factory.hpp:74] Creating layer relu3_1
I0721 00:03:06.994400 25895 net.cpp:85] Creating Layer relu3_1
I0721 00:03:06.994406 25895 net.cpp:381] relu3_1 <- conv3_1
I0721 00:03:06.994418 25895 net.cpp:328] relu3_1 -> conv3_1 (in-place)
I0721 00:03:06.994429 25895 net.cpp:114] Setting up relu3_1
I0721 00:03:06.994437 25895 net.cpp:121] Top shape: 1 256 147 147 (5531904)
I0721 00:03:06.994443 25895 layer_factory.hpp:74] Creating layer conv3_2
I0721 00:03:06.994453 25895 net.cpp:85] Creating Layer conv3_2
I0721 00:03:06.994462 25895 net.cpp:381] conv3_2 <- conv3_1
I0721 00:03:06.994470 25895 net.cpp:339] conv3_2 -> conv3_2
I0721 00:03:06.994482 25895 net.cpp:114] Setting up conv3_2
I0721 00:03:06.995510 25895 net.cpp:121] Top shape: 1 256 147 147 (5531904)
I0721 00:03:06.995527 25895 layer_factory.hpp:74] Creating layer relu3_2
I0721 00:03:06.995538 25895 net.cpp:85] Creating Layer relu3_2
I0721 00:03:06.995548 25895 net.cpp:381] relu3_2 <- conv3_2
I0721 00:03:06.995558 25895 net.cpp:328] relu3_2 -> conv3_2 (in-place)
I0721 00:03:06.995568 25895 net.cpp:114] Setting up relu3_2
I0721 00:03:06.995579 25895 net.cpp:121] Top shape: 1 256 147 147 (5531904)
I0721 00:03:06.995585 25895 layer_factory.hpp:74] Creating layer conv3_3
I0721 00:03:06.995596 25895 net.cpp:85] Creating Layer conv3_3
I0721 00:03:06.995604 25895 net.cpp:381] conv3_3 <- conv3_2
I0721 00:03:06.995615 25895 net.cpp:339] conv3_3 -> conv3_3
I0721 00:03:06.995625 25895 net.cpp:114] Setting up conv3_3
I0721 00:03:06.996631 25895 net.cpp:121] Top shape: 1 256 147 147 (5531904)
I0721 00:03:06.996649 25895 layer_factory.hpp:74] Creating layer relu3_3
I0721 00:03:06.996657 25895 net.cpp:85] Creating Layer relu3_3
I0721 00:03:06.996669 25895 net.cpp:381] relu3_3 <- conv3_3
I0721 00:03:06.996677 25895 net.cpp:328] relu3_3 -> conv3_3 (in-place)
I0721 00:03:06.996685 25895 net.cpp:114] Setting up relu3_3
I0721 00:03:06.996691 25895 net.cpp:121] Top shape: 1 256 147 147 (5531904)
I0721 00:03:06.996698 25895 layer_factory.hpp:74] Creating layer pool3
I0721 00:03:06.996721 25895 net.cpp:85] Creating Layer pool3
I0721 00:03:06.996731 25895 net.cpp:381] pool3 <- conv3_3
I0721 00:03:06.996742 25895 net.cpp:339] pool3 -> pool3
I0721 00:03:06.996752 25895 net.cpp:114] Setting up pool3
I0721 00:03:06.996764 25895 net.cpp:121] Top shape: 1 256 74 74 (1401856)
I0721 00:03:06.996772 25895 layer_factory.hpp:74] Creating layer pool3_pool3_0_split
I0721 00:03:06.996783 25895 net.cpp:85] Creating Layer pool3_pool3_0_split
I0721 00:03:06.996791 25895 net.cpp:381] pool3_pool3_0_split <- pool3
I0721 00:03:06.996798 25895 net.cpp:339] pool3_pool3_0_split -> pool3_pool3_0_split_0
I0721 00:03:06.996809 25895 net.cpp:339] pool3_pool3_0_split -> pool3_pool3_0_split_1
I0721 00:03:06.996819 25895 net.cpp:114] Setting up pool3_pool3_0_split
I0721 00:03:06.996829 25895 net.cpp:121] Top shape: 1 256 74 74 (1401856)
I0721 00:03:06.996840 25895 net.cpp:121] Top shape: 1 256 74 74 (1401856)
I0721 00:03:06.996848 25895 layer_factory.hpp:74] Creating layer conv4_1
I0721 00:03:06.996860 25895 net.cpp:85] Creating Layer conv4_1
I0721 00:03:06.996876 25895 net.cpp:381] conv4_1 <- pool3_pool3_0_split_0
I0721 00:03:06.996886 25895 net.cpp:339] conv4_1 -> conv4_1
I0721 00:03:06.996898 25895 net.cpp:114] Setting up conv4_1
I0721 00:03:07.005183 25895 net.cpp:121] Top shape: 1 512 74 74 (2803712)
I0721 00:03:07.005203 25895 layer_factory.hpp:74] Creating layer relu4_1
I0721 00:03:07.005213 25895 net.cpp:85] Creating Layer relu4_1
I0721 00:03:07.005223 25895 net.cpp:381] relu4_1 <- conv4_1
I0721 00:03:07.005233 25895 net.cpp:328] relu4_1 -> conv4_1 (in-place)
I0721 00:03:07.005241 25895 net.cpp:114] Setting up relu4_1
I0721 00:03:07.005249 25895 net.cpp:121] Top shape: 1 512 74 74 (2803712)
I0721 00:03:07.005257 25895 layer_factory.hpp:74] Creating layer conv4_2
I0721 00:03:07.005270 25895 net.cpp:85] Creating Layer conv4_2
I0721 00:03:07.005278 25895 net.cpp:381] conv4_2 <- conv4_1
I0721 00:03:07.005288 25895 net.cpp:339] conv4_2 -> conv4_2
I0721 00:03:07.005298 25895 net.cpp:114] Setting up conv4_2
I0721 00:03:07.034035 25895 net.cpp:121] Top shape: 1 512 74 74 (2803712)
I0721 00:03:07.034071 25895 layer_factory.hpp:74] Creating layer relu4_2
I0721 00:03:07.034086 25895 net.cpp:85] Creating Layer relu4_2
I0721 00:03:07.034097 25895 net.cpp:381] relu4_2 <- conv4_2
I0721 00:03:07.034111 25895 net.cpp:328] relu4_2 -> conv4_2 (in-place)
I0721 00:03:07.034121 25895 net.cpp:114] Setting up relu4_2
I0721 00:03:07.034131 25895 net.cpp:121] Top shape: 1 512 74 74 (2803712)
I0721 00:03:07.034142 25895 layer_factory.hpp:74] Creating layer conv4_3
I0721 00:03:07.034157 25895 net.cpp:85] Creating Layer conv4_3
I0721 00:03:07.034165 25895 net.cpp:381] conv4_3 <- conv4_2
I0721 00:03:07.034178 25895 net.cpp:339] conv4_3 -> conv4_3
I0721 00:03:07.034188 25895 net.cpp:114] Setting up conv4_3
I0721 00:03:07.056854 25895 net.cpp:121] Top shape: 1 512 74 74 (2803712)
I0721 00:03:07.056890 25895 layer_factory.hpp:74] Creating layer relu4_3
I0721 00:03:07.056906 25895 net.cpp:85] Creating Layer relu4_3
I0721 00:03:07.056915 25895 net.cpp:381] relu4_3 <- conv4_3
I0721 00:03:07.056931 25895 net.cpp:328] relu4_3 -> conv4_3 (in-place)
I0721 00:03:07.056942 25895 net.cpp:114] Setting up relu4_3
I0721 00:03:07.056952 25895 net.cpp:121] Top shape: 1 512 74 74 (2803712)
I0721 00:03:07.056963 25895 layer_factory.hpp:74] Creating layer pool4
I0721 00:03:07.056975 25895 net.cpp:85] Creating Layer pool4
I0721 00:03:07.056985 25895 net.cpp:381] pool4 <- conv4_3
I0721 00:03:07.056998 25895 net.cpp:339] pool4 -> pool4
I0721 00:03:07.057008 25895 net.cpp:114] Setting up pool4
I0721 00:03:07.057019 25895 net.cpp:121] Top shape: 1 512 37 37 (700928)
I0721 00:03:07.057029 25895 layer_factory.hpp:74] Creating layer pool4_pool4_0_split
I0721 00:03:07.057040 25895 net.cpp:85] Creating Layer pool4_pool4_0_split
I0721 00:03:07.057060 25895 net.cpp:381] pool4_pool4_0_split <- pool4
I0721 00:03:07.057071 25895 net.cpp:339] pool4_pool4_0_split -> pool4_pool4_0_split_0
I0721 00:03:07.057080 25895 net.cpp:339] pool4_pool4_0_split -> pool4_pool4_0_split_1
I0721 00:03:07.057116 25895 net.cpp:114] Setting up pool4_pool4_0_split
I0721 00:03:07.057129 25895 net.cpp:121] Top shape: 1 512 37 37 (700928)
I0721 00:03:07.057142 25895 net.cpp:121] Top shape: 1 512 37 37 (700928)
I0721 00:03:07.057147 25895 layer_factory.hpp:74] Creating layer conv5_1
I0721 00:03:07.057157 25895 net.cpp:85] Creating Layer conv5_1
I0721 00:03:07.057163 25895 net.cpp:381] conv5_1 <- pool4_pool4_0_split_0
I0721 00:03:07.057173 25895 net.cpp:339] conv5_1 -> conv5_1
I0721 00:03:07.057183 25895 net.cpp:114] Setting up conv5_1
I0721 00:03:07.078589 25895 net.cpp:121] Top shape: 1 512 37 37 (700928)
I0721 00:03:07.078618 25895 layer_factory.hpp:74] Creating layer relu5_1
I0721 00:03:07.078631 25895 net.cpp:85] Creating Layer relu5_1
I0721 00:03:07.078640 25895 net.cpp:381] relu5_1 <- conv5_1
I0721 00:03:07.078649 25895 net.cpp:328] relu5_1 -> conv5_1 (in-place)
I0721 00:03:07.078660 25895 net.cpp:114] Setting up relu5_1
I0721 00:03:07.078670 25895 net.cpp:121] Top shape: 1 512 37 37 (700928)
I0721 00:03:07.078677 25895 layer_factory.hpp:74] Creating layer conv5_2
I0721 00:03:07.078693 25895 net.cpp:85] Creating Layer conv5_2
I0721 00:03:07.078704 25895 net.cpp:381] conv5_2 <- conv5_1
I0721 00:03:07.078714 25895 net.cpp:339] conv5_2 -> conv5_2
I0721 00:03:07.078724 25895 net.cpp:114] Setting up conv5_2
I0721 00:03:07.185235 25895 net.cpp:121] Top shape: 1 512 37 37 (700928)
I0721 00:03:07.185277 25895 layer_factory.hpp:74] Creating layer relu5_2
I0721 00:03:07.185302 25895 net.cpp:85] Creating Layer relu5_2
I0721 00:03:07.185313 25895 net.cpp:381] relu5_2 <- conv5_2
I0721 00:03:07.185327 25895 net.cpp:328] relu5_2 -> conv5_2 (in-place)
I0721 00:03:07.185338 25895 net.cpp:114] Setting up relu5_2
I0721 00:03:07.185353 25895 net.cpp:121] Top shape: 1 512 37 37 (700928)
I0721 00:03:07.185362 25895 layer_factory.hpp:74] Creating layer conv5_3
I0721 00:03:07.185375 25895 net.cpp:85] Creating Layer conv5_3
I0721 00:03:07.185385 25895 net.cpp:381] conv5_3 <- conv5_2
I0721 00:03:07.185395 25895 net.cpp:339] conv5_3 -> conv5_3
I0721 00:03:07.185405 25895 net.cpp:114] Setting up conv5_3
I0721 00:03:07.213070 25895 net.cpp:121] Top shape: 1 512 37 37 (700928)
I0721 00:03:07.213102 25895 layer_factory.hpp:74] Creating layer relu5_3
I0721 00:03:07.213117 25895 net.cpp:85] Creating Layer relu5_3
I0721 00:03:07.213129 25895 net.cpp:381] relu5_3 <- conv5_3
I0721 00:03:07.213143 25895 net.cpp:328] relu5_3 -> conv5_3 (in-place)
I0721 00:03:07.213155 25895 net.cpp:114] Setting up relu5_3
I0721 00:03:07.213162 25895 net.cpp:121] Top shape: 1 512 37 37 (700928)
I0721 00:03:07.213171 25895 layer_factory.hpp:74] Creating layer pool5
I0721 00:03:07.213182 25895 net.cpp:85] Creating Layer pool5
I0721 00:03:07.213191 25895 net.cpp:381] pool5 <- conv5_3
I0721 00:03:07.213206 25895 net.cpp:339] pool5 -> pool5
I0721 00:03:07.213217 25895 net.cpp:114] Setting up pool5
I0721 00:03:07.213229 25895 net.cpp:121] Top shape: 1 512 19 19 (184832)
I0721 00:03:07.213235 25895 layer_factory.hpp:74] Creating layer fc6
I0721 00:03:07.213248 25895 net.cpp:85] Creating Layer fc6
I0721 00:03:07.213256 25895 net.cpp:381] fc6 <- pool5
I0721 00:03:07.213266 25895 net.cpp:339] fc6 -> fc6
I0721 00:03:07.213276 25895 net.cpp:114] Setting up fc6
I0721 00:03:08.787843 25895 net.cpp:121] Top shape: 1 4096 13 13 (692224)
I0721 00:03:08.787886 25895 layer_factory.hpp:74] Creating layer relu6
I0721 00:03:08.787901 25895 net.cpp:85] Creating Layer relu6
I0721 00:03:08.787911 25895 net.cpp:381] relu6 <- fc6
I0721 00:03:08.787925 25895 net.cpp:328] relu6 -> fc6 (in-place)
I0721 00:03:08.787937 25895 net.cpp:114] Setting up relu6
I0721 00:03:08.787946 25895 net.cpp:121] Top shape: 1 4096 13 13 (692224)
I0721 00:03:08.787953 25895 layer_factory.hpp:74] Creating layer drop6
I0721 00:03:08.787966 25895 net.cpp:85] Creating Layer drop6
I0721 00:03:08.787973 25895 net.cpp:381] drop6 <- fc6
I0721 00:03:08.787983 25895 net.cpp:328] drop6 -> fc6 (in-place)
I0721 00:03:08.787994 25895 net.cpp:114] Setting up drop6
I0721 00:03:08.788004 25895 net.cpp:121] Top shape: 1 4096 13 13 (692224)
I0721 00:03:08.788034 25895 layer_factory.hpp:74] Creating layer fc7
I0721 00:03:08.788046 25895 net.cpp:85] Creating Layer fc7
I0721 00:03:08.788054 25895 net.cpp:381] fc7 <- fc6
I0721 00:03:08.788063 25895 net.cpp:339] fc7 -> fc7
I0721 00:03:08.788074 25895 net.cpp:114] Setting up fc7
I0721 00:03:09.074218 25895 net.cpp:121] Top shape: 1 4096 13 13 (692224)
I0721 00:03:09.074254 25895 layer_factory.hpp:74] Creating layer relu7
I0721 00:03:09.074270 25895 net.cpp:85] Creating Layer relu7
I0721 00:03:09.074280 25895 net.cpp:381] relu7 <- fc7
I0721 00:03:09.074291 25895 net.cpp:328] relu7 -> fc7 (in-place)
I0721 00:03:09.074302 25895 net.cpp:114] Setting up relu7
I0721 00:03:09.074311 25895 net.cpp:121] Top shape: 1 4096 13 13 (692224)
I0721 00:03:09.074318 25895 layer_factory.hpp:74] Creating layer drop7
I0721 00:03:09.074331 25895 net.cpp:85] Creating Layer drop7
I0721 00:03:09.074338 25895 net.cpp:381] drop7 <- fc7
I0721 00:03:09.074347 25895 net.cpp:328] drop7 -> fc7 (in-place)
I0721 00:03:09.074357 25895 net.cpp:114] Setting up drop7
I0721 00:03:09.074368 25895 net.cpp:121] Top shape: 1 4096 13 13 (692224)
I0721 00:03:09.074376 25895 layer_factory.hpp:74] Creating layer score-fr
I0721 00:03:09.074390 25895 net.cpp:85] Creating Layer score-fr
I0721 00:03:09.074398 25895 net.cpp:381] score-fr <- fc7
I0721 00:03:09.074410 25895 net.cpp:339] score-fr -> score
I0721 00:03:09.074421 25895 net.cpp:114] Setting up score-fr
I0721 00:03:09.074455 25895 net.cpp:121] Top shape: 1 2 13 13 (338)
I0721 00:03:09.074470 25895 layer_factory.hpp:74] Creating layer score2
I0721 00:03:09.074483 25895 net.cpp:85] Creating Layer score2
I0721 00:03:09.074489 25895 net.cpp:381] score2 <- score
I0721 00:03:09.074501 25895 net.cpp:339] score2 -> score2
I0721 00:03:09.074515 25895 net.cpp:114] Setting up score2
I0721 00:03:09.074544 25895 net.cpp:121] Top shape: 1 2 28 28 (1568)
I0721 00:03:09.074565 25895 layer_factory.hpp:74] Creating layer score2_score2_0_split
I0721 00:03:09.074580 25895 net.cpp:85] Creating Layer score2_score2_0_split
I0721 00:03:09.074590 25895 net.cpp:381] score2_score2_0_split <- score2
I0721 00:03:09.074601 25895 net.cpp:339] score2_score2_0_split -> score2_score2_0_split_0
I0721 00:03:09.074612 25895 net.cpp:339] score2_score2_0_split -> score2_score2_0_split_1
I0721 00:03:09.074621 25895 net.cpp:114] Setting up score2_score2_0_split
I0721 00:03:09.074631 25895 net.cpp:121] Top shape: 1 2 28 28 (1568)
I0721 00:03:09.074646 25895 net.cpp:121] Top shape: 1 2 28 28 (1568)
I0721 00:03:09.074654 25895 layer_factory.hpp:74] Creating layer score-pool4
I0721 00:03:09.074676 25895 net.cpp:85] Creating Layer score-pool4
I0721 00:03:09.074687 25895 net.cpp:381] score-pool4 <- pool4_pool4_0_split_1
I0721 00:03:09.074702 25895 net.cpp:339] score-pool4 -> score-pool4
I0721 00:03:09.074714 25895 net.cpp:114] Setting up score-pool4
I0721 00:03:09.074736 25895 net.cpp:121] Top shape: 1 2 37 37 (2738)
I0721 00:03:09.074750 25895 layer_factory.hpp:74] Creating layer crop
I0721 00:03:09.074762 25895 net.cpp:85] Creating Layer crop
I0721 00:03:09.074769 25895 net.cpp:381] crop <- score-pool4
I0721 00:03:09.074779 25895 net.cpp:381] crop <- score2_score2_0_split_0
I0721 00:03:09.074790 25895 net.cpp:339] crop -> score-pool4c
I0721 00:03:09.074800 25895 net.cpp:114] Setting up crop
I0721 00:03:09.074854 25895 net.cpp:121] Top shape: 1 2 28 28 (1568)
I0721 00:03:09.074863 25895 layer_factory.hpp:74] Creating layer fuse
I0721 00:03:09.074877 25895 net.cpp:85] Creating Layer fuse
I0721 00:03:09.074885 25895 net.cpp:381] fuse <- score2_score2_0_split_1
I0721 00:03:09.074894 25895 net.cpp:381] fuse <- score-pool4c
I0721 00:03:09.074908 25895 net.cpp:339] fuse -> score-fused
I0721 00:03:09.074918 25895 net.cpp:114] Setting up fuse
I0721 00:03:09.074929 25895 net.cpp:121] Top shape: 1 2 28 28 (1568)
I0721 00:03:09.074937 25895 layer_factory.hpp:74] Creating layer score4
I0721 00:03:09.074949 25895 net.cpp:85] Creating Layer score4
I0721 00:03:09.074959 25895 net.cpp:381] score4 <- score-fused
I0721 00:03:09.074967 25895 net.cpp:339] score4 -> score4
I0721 00:03:09.075000 25895 net.cpp:114] Setting up score4
I0721 00:03:09.075016 25895 net.cpp:121] Top shape: 1 2 58 58 (6728)
I0721 00:03:09.075031 25895 layer_factory.hpp:74] Creating layer score4_score4_0_split
I0721 00:03:09.075042 25895 net.cpp:85] Creating Layer score4_score4_0_split
I0721 00:03:09.075050 25895 net.cpp:381] score4_score4_0_split <- score4
I0721 00:03:09.075059 25895 net.cpp:339] score4_score4_0_split -> score4_score4_0_split_0
I0721 00:03:09.075069 25895 net.cpp:339] score4_score4_0_split -> score4_score4_0_split_1
I0721 00:03:09.075078 25895 net.cpp:114] Setting up score4_score4_0_split
I0721 00:03:09.075089 25895 net.cpp:121] Top shape: 1 2 58 58 (6728)
I0721 00:03:09.075103 25895 net.cpp:121] Top shape: 1 2 58 58 (6728)
I0721 00:03:09.075112 25895 layer_factory.hpp:74] Creating layer score-pool3
I0721 00:03:09.075124 25895 net.cpp:85] Creating Layer score-pool3
I0721 00:03:09.075132 25895 net.cpp:381] score-pool3 <- pool3_pool3_0_split_1
I0721 00:03:09.075141 25895 net.cpp:339] score-pool3 -> score-pool3
I0721 00:03:09.075151 25895 net.cpp:114] Setting up score-pool3
I0721 00:03:09.075177 25895 net.cpp:121] Top shape: 1 2 74 74 (10952)
I0721 00:03:09.075194 25895 layer_factory.hpp:74] Creating layer crop
I0721 00:03:09.075204 25895 net.cpp:85] Creating Layer crop
I0721 00:03:09.075212 25895 net.cpp:381] crop <- score-pool3
I0721 00:03:09.075223 25895 net.cpp:381] crop <- score4_score4_0_split_0
I0721 00:03:09.075234 25895 net.cpp:339] crop -> score-pool3c
I0721 00:03:09.075245 25895 net.cpp:114] Setting up crop
I0721 00:03:09.075292 25895 net.cpp:121] Top shape: 1 2 58 58 (6728)
I0721 00:03:09.075304 25895 layer_factory.hpp:74] Creating layer fuse
I0721 00:03:09.075319 25895 net.cpp:85] Creating Layer fuse
I0721 00:03:09.075332 25895 net.cpp:381] fuse <- score4_score4_0_split_1
I0721 00:03:09.075341 25895 net.cpp:381] fuse <- score-pool3c
I0721 00:03:09.075351 25895 net.cpp:339] fuse -> score-final
I0721 00:03:09.075364 25895 net.cpp:114] Setting up fuse
I0721 00:03:09.075374 25895 net.cpp:121] Top shape: 1 2 58 58 (6728)
I0721 00:03:09.075384 25895 layer_factory.hpp:74] Creating layer upsample
I0721 00:03:09.075393 25895 net.cpp:85] Creating Layer upsample
I0721 00:03:09.075402 25895 net.cpp:381] upsample <- score-final
I0721 00:03:09.075410 25895 net.cpp:339] upsample -> bigscore
I0721 00:03:09.075419 25895 net.cpp:114] Setting up upsample
I0721 00:03:09.075438 25895 net.cpp:121] Top shape: 1 2 472 472 (445568)
I0721 00:03:09.075446 25895 layer_factory.hpp:74] Creating layer crop
I0721 00:03:09.075456 25895 net.cpp:85] Creating Layer crop
I0721 00:03:09.075464 25895 net.cpp:381] crop <- bigscore
I0721 00:03:09.075472 25895 net.cpp:381] crop <- data_data_0_split_1
I0721 00:03:09.075482 25895 net.cpp:339] crop -> upscore
I0721 00:03:09.075491 25895 net.cpp:114] Setting up crop
I0721 00:03:09.075556 25895 net.cpp:121] Top shape: 1 2 388 388 (301088)
I0721 00:03:09.075566 25895 layer_factory.hpp:74] Creating layer upscore_crop_0_split
I0721 00:03:09.075579 25895 net.cpp:85] Creating Layer upscore_crop_0_split
I0721 00:03:09.075587 25895 net.cpp:381] upscore_crop_0_split <- upscore
I0721 00:03:09.075598 25895 net.cpp:339] upscore_crop_0_split -> upscore_crop_0_split_0
I0721 00:03:09.075610 25895 net.cpp:339] upscore_crop_0_split -> upscore_crop_0_split_1
I0721 00:03:09.075623 25895 net.cpp:114] Setting up upscore_crop_0_split
I0721 00:03:09.075631 25895 net.cpp:121] Top shape: 1 2 388 388 (301088)
I0721 00:03:09.075640 25895 net.cpp:121] Top shape: 1 2 388 388 (301088)
I0721 00:03:09.075647 25895 layer_factory.hpp:74] Creating layer loss
I0721 00:03:09.075657 25895 net.cpp:85] Creating Layer loss
I0721 00:03:09.075665 25895 net.cpp:381] loss <- upscore_crop_0_split_0
I0721 00:03:09.075673 25895 net.cpp:381] loss <- label_data_1_split_0
I0721 00:03:09.075683 25895 net.cpp:339] loss -> loss
I0721 00:03:09.075693 25895 net.cpp:114] Setting up loss
I0721 00:03:09.075703 25895 layer_factory.hpp:74] Creating layer loss
I0721 00:03:09.076249 25895 net.cpp:121] Top shape: (1)
I0721 00:03:09.076292 25895 net.cpp:123]     with loss weight 1
I0721 00:03:09.076309 25895 layer_factory.hpp:74] Creating layer accuracy
I0721 00:03:09.076323 25895 net.cpp:85] Creating Layer accuracy
I0721 00:03:09.076333 25895 net.cpp:381] accuracy <- upscore_crop_0_split_1
I0721 00:03:09.076339 25895 net.cpp:381] accuracy <- label_data_1_split_1
I0721 00:03:09.076349 25895 net.cpp:339] accuracy -> accuracy
I0721 00:03:09.076360 25895 net.cpp:114] Setting up accuracy
I0721 00:03:09.076376 25895 net.cpp:121] Top shape: 1 1 1 3 (3)
I0721 00:03:09.076385 25895 net.cpp:170] accuracy does not need backward computation.
I0721 00:03:09.076392 25895 net.cpp:168] loss needs backward computation.
I0721 00:03:09.076401 25895 net.cpp:168] upscore_crop_0_split needs backward computation.
I0721 00:03:09.076408 25895 net.cpp:168] crop needs backward computation.
I0721 00:03:09.076416 25895 net.cpp:168] upsample needs backward computation.
…
