…
I0721 16:18:26.345913 11907 net.cpp:42] Initializing net from parameters: 
name: "FCN"
state {
  phase: TRAIN
}
layer {
  name: "data"
  type: "ImageSegData"
  top: "data"
  top: "label"
  include {
    phase: TRAIN
  }
  transform_param {
    mirror: true
    crop_size: 388
    mean_value: 104.008
    mean_value: 116.669
    mean_value: 122.675
  }
  image_data_param {
    source: "/media/BigDisk/xiaoyong/datafrommac/ourfacedata_train_2/traindatalist_2.txt"
    batch_size: 1
    shuffle: true
    root_folder: ""
    ignore_label: 255
    label_type: PIXEL
  }
}
layer {
  name: "conv1_1"
  type: "Convolution"
  bottom: "data"
  top: "conv1_1"
  param {
    lr_mult: 1
    decay_mult: 1
  }
  param {
    lr_mult: 2
    decay_mult: 0
  }
  convolution_param {
    num_output: 64
    pad: 100
    kernel_size: 3
    engine: CAFFE
  }
}
layer {
  name: "relu1_1"
  type: "ReLU"
  bottom: "conv1_1"
  top: "conv1_1"
}
layer {
  name: "conv1_2"
  type: "Convolution"
  bottom: "conv1_1"
  top: "conv1_2"
  param {
    lr_mult: 1
    decay_mult: 1
  }
  param {
    lr_mult: 2
    decay_mult: 0
  }
  convolution_param {
    num_output: 64
    pad: 1
    kernel_size: 3
    engine: CAFFE
  }
}
layer {
  name: "relu1_2"
  type: "ReLU"
  bottom: "conv1_2"
  top: "conv1_2"
}
layer {
  name: "pool1"
  type: "Pooling"
  bottom: "conv1_2"
  top: "pool1"
  pooling_param {
    pool: MAX
    kernel_size: 2
    stride: 2
  }
}
layer {
  name: "conv2_1"
  type: "Convolution"
  bottom: "pool1"
  top: "conv2_1"
  param {
    lr_mult: 1
    decay_mult: 1
  }
  param {
    lr_mult: 2
    decay_mult: 0
  }
  convolution_param {
    num_output: 128
    pad: 1
    kernel_size: 3
    engine: CAFFE
  }
}
layer {
  name: "relu2_1"
  type: "ReLU"
  bottom: "conv2_1"
  top: "conv2_1"
}
layer {
  name: "conv2_2"
  type: "Convolution"
  bottom: "conv2_1"
  top: "conv2_2"
  param {
    lr_mult: 1
    decay_mult: 1
  }
  param {
    lr_mult: 2
    decay_mult: 0
  }
  convolution_param {
    num_output: 128
    pad: 1
    kernel_size: 3
    engine: CAFFE
  }
}
layer {
  name: "relu2_2"
  type: "ReLU"
  bottom: "conv2_2"
  top: "conv2_2"
}
layer {
  name: "pool2"
  type: "Pooling"
  bottom: "conv2_2"
  top: "pool2"
  pooling_param {
    pool: MAX
    kernel_size: 2
    stride: 2
  }
}
layer {
  name: "conv3_1"
  type: "Convolution"
  bottom: "pool2"
  top: "conv3_1"
  param {
    lr_mult: 1
    decay_mult: 1
  }
  param {
    lr_mult: 2
    decay_mult: 0
  }
  convolution_param {
    num_output: 256
    pad: 1
    kernel_size: 3
    engine: CAFFE
  }
}
layer {
  name: "relu3_1"
  type: "ReLU"
  bottom: "conv3_1"
  top: "conv3_1"
}
layer {
  name: "conv3_2"
  type: "Convolution"
  bottom: "conv3_1"
  top: "conv3_2"
  param {
    lr_mult: 1
    decay_mult: 1
  }
  param {
    lr_mult: 2
    decay_mult: 0
  }
  convolution_param {
    num_output: 256
    pad: 1
    kernel_size: 3
    engine: CAFFE
  }
}
layer {
  name: "relu3_2"
  type: "ReLU"
  bottom: "conv3_2"
  top: "conv3_2"
}
layer {
  name: "conv3_3"
  type: "Convolution"
  bottom: "conv3_2"
  top: "conv3_3"
  param {
    lr_mult: 1
    decay_mult: 1
  }
  param {
    lr_mult: 2
    decay_mult: 0
  }
  convolution_param {
    num_output: 256
    pad: 1
    kernel_size: 3
    engine: CAFFE
  }
}
layer {
  name: "relu3_3"
  type: "ReLU"
  bottom: "conv3_3"
  top: "conv3_3"
}
layer {
  name: "pool3"
  type: "Pooling"
  bottom: "conv3_3"
  top: "pool3"
  pooling_param {
    pool: MAX
    kernel_size: 2
    stride: 2
  }
}
layer {
  name: "conv4_1"
  type: "Convolution"
  bottom: "pool3"
  top: "conv4_1"
  param {
    lr_mult: 1
    decay_mult: 1
  }
  param {
    lr_mult: 2
    decay_mult: 0
  }
  convolution_param {
    num_output: 512
    pad: 1
    kernel_size: 3
    engine: CAFFE
  }
}
layer {
  name: "relu4_1"
  type: "ReLU"
  bottom: "conv4_1"
  top: "conv4_1"
}
layer {
  name: "conv4_2"
  type: "Convolution"
  bottom: "conv4_1"
  top: "conv4_2"
  param {
    lr_mult: 1
    decay_mult: 1
  }
  param {
    lr_mult: 2
    decay_mult: 0
  }
  convolution_param {
    num_output: 512
    pad: 1
    kernel_size: 3
    engine: CAFFE
  }
}
layer {
  name: "relu4_2"
  type: "ReLU"
  bottom: "conv4_2"
  top: "conv4_2"
}
layer {
  name: "conv4_3"
  type: "Convolution"
  bottom: "conv4_2"
  top: "conv4_3"
  param {
    lr_mult: 1
    decay_mult: 1
  }
  param {
    lr_mult: 2
    decay_mult: 0
  }
  convolution_param {
    num_output: 512
    pad: 1
    kernel_size: 3
    engine: CAFFE
  }
}
layer {
  name: "relu4_3"
  type: "ReLU"
  bottom: "conv4_3"
  top: "conv4_3"
}
layer {
  name: "pool4"
  type: "Pooling"
  bottom: "conv4_3"
  top: "pool4"
  pooling_param {
    pool: MAX
    kernel_size: 2
    stride: 2
  }
}
layer {
  name: "conv5_1"
  type: "Convolution"
  bottom: "pool4"
  top: "conv5_1"
  param {
    lr_mult: 1
    decay_mult: 1
  }
  param {
    lr_mult: 2
    decay_mult: 0
  }
  convolution_param {
    num_output: 512
    pad: 1
    kernel_size: 3
    engine: CAFFE
  }
}
layer {
  name: "relu5_1"
  type: "ReLU"
  bottom: "conv5_1"
  top: "conv5_1"
}
layer {
  name: "conv5_2"
  type: "Convolution"
  bottom: "conv5_1"
  top: "conv5_2"
  param {
    lr_mult: 1
    decay_mult: 1
  }
  param {
    lr_mult: 2
    decay_mult: 0
  }
  convolution_param {
    num_output: 512
    pad: 1
    kernel_size: 3
    engine: CAFFE
  }
}
layer {
  name: "relu5_2"
  type: "ReLU"
  bottom: "conv5_2"
  top: "conv5_2"
}
layer {
  name: "conv5_3"
  type: "Convolution"
  bottom: "conv5_2"
  top: "conv5_3"
  param {
    lr_mult: 1
    decay_mult: 1
  }
  param {
    lr_mult: 2
    decay_mult: 0
  }
  convolution_param {
    num_output: 512
    pad: 1
    kernel_size: 3
    engine: CAFFE
  }
}
layer {
  name: "relu5_3"
  type: "ReLU"
  bottom: "conv5_3"
  top: "conv5_3"
}
layer {
  name: "pool5"
  type: "Pooling"
  bottom: "conv5_3"
  top: "pool5"
  pooling_param {
    pool: MAX
    kernel_size: 2
    stride: 2
  }
}
layer {
  name: "fc6"
  type: "Convolution"
  bottom: "pool5"
  top: "fc6"
  param {
    lr_mult: 1
    decay_mult: 1
  }
  param {
    lr_mult: 2
    decay_mult: 0
  }
  convolution_param {
    num_output: 4096
    kernel_size: 7
    engine: CAFFE
  }
}
layer {
  name: "relu6"
  type: "ReLU"
  bottom: "fc6"
  top: "fc6"
}
layer {
  name: "drop6"
  type: "Dropout"
  bottom: "fc6"
  top: "fc6"
  dropout_param {
    dropout_ratio: 0.5
  }
}
layer {
  name: "fc7"
  type: "Convolution"
  bottom: "fc6"
  top: "fc7"
  param {
    lr_mult: 1
    decay_mult: 1
  }
  param {
    lr_mult: 2
    decay_mult: 0
  }
  convolution_param {
    num_output: 4096
    kernel_size: 1
    engine: CAFFE
  }
}
layer {
  name: "relu7"
  type: "ReLU"
  bottom: "fc7"
  top: "fc7"
}
layer {
  name: "drop7"
  type: "Dropout"
  bottom: "fc7"
  top: "fc7"
  dropout_param {
    dropout_ratio: 0.5
  }
}
layer {
  name: "score-fr"
  type: "Convolution"
  bottom: "fc7"
  top: "score"
  param {
    lr_mult: 1
    decay_mult: 1
  }
  param {
    lr_mult: 2
    decay_mult: 0
  }
  convolution_param {
    num_output: 2
    kernel_size: 1
    engine: CAFFE
  }
}
layer {
  name: "score2"
  type: "Deconvolution"
  bottom: "score"
  top: "score2"
  param {
    lr_mult: 1
    decay_mult: 1
  }
  param {
    lr_mult: 2
    decay_mult: 0
  }
  convolution_param {
    num_output: 2
    kernel_size: 4
    stride: 2
  }
}
layer {
  name: "score-pool4"
  type: "Convolution"
  bottom: "pool4"
  top: "score-pool4"
  param {
    lr_mult: 1
    decay_mult: 1
  }
  param {
    lr_mult: 2
    decay_mult: 0
  }
  convolution_param {
    num_output: 2
    kernel_size: 1
    engine: CAFFE
  }
}
layer {
  name: "crop"
  type: "Crop"
  bottom: "score-pool4"
  bottom: "score2"
  top: "score-pool4c"
}
layer {
  name: "fuse"
  type: "Eltwise"
  bottom: "score2"
  bottom: "score-pool4c"
  top: "score-fused"
  eltwise_param {
    operation: SUM
  }
}
layer {
  name: "score4"
  type: "Deconvolution"
  bottom: "score-fused"
  top: "score4"
  param {
    lr_mult: 1
    decay_mult: 1
  }
  convolution_param {
    num_output: 2
    bias_term: false
    kernel_size: 4
    stride: 2
  }
}
layer {
  name: "score-pool3"
  type: "Convolution"
  bottom: "pool3"
  top: "score-pool3"
  param {
    lr_mult: 1
    decay_mult: 1
  }
  param {
    lr_mult: 2
    decay_mult: 0
  }
  convolution_param {
    num_output: 2
    kernel_size: 1
    engine: CAFFE
  }
}
layer {
  name: "crop"
  type: "Crop"
  bottom: "score-pool3"
  bottom: "score4"
  top: "score-pool3c"
}
layer {
  name: "fuse"
  type: "Eltwise"
  bottom: "score4"
  bottom: "score-pool3c"
  top: "score-final"
  eltwise_param {
    operation: SUM
  }
}
layer {
  name: "upsample"
  type: "Deconvolution"
  bottom: "score-final"
  top: "bigscore"
  param {
    lr_mult: 1
  }
  convolution_param {
    num_output: 2
    bias_term: false
    kernel_size: 16
    stride: 8
  }
}
layer {
  name: "crop"
  type: "Crop"
  bottom: "bigscore"
  bottom: "data"
  top: "upscore"
}
layer {
  name: "loss"
  type: "SoftmaxWithLoss"
  bottom: "upscore"
  bottom: "label"
  top: "loss"
  loss_param {
    ignore_label: 255
  }
}
I0721 16:18:26.346242 11907 layer_factory.hpp:74] Creating layer data
I0721 16:18:26.346276 11907 net.cpp:85] Creating Layer data
I0721 16:18:26.346290 11907 net.cpp:339] data -> data
I0721 16:18:26.346317 11907 net.cpp:339] data -> label
I0721 16:18:26.346335 11907 net.cpp:339] data -> (automatic)
I0721 16:18:26.346349 11907 net.cpp:114] Setting up data
I0721 16:18:26.346916 11907 image_seg_data_layer.cpp:46] Opening file /media/BigDisk/xiaoyong/datafrommac/ourfacedata_train_2/traindatalist_2.txt
I0721 16:18:26.348156 11907 image_seg_data_layer.cpp:63] Shuffling data
I0721 16:18:26.348292 11907 image_seg_data_layer.cpp:68] A total of 900 images.
I0721 16:18:26.362455 11907 image_seg_data_layer.cpp:114] output data size: 1,3,388,388
I0721 16:18:26.362471 11907 image_seg_data_layer.cpp:118] output label size: 1,1,388,388
I0721 16:18:26.362478 11907 image_seg_data_layer.cpp:122] output data_dim size: 1,1,1,2
I0721 16:18:26.362885 11907 net.cpp:121] Top shape: 1 3 388 388 (451632)
I0721 16:18:26.362900 11907 net.cpp:121] Top shape: 1 1 388 388 (150544)
I0721 16:18:26.362910 11907 net.cpp:121] Top shape: 1 1 1 2 (2)
I0721 16:18:26.362920 11907 layer_factory.hpp:74] Creating layer data_data_0_split
I0721 16:18:26.362931 11907 net.cpp:85] Creating Layer data_data_0_split
I0721 16:18:26.362951 11907 net.cpp:381] data_data_0_split <- data
I0721 16:18:26.362969 11907 net.cpp:339] data_data_0_split -> data_data_0_split_0
I0721 16:18:26.363008 11907 net.cpp:339] data_data_0_split -> data_data_0_split_1
I0721 16:18:26.363025 11907 net.cpp:114] Setting up data_data_0_split
I0721 16:18:26.363040 11907 net.cpp:121] Top shape: 1 3 388 388 (451632)
I0721 16:18:26.363064 11907 net.cpp:121] Top shape: 1 3 388 388 (451632)
I0721 16:18:26.363070 11907 layer_factory.hpp:74] Creating layer conv1_1
I0721 16:18:26.363090 11907 net.cpp:85] Creating Layer conv1_1
I0721 16:18:26.363111 11907 net.cpp:381] conv1_1 <- data_data_0_split_0
I0721 16:18:26.363126 11907 net.cpp:339] conv1_1 -> conv1_1
I0721 16:18:26.363162 11907 net.cpp:114] Setting up conv1_1
I0721 16:18:26.364361 11907 net.cpp:121] Top shape: 1 64 586 586 (21977344)
I0721 16:18:26.364392 11907 layer_factory.hpp:74] Creating layer relu1_1
I0721 16:18:26.364410 11907 net.cpp:85] Creating Layer relu1_1
I0721 16:18:26.364426 11907 net.cpp:381] relu1_1 <- conv1_1
I0721 16:18:26.364441 11907 net.cpp:328] relu1_1 -> conv1_1 (in-place)
I0721 16:18:26.364464 11907 net.cpp:114] Setting up relu1_1
I0721 16:18:26.364478 11907 net.cpp:121] Top shape: 1 64 586 586 (21977344)
I0721 16:18:26.364492 11907 layer_factory.hpp:74] Creating layer conv1_2
I0721 16:18:26.364511 11907 net.cpp:85] Creating Layer conv1_2
I0721 16:18:26.364521 11907 net.cpp:381] conv1_2 <- conv1_1
I0721 16:18:26.364532 11907 net.cpp:339] conv1_2 -> conv1_2
I0721 16:18:26.364547 11907 net.cpp:114] Setting up conv1_2
I0721 16:18:26.366261 11907 net.cpp:121] Top shape: 1 64 586 586 (21977344)
I0721 16:18:26.366284 11907 layer_factory.hpp:74] Creating layer relu1_2
I0721 16:18:26.366297 11907 net.cpp:85] Creating Layer relu1_2
I0721 16:18:26.366305 11907 net.cpp:381] relu1_2 <- conv1_2
I0721 16:18:26.366315 11907 net.cpp:328] relu1_2 -> conv1_2 (in-place)
I0721 16:18:26.366328 11907 net.cpp:114] Setting up relu1_2
I0721 16:18:26.366338 11907 net.cpp:121] Top shape: 1 64 586 586 (21977344)
I0721 16:18:26.366346 11907 layer_factory.hpp:74] Creating layer pool1
I0721 16:18:26.366360 11907 net.cpp:85] Creating Layer pool1
I0721 16:18:26.366370 11907 net.cpp:381] pool1 <- conv1_2
I0721 16:18:26.366381 11907 net.cpp:339] pool1 -> pool1
I0721 16:18:26.366392 11907 net.cpp:114] Setting up pool1
I0721 16:18:26.366415 11907 net.cpp:121] Top shape: 1 64 293 293 (5494336)
I0721 16:18:26.366425 11907 layer_factory.hpp:74] Creating layer conv2_1
I0721 16:18:26.366441 11907 net.cpp:85] Creating Layer conv2_1
I0721 16:18:26.366451 11907 net.cpp:381] conv2_1 <- pool1
I0721 16:18:26.366463 11907 net.cpp:339] conv2_1 -> conv2_1
I0721 16:18:26.366477 11907 net.cpp:114] Setting up conv2_1
I0721 16:18:26.367214 11907 net.cpp:121] Top shape: 1 128 293 293 (10988672)
I0721 16:18:26.367240 11907 layer_factory.hpp:74] Creating layer relu2_1
I0721 16:18:26.367254 11907 net.cpp:85] Creating Layer relu2_1
I0721 16:18:26.367264 11907 net.cpp:381] relu2_1 <- conv2_1
I0721 16:18:26.367276 11907 net.cpp:328] relu2_1 -> conv2_1 (in-place)
I0721 16:18:26.367297 11907 net.cpp:114] Setting up relu2_1
I0721 16:18:26.367311 11907 net.cpp:121] Top shape: 1 128 293 293 (10988672)
I0721 16:18:26.367317 11907 layer_factory.hpp:74] Creating layer conv2_2
I0721 16:18:26.367331 11907 net.cpp:85] Creating Layer conv2_2
I0721 16:18:26.367350 11907 net.cpp:381] conv2_2 <- conv2_1
I0721 16:18:26.367363 11907 net.cpp:339] conv2_2 -> conv2_2
I0721 16:18:26.367377 11907 net.cpp:114] Setting up conv2_2
I0721 16:18:26.368185 11907 net.cpp:121] Top shape: 1 128 293 293 (10988672)
I0721 16:18:26.368204 11907 layer_factory.hpp:74] Creating layer relu2_2
I0721 16:18:26.368217 11907 net.cpp:85] Creating Layer relu2_2
I0721 16:18:26.368224 11907 net.cpp:381] relu2_2 <- conv2_2
I0721 16:18:26.368233 11907 net.cpp:328] relu2_2 -> conv2_2 (in-place)
I0721 16:18:26.368247 11907 net.cpp:114] Setting up relu2_2
I0721 16:18:26.368257 11907 net.cpp:121] Top shape: 1 128 293 293 (10988672)
I0721 16:18:26.368266 11907 layer_factory.hpp:74] Creating layer pool2
I0721 16:18:26.368315 11907 net.cpp:85] Creating Layer pool2
I0721 16:18:26.368330 11907 net.cpp:381] pool2 <- conv2_2
I0721 16:18:26.368345 11907 net.cpp:339] pool2 -> pool2
I0721 16:18:26.368355 11907 net.cpp:114] Setting up pool2
I0721 16:18:26.368369 11907 net.cpp:121] Top shape: 1 128 147 147 (2765952)
I0721 16:18:26.368379 11907 layer_factory.hpp:74] Creating layer conv3_1
I0721 16:18:26.368393 11907 net.cpp:85] Creating Layer conv3_1
I0721 16:18:26.368402 11907 net.cpp:381] conv3_1 <- pool2
I0721 16:18:26.368414 11907 net.cpp:339] conv3_1 -> conv3_1
I0721 16:18:26.368428 11907 net.cpp:114] Setting up conv3_1
I0721 16:18:26.368989 11907 net.cpp:121] Top shape: 1 256 147 147 (5531904)
I0721 16:18:26.369011 11907 layer_factory.hpp:74] Creating layer relu3_1
I0721 16:18:26.369052 11907 net.cpp:85] Creating Layer relu3_1
I0721 16:18:26.369060 11907 net.cpp:381] relu3_1 <- conv3_1
I0721 16:18:26.369076 11907 net.cpp:328] relu3_1 -> conv3_1 (in-place)
I0721 16:18:26.369096 11907 net.cpp:114] Setting up relu3_1
I0721 16:18:26.369107 11907 net.cpp:121] Top shape: 1 256 147 147 (5531904)
I0721 16:18:26.369117 11907 layer_factory.hpp:74] Creating layer conv3_2
I0721 16:18:26.369135 11907 net.cpp:85] Creating Layer conv3_2
I0721 16:18:26.369150 11907 net.cpp:381] conv3_2 <- conv3_1
I0721 16:18:26.369163 11907 net.cpp:339] conv3_2 -> conv3_2
I0721 16:18:26.369179 11907 net.cpp:114] Setting up conv3_2
I0721 16:18:26.371384 11907 net.cpp:121] Top shape: 1 256 147 147 (5531904)
I0721 16:18:26.371412 11907 layer_factory.hpp:74] Creating layer relu3_2
I0721 16:18:26.371429 11907 net.cpp:85] Creating Layer relu3_2
I0721 16:18:26.371438 11907 net.cpp:381] relu3_2 <- conv3_2
I0721 16:18:26.371450 11907 net.cpp:328] relu3_2 -> conv3_2 (in-place)
I0721 16:18:26.371469 11907 net.cpp:114] Setting up relu3_2
I0721 16:18:26.371482 11907 net.cpp:121] Top shape: 1 256 147 147 (5531904)
I0721 16:18:26.371498 11907 layer_factory.hpp:74] Creating layer conv3_3
I0721 16:18:26.371521 11907 net.cpp:85] Creating Layer conv3_3
I0721 16:18:26.371543 11907 net.cpp:381] conv3_3 <- conv3_2
I0721 16:18:26.371559 11907 net.cpp:339] conv3_3 -> conv3_3
I0721 16:18:26.371579 11907 net.cpp:114] Setting up conv3_3
I0721 16:18:26.373461 11907 net.cpp:121] Top shape: 1 256 147 147 (5531904)
I0721 16:18:26.373510 11907 layer_factory.hpp:74] Creating layer relu3_3
I0721 16:18:26.373541 11907 net.cpp:85] Creating Layer relu3_3
I0721 16:18:26.373565 11907 net.cpp:381] relu3_3 <- conv3_3
I0721 16:18:26.373589 11907 net.cpp:328] relu3_3 -> conv3_3 (in-place)
I0721 16:18:26.373617 11907 net.cpp:114] Setting up relu3_3
I0721 16:18:26.373643 11907 net.cpp:121] Top shape: 1 256 147 147 (5531904)
I0721 16:18:26.373673 11907 layer_factory.hpp:74] Creating layer pool3
I0721 16:18:26.373709 11907 net.cpp:85] Creating Layer pool3
I0721 16:18:26.373738 11907 net.cpp:381] pool3 <- conv3_3
I0721 16:18:26.373760 11907 net.cpp:339] pool3 -> pool3
I0721 16:18:26.373785 11907 net.cpp:114] Setting up pool3
I0721 16:18:26.373813 11907 net.cpp:121] Top shape: 1 256 74 74 (1401856)
I0721 16:18:26.373841 11907 layer_factory.hpp:74] Creating layer pool3_pool3_0_split
I0721 16:18:26.373863 11907 net.cpp:85] Creating Layer pool3_pool3_0_split
I0721 16:18:26.373881 11907 net.cpp:381] pool3_pool3_0_split <- pool3
I0721 16:18:26.373903 11907 net.cpp:339] pool3_pool3_0_split -> pool3_pool3_0_split_0
I0721 16:18:26.373929 11907 net.cpp:339] pool3_pool3_0_split -> pool3_pool3_0_split_1
I0721 16:18:26.373957 11907 net.cpp:114] Setting up pool3_pool3_0_split
I0721 16:18:26.373982 11907 net.cpp:121] Top shape: 1 256 74 74 (1401856)
I0721 16:18:26.374002 11907 net.cpp:121] Top shape: 1 256 74 74 (1401856)
I0721 16:18:26.374022 11907 layer_factory.hpp:74] Creating layer conv4_1
I0721 16:18:26.374047 11907 net.cpp:85] Creating Layer conv4_1
I0721 16:18:26.374073 11907 net.cpp:381] conv4_1 <- pool3_pool3_0_split_0
I0721 16:18:26.374096 11907 net.cpp:339] conv4_1 -> conv4_1
I0721 16:18:26.374121 11907 net.cpp:114] Setting up conv4_1
I0721 16:18:26.377640 11907 net.cpp:121] Top shape: 1 512 74 74 (2803712)
I0721 16:18:26.377668 11907 layer_factory.hpp:74] Creating layer relu4_1
I0721 16:18:26.377682 11907 net.cpp:85] Creating Layer relu4_1
I0721 16:18:26.377693 11907 net.cpp:381] relu4_1 <- conv4_1
I0721 16:18:26.377706 11907 net.cpp:328] relu4_1 -> conv4_1 (in-place)
I0721 16:18:26.377719 11907 net.cpp:114] Setting up relu4_1
I0721 16:18:26.377732 11907 net.cpp:121] Top shape: 1 512 74 74 (2803712)
I0721 16:18:26.377744 11907 layer_factory.hpp:74] Creating layer conv4_2
I0721 16:18:26.377760 11907 net.cpp:85] Creating Layer conv4_2
I0721 16:18:26.377775 11907 net.cpp:381] conv4_2 <- conv4_1
I0721 16:18:26.377789 11907 net.cpp:339] conv4_2 -> conv4_2
I0721 16:18:26.377804 11907 net.cpp:114] Setting up conv4_2
I0721 16:18:26.381656 11907 net.cpp:121] Top shape: 1 512 74 74 (2803712)
I0721 16:18:26.381685 11907 layer_factory.hpp:74] Creating layer relu4_2
I0721 16:18:26.381697 11907 net.cpp:85] Creating Layer relu4_2
I0721 16:18:26.381708 11907 net.cpp:381] relu4_2 <- conv4_2
I0721 16:18:26.381721 11907 net.cpp:328] relu4_2 -> conv4_2 (in-place)
I0721 16:18:26.381732 11907 net.cpp:114] Setting up relu4_2
I0721 16:18:26.381752 11907 net.cpp:121] Top shape: 1 512 74 74 (2803712)
I0721 16:18:26.381760 11907 layer_factory.hpp:74] Creating layer conv4_3
I0721 16:18:26.381775 11907 net.cpp:85] Creating Layer conv4_3
I0721 16:18:26.381796 11907 net.cpp:381] conv4_3 <- conv4_2
I0721 16:18:26.381811 11907 net.cpp:339] conv4_3 -> conv4_3
I0721 16:18:26.381827 11907 net.cpp:114] Setting up conv4_3
I0721 16:18:26.560999 11907 net.cpp:121] Top shape: 1 512 74 74 (2803712)
I0721 16:18:26.561031 11907 layer_factory.hpp:74] Creating layer relu4_3
I0721 16:18:26.561048 11907 net.cpp:85] Creating Layer relu4_3
I0721 16:18:26.561058 11907 net.cpp:381] relu4_3 <- conv4_3
I0721 16:18:26.561070 11907 net.cpp:328] relu4_3 -> conv4_3 (in-place)
I0721 16:18:26.561089 11907 net.cpp:114] Setting up relu4_3
I0721 16:18:26.561107 11907 net.cpp:121] Top shape: 1 512 74 74 (2803712)
I0721 16:18:26.561115 11907 layer_factory.hpp:74] Creating layer pool4
I0721 16:18:26.561135 11907 net.cpp:85] Creating Layer pool4
I0721 16:18:26.561142 11907 net.cpp:381] pool4 <- conv4_3
I0721 16:18:26.561166 11907 net.cpp:339] pool4 -> pool4
I0721 16:18:26.561190 11907 net.cpp:114] Setting up pool4
I0721 16:18:26.561209 11907 net.cpp:121] Top shape: 1 512 37 37 (700928)
I0721 16:18:26.561226 11907 layer_factory.hpp:74] Creating layer pool4_pool4_0_split
I0721 16:18:26.561239 11907 net.cpp:85] Creating Layer pool4_pool4_0_split
I0721 16:18:26.561255 11907 net.cpp:381] pool4_pool4_0_split <- pool4
I0721 16:18:26.561269 11907 net.cpp:339] pool4_pool4_0_split -> pool4_pool4_0_split_0
I0721 16:18:26.561288 11907 net.cpp:339] pool4_pool4_0_split -> pool4_pool4_0_split_1
I0721 16:18:26.561300 11907 net.cpp:114] Setting up pool4_pool4_0_split
I0721 16:18:26.561318 11907 net.cpp:121] Top shape: 1 512 37 37 (700928)
I0721 16:18:26.561329 11907 net.cpp:121] Top shape: 1 512 37 37 (700928)
I0721 16:18:26.561344 11907 layer_factory.hpp:74] Creating layer conv5_1
I0721 16:18:26.561359 11907 net.cpp:85] Creating Layer conv5_1
I0721 16:18:26.561378 11907 net.cpp:381] conv5_1 <- pool4_pool4_0_split_0
I0721 16:18:26.561393 11907 net.cpp:339] conv5_1 -> conv5_1
I0721 16:18:26.561420 11907 net.cpp:114] Setting up conv5_1
I0721 16:18:26.606430 11907 net.cpp:121] Top shape: 1 512 37 37 (700928)
I0721 16:18:26.606475 11907 layer_factory.hpp:74] Creating layer relu5_1
I0721 16:18:26.606494 11907 net.cpp:85] Creating Layer relu5_1
I0721 16:18:26.606506 11907 net.cpp:381] relu5_1 <- conv5_1
I0721 16:18:26.606520 11907 net.cpp:328] relu5_1 -> conv5_1 (in-place)
I0721 16:18:26.606539 11907 net.cpp:114] Setting up relu5_1
I0721 16:18:26.606554 11907 net.cpp:121] Top shape: 1 512 37 37 (700928)
I0721 16:18:26.606614 11907 layer_factory.hpp:74] Creating layer conv5_2
I0721 16:18:26.606642 11907 net.cpp:85] Creating Layer conv5_2
I0721 16:18:26.606668 11907 net.cpp:381] conv5_2 <- conv5_1
I0721 16:18:26.606690 11907 net.cpp:339] conv5_2 -> conv5_2
I0721 16:18:26.606724 11907 net.cpp:114] Setting up conv5_2
I0721 16:18:26.629341 11907 net.cpp:121] Top shape: 1 512 37 37 (700928)
I0721 16:18:26.629377 11907 layer_factory.hpp:74] Creating layer relu5_2
I0721 16:18:26.629395 11907 net.cpp:85] Creating Layer relu5_2
I0721 16:18:26.629407 11907 net.cpp:381] relu5_2 <- conv5_2
I0721 16:18:26.629422 11907 net.cpp:328] relu5_2 -> conv5_2 (in-place)
I0721 16:18:26.629437 11907 net.cpp:114] Setting up relu5_2
I0721 16:18:26.629451 11907 net.cpp:121] Top shape: 1 512 37 37 (700928)
I0721 16:18:26.629458 11907 layer_factory.hpp:74] Creating layer conv5_3
I0721 16:18:26.629477 11907 net.cpp:85] Creating Layer conv5_3
I0721 16:18:26.629499 11907 net.cpp:381] conv5_3 <- conv5_2
I0721 16:18:26.629520 11907 net.cpp:339] conv5_3 -> conv5_3
I0721 16:18:26.629559 11907 net.cpp:114] Setting up conv5_3
I0721 16:18:26.646324 11907 net.cpp:121] Top shape: 1 512 37 37 (700928)
I0721 16:18:26.646358 11907 layer_factory.hpp:74] Creating layer relu5_3
I0721 16:18:26.646375 11907 net.cpp:85] Creating Layer relu5_3
I0721 16:18:26.646389 11907 net.cpp:381] relu5_3 <- conv5_3
I0721 16:18:26.646409 11907 net.cpp:328] relu5_3 -> conv5_3 (in-place)
I0721 16:18:26.646422 11907 net.cpp:114] Setting up relu5_3
I0721 16:18:26.646448 11907 net.cpp:121] Top shape: 1 512 37 37 (700928)
I0721 16:18:26.646458 11907 layer_factory.hpp:74] Creating layer pool5
I0721 16:18:26.646471 11907 net.cpp:85] Creating Layer pool5
I0721 16:18:26.646492 11907 net.cpp:381] pool5 <- conv5_3
I0721 16:18:26.646508 11907 net.cpp:339] pool5 -> pool5
I0721 16:18:26.646522 11907 net.cpp:114] Setting up pool5
I0721 16:18:26.646548 11907 net.cpp:121] Top shape: 1 512 19 19 (184832)
I0721 16:18:26.646565 11907 layer_factory.hpp:74] Creating layer fc6
I0721 16:18:26.646584 11907 net.cpp:85] Creating Layer fc6
I0721 16:18:26.646603 11907 net.cpp:381] fc6 <- pool5
I0721 16:18:26.646617 11907 net.cpp:339] fc6 -> fc6
I0721 16:18:26.646634 11907 net.cpp:114] Setting up fc6
I0721 16:18:27.986390 11907 net.cpp:121] Top shape: 1 4096 13 13 (692224)
I0721 16:18:27.986482 11907 layer_factory.hpp:74] Creating layer relu6
I0721 16:18:27.986513 11907 net.cpp:85] Creating Layer relu6
I0721 16:18:27.986536 11907 net.cpp:381] relu6 <- fc6
I0721 16:18:27.986559 11907 net.cpp:328] relu6 -> fc6 (in-place)
I0721 16:18:27.986583 11907 net.cpp:114] Setting up relu6
I0721 16:18:27.986604 11907 net.cpp:121] Top shape: 1 4096 13 13 (692224)
I0721 16:18:27.986624 11907 layer_factory.hpp:74] Creating layer drop6
I0721 16:18:27.986657 11907 net.cpp:85] Creating Layer drop6
I0721 16:18:27.986680 11907 net.cpp:381] drop6 <- fc6
I0721 16:18:27.986703 11907 net.cpp:328] drop6 -> fc6 (in-place)
I0721 16:18:27.986729 11907 net.cpp:114] Setting up drop6
I0721 16:18:27.986754 11907 net.cpp:121] Top shape: 1 4096 13 13 (692224)
I0721 16:18:27.986773 11907 layer_factory.hpp:74] Creating layer fc7
I0721 16:18:27.986798 11907 net.cpp:85] Creating Layer fc7
I0721 16:18:27.986819 11907 net.cpp:381] fc7 <- fc6
I0721 16:18:27.986848 11907 net.cpp:339] fc7 -> fc7
I0721 16:18:27.986876 11907 net.cpp:114] Setting up fc7
I0721 16:18:28.170879 11907 net.cpp:121] Top shape: 1 4096 13 13 (692224)
I0721 16:18:28.170917 11907 layer_factory.hpp:74] Creating layer relu7
I0721 16:18:28.170933 11907 net.cpp:85] Creating Layer relu7
I0721 16:18:28.170943 11907 net.cpp:381] relu7 <- fc7
I0721 16:18:28.170951 11907 net.cpp:328] relu7 -> fc7 (in-place)
I0721 16:18:28.170959 11907 net.cpp:114] Setting up relu7
I0721 16:18:28.170967 11907 net.cpp:121] Top shape: 1 4096 13 13 (692224)
I0721 16:18:28.170981 11907 layer_factory.hpp:74] Creating layer drop7
I0721 16:18:28.170989 11907 net.cpp:85] Creating Layer drop7
I0721 16:18:28.170997 11907 net.cpp:381] drop7 <- fc7
I0721 16:18:28.171006 11907 net.cpp:328] drop7 -> fc7 (in-place)
I0721 16:18:28.171015 11907 net.cpp:114] Setting up drop7
I0721 16:18:28.171036 11907 net.cpp:121] Top shape: 1 4096 13 13 (692224)
I0721 16:18:28.171046 11907 layer_factory.hpp:74] Creating layer score-fr
I0721 16:18:28.171061 11907 net.cpp:85] Creating Layer score-fr
I0721 16:18:28.171072 11907 net.cpp:381] score-fr <- fc7
I0721 16:18:28.171113 11907 net.cpp:339] score-fr -> score
I0721 16:18:28.171135 11907 net.cpp:114] Setting up score-fr
I0721 16:18:28.171174 11907 net.cpp:121] Top shape: 1 2 13 13 (338)
I0721 16:18:28.171190 11907 layer_factory.hpp:74] Creating layer score2
I0721 16:18:28.171206 11907 net.cpp:85] Creating Layer score2
I0721 16:18:28.171226 11907 net.cpp:381] score2 <- score
I0721 16:18:28.171241 11907 net.cpp:339] score2 -> score2
I0721 16:18:28.171262 11907 net.cpp:114] Setting up score2
I0721 16:18:28.171293 11907 net.cpp:121] Top shape: 1 2 28 28 (1568)
I0721 16:18:28.171329 11907 layer_factory.hpp:74] Creating layer score2_score2_0_split
I0721 16:18:28.171347 11907 net.cpp:85] Creating Layer score2_score2_0_split
I0721 16:18:28.171376 11907 net.cpp:381] score2_score2_0_split <- score2
I0721 16:18:28.171391 11907 net.cpp:339] score2_score2_0_split -> score2_score2_0_split_0
I0721 16:18:28.171408 11907 net.cpp:339] score2_score2_0_split -> score2_score2_0_split_1
I0721 16:18:28.171437 11907 net.cpp:114] Setting up score2_score2_0_split
I0721 16:18:28.171454 11907 net.cpp:121] Top shape: 1 2 28 28 (1568)
I0721 16:18:28.171464 11907 net.cpp:121] Top shape: 1 2 28 28 (1568)
I0721 16:18:28.171483 11907 layer_factory.hpp:74] Creating layer score-pool4
I0721 16:18:28.171499 11907 net.cpp:85] Creating Layer score-pool4
I0721 16:18:28.171517 11907 net.cpp:381] score-pool4 <- pool4_pool4_0_split_1
I0721 16:18:28.171531 11907 net.cpp:339] score-pool4 -> score-pool4
I0721 16:18:28.171556 11907 net.cpp:114] Setting up score-pool4
I0721 16:18:28.171583 11907 net.cpp:121] Top shape: 1 2 37 37 (2738)
I0721 16:18:28.171600 11907 layer_factory.hpp:74] Creating layer crop
I0721 16:18:28.171625 11907 net.cpp:85] Creating Layer crop
I0721 16:18:28.171638 11907 net.cpp:381] crop <- score-pool4
I0721 16:18:28.171653 11907 net.cpp:381] crop <- score2_score2_0_split_0
I0721 16:18:28.171669 11907 net.cpp:339] crop -> score-pool4c
I0721 16:18:28.171686 11907 net.cpp:114] Setting up crop
I0721 16:18:28.171754 11907 net.cpp:121] Top shape: 1 2 28 28 (1568)
I0721 16:18:28.171769 11907 layer_factory.hpp:74] Creating layer fuse
I0721 16:18:28.171785 11907 net.cpp:85] Creating Layer fuse
I0721 16:18:28.171798 11907 net.cpp:381] fuse <- score2_score2_0_split_1
I0721 16:18:28.171810 11907 net.cpp:381] fuse <- score-pool4c
I0721 16:18:28.171823 11907 net.cpp:339] fuse -> score-fused
I0721 16:18:28.171861 11907 net.cpp:114] Setting up fuse
I0721 16:18:28.171883 11907 net.cpp:121] Top shape: 1 2 28 28 (1568)
I0721 16:18:28.171896 11907 layer_factory.hpp:74] Creating layer score4
I0721 16:18:28.171916 11907 net.cpp:85] Creating Layer score4
I0721 16:18:28.171929 11907 net.cpp:381] score4 <- score-fused
I0721 16:18:28.171941 11907 net.cpp:339] score4 -> score4
I0721 16:18:28.171962 11907 net.cpp:114] Setting up score4
I0721 16:18:28.171975 11907 net.cpp:121] Top shape: 1 2 58 58 (6728)
I0721 16:18:28.172011 11907 layer_factory.hpp:74] Creating layer score4_score4_0_split
I0721 16:18:28.172029 11907 net.cpp:85] Creating Layer score4_score4_0_split
I0721 16:18:28.172039 11907 net.cpp:381] score4_score4_0_split <- score4
I0721 16:18:28.172054 11907 net.cpp:339] score4_score4_0_split -> score4_score4_0_split_0
I0721 16:18:28.172068 11907 net.cpp:339] score4_score4_0_split -> score4_score4_0_split_1
I0721 16:18:28.172080 11907 net.cpp:114] Setting up score4_score4_0_split
I0721 16:18:28.172098 11907 net.cpp:121] Top shape: 1 2 58 58 (6728)
I0721 16:18:28.172109 11907 net.cpp:121] Top shape: 1 2 58 58 (6728)
I0721 16:18:28.172118 11907 layer_factory.hpp:74] Creating layer score-pool3
I0721 16:18:28.172142 11907 net.cpp:85] Creating Layer score-pool3
I0721 16:18:28.172154 11907 net.cpp:381] score-pool3 <- pool3_pool3_0_split_1
I0721 16:18:28.172169 11907 net.cpp:339] score-pool3 -> score-pool3
I0721 16:18:28.172181 11907 net.cpp:114] Setting up score-pool3
I0721 16:18:28.172217 11907 net.cpp:121] Top shape: 1 2 74 74 (10952)
I0721 16:18:28.172237 11907 layer_factory.hpp:74] Creating layer crop
I0721 16:18:28.172253 11907 net.cpp:85] Creating Layer crop
I0721 16:18:28.172312 11907 net.cpp:381] crop <- score-pool3
I0721 16:18:28.172333 11907 net.cpp:381] crop <- score4_score4_0_split_0
I0721 16:18:28.172345 11907 net.cpp:339] crop -> score-pool3c
I0721 16:18:28.172361 11907 net.cpp:114] Setting up crop
I0721 16:18:28.172441 11907 net.cpp:121] Top shape: 1 2 58 58 (6728)
I0721 16:18:28.172456 11907 layer_factory.hpp:74] Creating layer fuse
I0721 16:18:28.172467 11907 net.cpp:85] Creating Layer fuse
I0721 16:18:28.172479 11907 net.cpp:381] fuse <- score4_score4_0_split_1
I0721 16:18:28.172497 11907 net.cpp:381] fuse <- score-pool3c
I0721 16:18:28.172508 11907 net.cpp:339] fuse -> score-final
I0721 16:18:28.172523 11907 net.cpp:114] Setting up fuse
I0721 16:18:28.172540 11907 net.cpp:121] Top shape: 1 2 58 58 (6728)
I0721 16:18:28.172564 11907 layer_factory.hpp:74] Creating layer upsample
I0721 16:18:28.172590 11907 net.cpp:85] Creating Layer upsample
I0721 16:18:28.172600 11907 net.cpp:381] upsample <- score-final
I0721 16:18:28.172612 11907 net.cpp:339] upsample -> bigscore
I0721 16:18:28.172631 11907 net.cpp:114] Setting up upsample
I0721 16:18:28.172659 11907 net.cpp:121] Top shape: 1 2 472 472 (445568)
I0721 16:18:28.172677 11907 layer_factory.hpp:74] Creating layer crop
I0721 16:18:28.172699 11907 net.cpp:85] Creating Layer crop
I0721 16:18:28.172716 11907 net.cpp:381] crop <- bigscore
I0721 16:18:28.172724 11907 net.cpp:381] crop <- data_data_0_split_1
I0721 16:18:28.172734 11907 net.cpp:339] crop -> upscore
I0721 16:18:28.172747 11907 net.cpp:114] Setting up crop
I0721 16:18:28.172830 11907 net.cpp:121] Top shape: 1 2 388 388 (301088)
I0721 16:18:28.172843 11907 layer_factory.hpp:74] Creating layer loss
I0721 16:18:28.172853 11907 net.cpp:85] Creating Layer loss
I0721 16:18:28.172871 11907 net.cpp:381] loss <- upscore
I0721 16:18:28.172885 11907 net.cpp:381] loss <- label
I0721 16:18:28.172899 11907 net.cpp:339] loss -> loss
I0721 16:18:28.172921 11907 net.cpp:114] Setting up loss
I0721 16:18:28.172938 11907 layer_factory.hpp:74] Creating layer loss
…
I0721 16:18:28.175753 11907 net.cpp:42] Initializing net from parameters: 
name: "FCN"
state {
  phase: TEST
}
layer {
  name: "data"
  type: "ImageSegData"
  top: "data"
  top: "label"
  include {
    phase: TEST
  }
  transform_param {
    mirror: true
    crop_size: 388
    mean_value: 104.008
    mean_value: 116.669
    mean_value: 122.675
  }
  image_data_param {
    source: "/media/BigDisk/xiaoyong/datafrommac/ourfacedata_train_2/ourtestdatalist.txt"
    batch_size: 1
    shuffle: true
    root_folder: ""
    ignore_label: 255
    label_type: PIXEL
  }
}
layer {
  name: "conv1_1"
  type: "Convolution"
  bottom: "data"
  top: "conv1_1"
  param {
    lr_mult: 1
    decay_mult: 1
  }
  param {
    lr_mult: 2
    decay_mult: 0
  }
  convolution_param {
    num_output: 64
    pad: 100
    kernel_size: 3
    engine: CAFFE
  }
}
layer {
  name: "relu1_1"
  type: "ReLU"
  bottom: "conv1_1"
  top: "conv1_1"
}
layer {
  name: "conv1_2"
  type: "Convolution"
  bottom: "conv1_1"
  top: "conv1_2"
  param {
    lr_mult: 1
    decay_mult: 1
  }
  param {
    lr_mult: 2
    decay_mult: 0
  }
  convolution_param {
    num_output: 64
    pad: 1
    kernel_size: 3
    engine: CAFFE
  }
}
layer {
  name: "relu1_2"
  type: "ReLU"
  bottom: "conv1_2"
  top: "conv1_2"
}
layer {
  name: "pool1"
  type: "Pooling"
  bottom: "conv1_2"
  top: "pool1"
  pooling_param {
    pool: MAX
    kernel_size: 2
    stride: 2
  }
}
layer {
  name: "conv2_1"
  type: "Convolution"
  bottom: "pool1"
  top: "conv2_1"
  param {
    lr_mult: 1
    decay_mult: 1
  }
  param {
    lr_mult: 2
    decay_mult: 0
  }
  convolution_param {
    num_output: 128
    pad: 1
    kernel_size: 3
    engine: CAFFE
  }
}
layer {
  name: "relu2_1"
  type: "ReLU"
  bottom: "conv2_1"
  top: "conv2_1"
}
layer {
  name: "conv2_2"
  type: "Convolution"
  bottom: "conv2_1"
  top: "conv2_2"
  param {
    lr_mult: 1
    decay_mult: 1
  }
  param {
    lr_mult: 2
    decay_mult: 0
  }
  convolution_param {
    num_output: 128
    pad: 1
    kernel_size: 3
    engine: CAFFE
  }
}
layer {
  name: "relu2_2"
  type: "ReLU"
  bottom: "conv2_2"
  top: "conv2_2"
}
layer {
  name: "pool2"
  type: "Pooling"
  bottom: "conv2_2"
  top: "pool2"
  pooling_param {
    pool: MAX
    kernel_size: 2
    stride: 2
  }
}
layer {
  name: "conv3_1"
  type: "Convolution"
  bottom: "pool2"
  top: "conv3_1"
  param {
    lr_mult: 1
    decay_mult: 1
  }
  param {
    lr_mult: 2
    decay_mult: 0
  }
  convolution_param {
    num_output: 256
    pad: 1
    kernel_size: 3
    engine: CAFFE
  }
}
layer {
  name: "relu3_1"
  type: "ReLU"
  bottom: "conv3_1"
  top: "conv3_1"
}
layer {
  name: "conv3_2"
  type: "Convolution"
  bottom: "conv3_1"
  top: "conv3_2"
  param {
    lr_mult: 1
    decay_mult: 1
  }
  param {
    lr_mult: 2
    decay_mult: 0
  }
  convolution_param {
    num_output: 256
    pad: 1
    kernel_size: 3
    engine: CAFFE
  }
}
layer {
  name: "relu3_2"
  type: "ReLU"
  bottom: "conv3_2"
  top: "conv3_2"
}
layer {
  name: "conv3_3"
  type: "Convolution"
  bottom: "conv3_2"
  top: "conv3_3"
  param {
    lr_mult: 1
    decay_mult: 1
  }
  param {
    lr_mult: 2
    decay_mult: 0
  }
  convolution_param {
    num_output: 256
    pad: 1
    kernel_size: 3
    engine: CAFFE
  }
}
layer {
  name: "relu3_3"
  type: "ReLU"
  bottom: "conv3_3"
  top: "conv3_3"
}
layer {
  name: "pool3"
  type: "Pooling"
  bottom: "conv3_3"
  top: "pool3"
  pooling_param {
    pool: MAX
    kernel_size: 2
    stride: 2
  }
}
layer {
  name: "conv4_1"
  type: "Convolution"
  bottom: "pool3"
  top: "conv4_1"
  param {
    lr_mult: 1
    decay_mult: 1
  }
  param {
    lr_mult: 2
    decay_mult: 0
  }
  convolution_param {
    num_output: 512
    pad: 1
    kernel_size: 3
    engine: CAFFE
  }
}
layer {
  name: "relu4_1"
  type: "ReLU"
  bottom: "conv4_1"
  top: "conv4_1"
}
layer {
  name: "conv4_2"
  type: "Convolution"
  bottom: "conv4_1"
  top: "conv4_2"
  param {
    lr_mult: 1
    decay_mult: 1
  }
  param {
    lr_mult: 2
    decay_mult: 0
  }
  convolution_param {
    num_output: 512
    pad: 1
    kernel_size: 3
    engine: CAFFE
  }
}
layer {
  name: "relu4_2"
  type: "ReLU"
  bottom: "conv4_2"
  top: "conv4_2"
}
layer {
  name: "conv4_3"
  type: "Convolution"
  bottom: "conv4_2"
  top: "conv4_3"
  param {
    lr_mult: 1
    decay_mult: 1
  }
  param {
    lr_mult: 2
    decay_mult: 0
  }
  convolution_param {
    num_output: 512
    pad: 1
    kernel_size: 3
    engine: CAFFE
  }
}
layer {
  name: "relu4_3"
  type: "ReLU"
  bottom: "conv4_3"
  top: "conv4_3"
}
layer {
  name: "pool4"
  type: "Pooling"
  bottom: "conv4_3"
  top: "pool4"
  pooling_param {
    pool: MAX
    kernel_size: 2
    stride: 2
  }
}
layer {
  name: "conv5_1"
  type: "Convolution"
  bottom: "pool4"
  top: "conv5_1"
  param {
    lr_mult: 1
    decay_mult: 1
  }
  param {
    lr_mult: 2
    decay_mult: 0
  }
  convolution_param {
    num_output: 512
    pad: 1
    kernel_size: 3
    engine: CAFFE
  }
}
layer {
  name: "relu5_1"
  type: "ReLU"
  bottom: "conv5_1"
  top: "conv5_1"
}
layer {
  name: "conv5_2"
  type: "Convolution"
  bottom: "conv5_1"
  top: "conv5_2"
  param {
    lr_mult: 1
    decay_mult: 1
  }
  param {
    lr_mult: 2
    decay_mult: 0
  }
  convolution_param {
    num_output: 512
    pad: 1
    kernel_size: 3
    engine: CAFFE
  }
}
layer {
  name: "relu5_2"
  type: "ReLU"
  bottom: "conv5_2"
  top: "conv5_2"
}
layer {
  name: "conv5_3"
  type: "Convolution"
  bottom: "conv5_2"
  top: "conv5_3"
  param {
    lr_mult: 1
    decay_mult: 1
  }
  param {
    lr_mult: 2
    decay_mult: 0
  }
  convolution_param {
    num_output: 512
    pad: 1
    kernel_size: 3
    engine: CAFFE
  }
}
layer {
  name: "relu5_3"
  type: "ReLU"
  bottom: "conv5_3"
  top: "conv5_3"
}
layer {
  name: "pool5"
  type: "Pooling"
  bottom: "conv5_3"
  top: "pool5"
  pooling_param {
    pool: MAX
    kernel_size: 2
    stride: 2
  }
}
layer {
  name: "fc6"
  type: "Convolution"
  bottom: "pool5"
  top: "fc6"
  param {
    lr_mult: 1
    decay_mult: 1
  }
  param {
    lr_mult: 2
    decay_mult: 0
  }
  convolution_param {
    num_output: 4096
    kernel_size: 7
    engine: CAFFE
  }
}
layer {
  name: "relu6"
  type: "ReLU"
  bottom: "fc6"
  top: "fc6"
}
layer {
  name: "drop6"
  type: "Dropout"
  bottom: "fc6"
  top: "fc6"
  dropout_param {
    dropout_ratio: 0.5
  }
}
layer {
  name: "fc7"
  type: "Convolution"
  bottom: "fc6"
  top: "fc7"
  param {
    lr_mult: 1
    decay_mult: 1
  }
  param {
    lr_mult: 2
    decay_mult: 0
  }
  convolution_param {
    num_output: 4096
    kernel_size: 1
    engine: CAFFE
  }
}
layer {
  name: "relu7"
  type: "ReLU"
  bottom: "fc7"
  top: "fc7"
}
layer {
  name: "drop7"
  type: "Dropout"
  bottom: "fc7"
  top: "fc7"
  dropout_param {
    dropout_ratio: 0.5
  }
}
layer {
  name: "score-fr"
  type: "Convolution"
  bottom: "fc7"
  top: "score"
  param {
    lr_mult: 1
    decay_mult: 1
  }
  param {
    lr_mult: 2
    decay_mult: 0
  }
  convolution_param {
    num_output: 2
    kernel_size: 1
    engine: CAFFE
  }
}
layer {
  name: "score2"
  type: "Deconvolution"
  bottom: "score"
  top: "score2"
  param {
    lr_mult: 1
    decay_mult: 1
  }
  param {
    lr_mult: 2
    decay_mult: 0
  }
  convolution_param {
    num_output: 2
    kernel_size: 4
    stride: 2
  }
}
layer {
  name: "score-pool4"
  type: "Convolution"
  bottom: "pool4"
  top: "score-pool4"
  param {
    lr_mult: 1
    decay_mult: 1
  }
  param {
    lr_mult: 2
    decay_mult: 0
  }
  convolution_param {
    num_output: 2
    kernel_size: 1
    engine: CAFFE
  }
}
layer {
  name: "crop"
  type: "Crop"
  bottom: "score-pool4"
  bottom: "score2"
  top: "score-pool4c"
}
layer {
  name: "fuse"
  type: "Eltwise"
  bottom: "score2"
  bottom: "score-pool4c"
  top: "score-fused"
  eltwise_param {
    operation: SUM
  }
}
layer {
  name: "score4"
  type: "Deconvolution"
  bottom: "score-fused"
  top: "score4"
  param {
    lr_mult: 1
    decay_mult: 1
  }
  convolution_param {
    num_output: 2
    bias_term: false
    kernel_size: 4
    stride: 2
  }
}
layer {
  name: "score-pool3"
  type: "Convolution"
  bottom: "pool3"
  top: "score-pool3"
  param {
    lr_mult: 1
    decay_mult: 1
  }
  param {
    lr_mult: 2
    decay_mult: 0
  }
  convolution_param {
    num_output: 2
    kernel_size: 1
    engine: CAFFE
  }
}
layer {
  name: "crop"
  type: "Crop"
  bottom: "score-pool3"
  bottom: "score4"
  top: "score-pool3c"
}
layer {
  name: "fuse"
  type: "Eltwise"
  bottom: "score4"
  bottom: "score-pool3c"
  top: "score-final"
  eltwise_param {
    operation: SUM
  }
}
layer {
  name: "upsample"
  type: "Deconvolution"
  bottom: "score-final"
  top: "bigscore"
  param {
    lr_mult: 1
  }
  convolution_param {
    num_output: 2
    bias_term: false
    kernel_size: 16
    stride: 8
  }
}
layer {
  name: "crop"
  type: "Crop"
  bottom: "bigscore"
  bottom: "data"
  top: "upscore"
}
layer {
  name: "loss"
  type: "SoftmaxWithLoss"
  bottom: "upscore"
  bottom: "label"
  top: "loss"
  loss_param {
    ignore_label: 255
  }
}
layer {
  name: "accuracy"
  type: "SegAccuracy"
  bottom: "upscore"
  bottom: "label"
  top: "accuracy"
  include {
    phase: TEST
  }
  seg_accuracy_param {
    ignore_label: 255
  }
}
I0721 16:18:28.175997 11907 layer_factory.hpp:74] Creating layer data
I0721 16:18:28.176020 11907 net.cpp:85] Creating Layer data
I0721 16:18:28.176033 11907 net.cpp:339] data -> data
I0721 16:18:28.176048 11907 net.cpp:339] data -> label
I0721 16:18:28.176064 11907 net.cpp:339] data -> (automatic)
I0721 16:18:28.176082 11907 net.cpp:114] Setting up data
I0721 16:18:28.176105 11907 image_seg_data_layer.cpp:46] Opening file /media/BigDisk/xiaoyong/datafrommac/ourfacedata_train_2/ourtestdatalist.txt
I0721 16:18:28.176733 11907 image_seg_data_layer.cpp:63] Shuffling data
I0721 16:18:28.176836 11907 image_seg_data_layer.cpp:68] A total of 355 images.
I0721 16:18:28.296960 11907 image_seg_data_layer.cpp:114] output data size: 1,3,388,388
I0721 16:18:28.296996 11907 image_seg_data_layer.cpp:118] output label size: 1,1,388,388
I0721 16:18:28.297009 11907 image_seg_data_layer.cpp:122] output data_dim size: 1,1,1,2
I0721 16:18:28.304183 11907 net.cpp:121] Top shape: 1 3 388 388 (451632)
I0721 16:18:28.304258 11907 net.cpp:121] Top shape: 1 1 388 388 (150544)
I0721 16:18:28.304352 11907 net.cpp:121] Top shape: 1 1 1 2 (2)
I0721 16:18:28.304402 11907 layer_factory.hpp:74] Creating layer data_data_0_split
I0721 16:18:28.304456 11907 net.cpp:85] Creating Layer data_data_0_split
I0721 16:18:28.304504 11907 net.cpp:381] data_data_0_split <- data
I0721 16:18:28.304558 11907 net.cpp:339] data_data_0_split -> data_data_0_split_0
I0721 16:18:28.304613 11907 net.cpp:339] data_data_0_split -> data_data_0_split_1
I0721 16:18:28.304667 11907 net.cpp:114] Setting up data_data_0_split
I0721 16:18:28.304723 11907 net.cpp:121] Top shape: 1 3 388 388 (451632)
I0721 16:18:28.304771 11907 net.cpp:121] Top shape: 1 3 388 388 (451632)
I0721 16:18:28.304826 11907 layer_factory.hpp:74] Creating layer label_data_1_split
I0721 16:18:28.304864 11907 net.cpp:85] Creating Layer label_data_1_split
I0721 16:18:28.304898 11907 net.cpp:381] label_data_1_split <- label
I0721 16:18:28.304934 11907 net.cpp:339] label_data_1_split -> label_data_1_split_0
I0721 16:18:28.304975 11907 net.cpp:339] label_data_1_split -> label_data_1_split_1
I0721 16:18:28.305016 11907 net.cpp:114] Setting up label_data_1_split
I0721 16:18:28.305058 11907 net.cpp:121] Top shape: 1 1 388 388 (150544)
I0721 16:18:28.305091 11907 net.cpp:121] Top shape: 1 1 388 388 (150544)
I0721 16:18:28.305124 11907 layer_factory.hpp:74] Creating layer conv1_1
I0721 16:18:28.305165 11907 net.cpp:85] Creating Layer conv1_1
I0721 16:18:28.305199 11907 net.cpp:381] conv1_1 <- data_data_0_split_0
I0721 16:18:28.305238 11907 net.cpp:339] conv1_1 -> conv1_1
I0721 16:18:28.305286 11907 net.cpp:114] Setting up conv1_1
I0721 16:18:28.306254 11907 net.cpp:121] Top shape: 1 64 586 586 (21977344)
I0721 16:18:28.306314 11907 layer_factory.hpp:74] Creating layer relu1_1
I0721 16:18:28.306360 11907 net.cpp:85] Creating Layer relu1_1
I0721 16:18:28.306398 11907 net.cpp:381] relu1_1 <- conv1_1
I0721 16:18:28.306434 11907 net.cpp:328] relu1_1 -> conv1_1 (in-place)
I0721 16:18:28.306473 11907 net.cpp:114] Setting up relu1_1
I0721 16:18:28.306510 11907 net.cpp:121] Top shape: 1 64 586 586 (21977344)
I0721 16:18:28.306543 11907 layer_factory.hpp:74] Creating layer conv1_2
I0721 16:18:28.306582 11907 net.cpp:85] Creating Layer conv1_2
I0721 16:18:28.306618 11907 net.cpp:381] conv1_2 <- conv1_1
I0721 16:18:28.306660 11907 net.cpp:339] conv1_2 -> conv1_2
I0721 16:18:28.306704 11907 net.cpp:114] Setting up conv1_2
I0721 16:18:28.307749 11907 net.cpp:121] Top shape: 1 64 586 586 (21977344)
I0721 16:18:28.307804 11907 layer_factory.hpp:74] Creating layer relu1_2
I0721 16:18:28.307847 11907 net.cpp:85] Creating Layer relu1_2
I0721 16:18:28.307883 11907 net.cpp:381] relu1_2 <- conv1_2
I0721 16:18:28.307920 11907 net.cpp:328] relu1_2 -> conv1_2 (in-place)
I0721 16:18:28.307958 11907 net.cpp:114] Setting up relu1_2
I0721 16:18:28.307992 11907 net.cpp:121] Top shape: 1 64 586 586 (21977344)
I0721 16:18:28.308028 11907 layer_factory.hpp:74] Creating layer pool1
I0721 16:18:28.308066 11907 net.cpp:85] Creating Layer pool1
I0721 16:18:28.308102 11907 net.cpp:381] pool1 <- conv1_2
I0721 16:18:28.308145 11907 net.cpp:339] pool1 -> pool1
I0721 16:18:28.308188 11907 net.cpp:114] Setting up pool1
I0721 16:18:28.308230 11907 net.cpp:121] Top shape: 1 64 293 293 (5494336)
I0721 16:18:28.308264 11907 layer_factory.hpp:74] Creating layer conv2_1
I0721 16:18:28.308343 11907 net.cpp:85] Creating Layer conv2_1
I0721 16:18:28.308378 11907 net.cpp:381] conv2_1 <- pool1
I0721 16:18:28.308419 11907 net.cpp:339] conv2_1 -> conv2_1
I0721 16:18:28.308471 11907 net.cpp:114] Setting up conv2_1
I0721 16:18:28.308974 11907 net.cpp:121] Top shape: 1 128 293 293 (10988672)
I0721 16:18:28.309031 11907 layer_factory.hpp:74] Creating layer relu2_1
I0721 16:18:28.309072 11907 net.cpp:85] Creating Layer relu2_1
I0721 16:18:28.309103 11907 net.cpp:381] relu2_1 <- conv2_1
I0721 16:18:28.309142 11907 net.cpp:328] relu2_1 -> conv2_1 (in-place)
I0721 16:18:28.309177 11907 net.cpp:114] Setting up relu2_1
I0721 16:18:28.309217 11907 net.cpp:121] Top shape: 1 128 293 293 (10988672)
I0721 16:18:28.309249 11907 layer_factory.hpp:74] Creating layer conv2_2
I0721 16:18:28.309288 11907 net.cpp:85] Creating Layer conv2_2
I0721 16:18:28.309319 11907 net.cpp:381] conv2_2 <- conv2_1
I0721 16:18:28.309363 11907 net.cpp:339] conv2_2 -> conv2_2
I0721 16:18:28.309406 11907 net.cpp:114] Setting up conv2_2
I0721 16:18:28.310070 11907 net.cpp:121] Top shape: 1 128 293 293 (10988672)
I0721 16:18:28.310119 11907 layer_factory.hpp:74] Creating layer relu2_2
I0721 16:18:28.310155 11907 net.cpp:85] Creating Layer relu2_2
I0721 16:18:28.310187 11907 net.cpp:381] relu2_2 <- conv2_2
I0721 16:18:28.310230 11907 net.cpp:328] relu2_2 -> conv2_2 (in-place)
I0721 16:18:28.310268 11907 net.cpp:114] Setting up relu2_2
I0721 16:18:28.310304 11907 net.cpp:121] Top shape: 1 128 293 293 (10988672)
I0721 16:18:28.310338 11907 layer_factory.hpp:74] Creating layer pool2
I0721 16:18:28.310374 11907 net.cpp:85] Creating Layer pool2
I0721 16:18:28.310407 11907 net.cpp:381] pool2 <- conv2_2
I0721 16:18:28.310449 11907 net.cpp:339] pool2 -> pool2
I0721 16:18:28.310489 11907 net.cpp:114] Setting up pool2
I0721 16:18:28.310533 11907 net.cpp:121] Top shape: 1 128 147 147 (2765952)
I0721 16:18:28.310569 11907 layer_factory.hpp:74] Creating layer conv3_1
I0721 16:18:28.310611 11907 net.cpp:85] Creating Layer conv3_1
I0721 16:18:28.310643 11907 net.cpp:381] conv3_1 <- pool2
I0721 16:18:28.310686 11907 net.cpp:339] conv3_1 -> conv3_1
I0721 16:18:28.310727 11907 net.cpp:114] Setting up conv3_1
I0721 16:18:28.311610 11907 net.cpp:121] Top shape: 1 256 147 147 (5531904)
I0721 16:18:28.311662 11907 layer_factory.hpp:74] Creating layer relu3_1
I0721 16:18:28.311702 11907 net.cpp:85] Creating Layer relu3_1
I0721 16:18:28.311738 11907 net.cpp:381] relu3_1 <- conv3_1
I0721 16:18:28.311777 11907 net.cpp:328] relu3_1 -> conv3_1 (in-place)
I0721 16:18:28.311815 11907 net.cpp:114] Setting up relu3_1
I0721 16:18:28.311856 11907 net.cpp:121] Top shape: 1 256 147 147 (5531904)
I0721 16:18:28.311885 11907 layer_factory.hpp:74] Creating layer conv3_2
I0721 16:18:28.311925 11907 net.cpp:85] Creating Layer conv3_2
I0721 16:18:28.311961 11907 net.cpp:381] conv3_2 <- conv3_1
I0721 16:18:28.312005 11907 net.cpp:339] conv3_2 -> conv3_2
I0721 16:18:28.312047 11907 net.cpp:114] Setting up conv3_2
I0721 16:18:28.313742 11907 net.cpp:121] Top shape: 1 256 147 147 (5531904)
I0721 16:18:28.313807 11907 layer_factory.hpp:74] Creating layer relu3_2
I0721 16:18:28.313860 11907 net.cpp:85] Creating Layer relu3_2
I0721 16:18:28.313900 11907 net.cpp:381] relu3_2 <- conv3_2
I0721 16:18:28.313941 11907 net.cpp:328] relu3_2 -> conv3_2 (in-place)
I0721 16:18:28.313982 11907 net.cpp:114] Setting up relu3_2
I0721 16:18:28.314020 11907 net.cpp:121] Top shape: 1 256 147 147 (5531904)
I0721 16:18:28.314054 11907 layer_factory.hpp:74] Creating layer conv3_3
I0721 16:18:28.314093 11907 net.cpp:85] Creating Layer conv3_3
I0721 16:18:28.314131 11907 net.cpp:381] conv3_3 <- conv3_2
I0721 16:18:28.314175 11907 net.cpp:339] conv3_3 -> conv3_3
I0721 16:18:28.314223 11907 net.cpp:114] Setting up conv3_3
I0721 16:18:28.315899 11907 net.cpp:121] Top shape: 1 256 147 147 (5531904)
I0721 16:18:28.315975 11907 layer_factory.hpp:74] Creating layer relu3_3
I0721 16:18:28.316014 11907 net.cpp:85] Creating Layer relu3_3
I0721 16:18:28.316050 11907 net.cpp:381] relu3_3 <- conv3_3
I0721 16:18:28.316102 11907 net.cpp:328] relu3_3 -> conv3_3 (in-place)
I0721 16:18:28.316150 11907 net.cpp:114] Setting up relu3_3
I0721 16:18:28.316200 11907 net.cpp:121] Top shape: 1 256 147 147 (5531904)
I0721 16:18:28.316251 11907 layer_factory.hpp:74] Creating layer pool3
I0721 16:18:28.316336 11907 net.cpp:85] Creating Layer pool3
I0721 16:18:28.316367 11907 net.cpp:381] pool3 <- conv3_3
I0721 16:18:28.316402 11907 net.cpp:339] pool3 -> pool3
I0721 16:18:28.316439 11907 net.cpp:114] Setting up pool3
I0721 16:18:28.316478 11907 net.cpp:121] Top shape: 1 256 74 74 (1401856)
I0721 16:18:28.316509 11907 layer_factory.hpp:74] Creating layer pool3_pool3_0_split
I0721 16:18:28.316541 11907 net.cpp:85] Creating Layer pool3_pool3_0_split
I0721 16:18:28.316570 11907 net.cpp:381] pool3_pool3_0_split <- pool3
I0721 16:18:28.316598 11907 net.cpp:339] pool3_pool3_0_split -> pool3_pool3_0_split_0
I0721 16:18:28.316637 11907 net.cpp:339] pool3_pool3_0_split -> pool3_pool3_0_split_1
I0721 16:18:28.316673 11907 net.cpp:114] Setting up pool3_pool3_0_split
I0721 16:18:28.316717 11907 net.cpp:121] Top shape: 1 256 74 74 (1401856)
I0721 16:18:28.316750 11907 net.cpp:121] Top shape: 1 256 74 74 (1401856)
I0721 16:18:28.316776 11907 layer_factory.hpp:74] Creating layer conv4_1
I0721 16:18:28.316805 11907 net.cpp:85] Creating Layer conv4_1
I0721 16:18:28.316831 11907 net.cpp:381] conv4_1 <- pool3_pool3_0_split_0
I0721 16:18:28.316864 11907 net.cpp:339] conv4_1 -> conv4_1
I0721 16:18:28.316901 11907 net.cpp:114] Setting up conv4_1
I0721 16:18:28.330752 11907 net.cpp:121] Top shape: 1 512 74 74 (2803712)
I0721 16:18:28.330839 11907 layer_factory.hpp:74] Creating layer relu4_1
I0721 16:18:28.330888 11907 net.cpp:85] Creating Layer relu4_1
I0721 16:18:28.330925 11907 net.cpp:381] relu4_1 <- conv4_1
I0721 16:18:28.330963 11907 net.cpp:328] relu4_1 -> conv4_1 (in-place)
I0721 16:18:28.331006 11907 net.cpp:114] Setting up relu4_1
I0721 16:18:28.331048 11907 net.cpp:121] Top shape: 1 512 74 74 (2803712)
I0721 16:18:28.331084 11907 layer_factory.hpp:74] Creating layer conv4_2
I0721 16:18:28.331123 11907 net.cpp:85] Creating Layer conv4_2
I0721 16:18:28.331161 11907 net.cpp:381] conv4_2 <- conv4_1
I0721 16:18:28.331203 11907 net.cpp:339] conv4_2 -> conv4_2
I0721 16:18:28.331244 11907 net.cpp:114] Setting up conv4_2
I0721 16:18:28.363952 11907 net.cpp:121] Top shape: 1 512 74 74 (2803712)
I0721 16:18:28.363987 11907 layer_factory.hpp:74] Creating layer relu4_2
I0721 16:18:28.364009 11907 net.cpp:85] Creating Layer relu4_2
I0721 16:18:28.364019 11907 net.cpp:381] relu4_2 <- conv4_2
I0721 16:18:28.364029 11907 net.cpp:328] relu4_2 -> conv4_2 (in-place)
I0721 16:18:28.364042 11907 net.cpp:114] Setting up relu4_2
I0721 16:18:28.364053 11907 net.cpp:121] Top shape: 1 512 74 74 (2803712)
I0721 16:18:28.364070 11907 layer_factory.hpp:74] Creating layer conv4_3
I0721 16:18:28.364095 11907 net.cpp:85] Creating Layer conv4_3
I0721 16:18:28.364106 11907 net.cpp:381] conv4_3 <- conv4_2
I0721 16:18:28.364123 11907 net.cpp:339] conv4_3 -> conv4_3
I0721 16:18:28.364138 11907 net.cpp:114] Setting up conv4_3
I0721 16:18:28.388097 11907 net.cpp:121] Top shape: 1 512 74 74 (2803712)
I0721 16:18:28.388134 11907 layer_factory.hpp:74] Creating layer relu4_3
I0721 16:18:28.388149 11907 net.cpp:85] Creating Layer relu4_3
I0721 16:18:28.388160 11907 net.cpp:381] relu4_3 <- conv4_3
I0721 16:18:28.388178 11907 net.cpp:328] relu4_3 -> conv4_3 (in-place)
I0721 16:18:28.388195 11907 net.cpp:114] Setting up relu4_3
I0721 16:18:28.388211 11907 net.cpp:121] Top shape: 1 512 74 74 (2803712)
I0721 16:18:28.388222 11907 layer_factory.hpp:74] Creating layer pool4
I0721 16:18:28.388236 11907 net.cpp:85] Creating Layer pool4
I0721 16:18:28.388249 11907 net.cpp:381] pool4 <- conv4_3
I0721 16:18:28.388311 11907 net.cpp:339] pool4 -> pool4
I0721 16:18:28.388337 11907 net.cpp:114] Setting up pool4
I0721 16:18:28.388357 11907 net.cpp:121] Top shape: 1 512 37 37 (700928)
I0721 16:18:28.388375 11907 layer_factory.hpp:74] Creating layer pool4_pool4_0_split
I0721 16:18:28.388393 11907 net.cpp:85] Creating Layer pool4_pool4_0_split
I0721 16:18:28.388406 11907 net.cpp:381] pool4_pool4_0_split <- pool4
I0721 16:18:28.388420 11907 net.cpp:339] pool4_pool4_0_split -> pool4_pool4_0_split_0
I0721 16:18:28.388442 11907 net.cpp:339] pool4_pool4_0_split -> pool4_pool4_0_split_1
I0721 16:18:28.388481 11907 net.cpp:114] Setting up pool4_pool4_0_split
I0721 16:18:28.388502 11907 net.cpp:121] Top shape: 1 512 37 37 (700928)
I0721 16:18:28.388521 11907 net.cpp:121] Top shape: 1 512 37 37 (700928)
I0721 16:18:28.388533 11907 layer_factory.hpp:74] Creating layer conv5_1
I0721 16:18:28.388553 11907 net.cpp:85] Creating Layer conv5_1
I0721 16:18:28.388569 11907 net.cpp:381] conv5_1 <- pool4_pool4_0_split_0
I0721 16:18:28.388587 11907 net.cpp:339] conv5_1 -> conv5_1
I0721 16:18:28.388602 11907 net.cpp:114] Setting up conv5_1
I0721 16:18:28.410684 11907 net.cpp:121] Top shape: 1 512 37 37 (700928)
I0721 16:18:28.410749 11907 layer_factory.hpp:74] Creating layer relu5_1
I0721 16:18:28.410784 11907 net.cpp:85] Creating Layer relu5_1
I0721 16:18:28.410805 11907 net.cpp:381] relu5_1 <- conv5_1
I0721 16:18:28.410832 11907 net.cpp:328] relu5_1 -> conv5_1 (in-place)
I0721 16:18:28.410856 11907 net.cpp:114] Setting up relu5_1
I0721 16:18:28.410876 11907 net.cpp:121] Top shape: 1 512 37 37 (700928)
I0721 16:18:28.410890 11907 layer_factory.hpp:74] Creating layer conv5_2
I0721 16:18:28.410912 11907 net.cpp:85] Creating Layer conv5_2
I0721 16:18:28.410933 11907 net.cpp:381] conv5_2 <- conv5_1
I0721 16:18:28.410954 11907 net.cpp:339] conv5_2 -> conv5_2
I0721 16:18:28.410981 11907 net.cpp:114] Setting up conv5_2
I0721 16:18:28.436810 11907 net.cpp:121] Top shape: 1 512 37 37 (700928)
I0721 16:18:28.436839 11907 layer_factory.hpp:74] Creating layer relu5_2
I0721 16:18:28.436863 11907 net.cpp:85] Creating Layer relu5_2
I0721 16:18:28.436874 11907 net.cpp:381] relu5_2 <- conv5_2
I0721 16:18:28.436884 11907 net.cpp:328] relu5_2 -> conv5_2 (in-place)
I0721 16:18:28.436893 11907 net.cpp:114] Setting up relu5_2
I0721 16:18:28.436904 11907 net.cpp:121] Top shape: 1 512 37 37 (700928)
I0721 16:18:28.436909 11907 layer_factory.hpp:74] Creating layer conv5_3
I0721 16:18:28.436920 11907 net.cpp:85] Creating Layer conv5_3
I0721 16:18:28.436926 11907 net.cpp:381] conv5_3 <- conv5_2
I0721 16:18:28.436947 11907 net.cpp:339] conv5_3 -> conv5_3
I0721 16:18:28.436960 11907 net.cpp:114] Setting up conv5_3
I0721 16:18:28.459172 11907 net.cpp:121] Top shape: 1 512 37 37 (700928)
I0721 16:18:28.459213 11907 layer_factory.hpp:74] Creating layer relu5_3
I0721 16:18:28.459228 11907 net.cpp:85] Creating Layer relu5_3
I0721 16:18:28.459241 11907 net.cpp:381] relu5_3 <- conv5_3
I0721 16:18:28.459261 11907 net.cpp:328] relu5_3 -> conv5_3 (in-place)
I0721 16:18:28.459282 11907 net.cpp:114] Setting up relu5_3
I0721 16:18:28.459295 11907 net.cpp:121] Top shape: 1 512 37 37 (700928)
I0721 16:18:28.459316 11907 layer_factory.hpp:74] Creating layer pool5
I0721 16:18:28.459331 11907 net.cpp:85] Creating Layer pool5
I0721 16:18:28.459342 11907 net.cpp:381] pool5 <- conv5_3
I0721 16:18:28.459358 11907 net.cpp:339] pool5 -> pool5
I0721 16:18:28.459380 11907 net.cpp:114] Setting up pool5
I0721 16:18:28.459400 11907 net.cpp:121] Top shape: 1 512 19 19 (184832)
I0721 16:18:28.459415 11907 layer_factory.hpp:74] Creating layer fc6
I0721 16:18:28.459434 11907 net.cpp:85] Creating Layer fc6
I0721 16:18:28.459444 11907 net.cpp:381] fc6 <- pool5
I0721 16:18:28.459460 11907 net.cpp:339] fc6 -> fc6
I0721 16:18:28.459482 11907 net.cpp:114] Setting up fc6
I0721 16:18:29.917609 11907 net.cpp:121] Top shape: 1 4096 13 13 (692224)
I0721 16:18:29.917652 11907 layer_factory.hpp:74] Creating layer relu6
I0721 16:18:29.917670 11907 net.cpp:85] Creating Layer relu6
I0721 16:18:29.917681 11907 net.cpp:381] relu6 <- fc6
I0721 16:18:29.917695 11907 net.cpp:328] relu6 -> fc6 (in-place)
I0721 16:18:29.917709 11907 net.cpp:114] Setting up relu6
I0721 16:18:29.917728 11907 net.cpp:121] Top shape: 1 4096 13 13 (692224)
I0721 16:18:29.917747 11907 layer_factory.hpp:74] Creating layer drop6
I0721 16:18:29.917760 11907 net.cpp:85] Creating Layer drop6
I0721 16:18:29.917774 11907 net.cpp:381] drop6 <- fc6
I0721 16:18:29.917789 11907 net.cpp:328] drop6 -> fc6 (in-place)
I0721 16:18:29.917825 11907 net.cpp:114] Setting up drop6
I0721 16:18:29.917845 11907 net.cpp:121] Top shape: 1 4096 13 13 (692224)
I0721 16:18:29.917886 11907 layer_factory.hpp:74] Creating layer fc7
I0721 16:18:29.917911 11907 net.cpp:85] Creating Layer fc7
I0721 16:18:29.917920 11907 net.cpp:381] fc7 <- fc6
I0721 16:18:29.917928 11907 net.cpp:339] fc7 -> fc7
I0721 16:18:29.917944 11907 net.cpp:114] Setting up fc7
I0721 16:18:30.098848 11907 net.cpp:121] Top shape: 1 4096 13 13 (692224)
I0721 16:18:30.098891 11907 layer_factory.hpp:74] Creating layer relu7
I0721 16:18:30.098908 11907 net.cpp:85] Creating Layer relu7
I0721 16:18:30.098918 11907 net.cpp:381] relu7 <- fc7
I0721 16:18:30.098934 11907 net.cpp:328] relu7 -> fc7 (in-place)
I0721 16:18:30.098958 11907 net.cpp:114] Setting up relu7
I0721 16:18:30.098994 11907 net.cpp:121] Top shape: 1 4096 13 13 (692224)
I0721 16:18:30.099012 11907 layer_factory.hpp:74] Creating layer drop7
I0721 16:18:30.099027 11907 net.cpp:85] Creating Layer drop7
I0721 16:18:30.099055 11907 net.cpp:381] drop7 <- fc7
I0721 16:18:30.099078 11907 net.cpp:328] drop7 -> fc7 (in-place)
I0721 16:18:30.099093 11907 net.cpp:114] Setting up drop7
I0721 16:18:30.099112 11907 net.cpp:121] Top shape: 1 4096 13 13 (692224)
I0721 16:18:30.099145 11907 layer_factory.hpp:74] Creating layer score-fr
I0721 16:18:30.099164 11907 net.cpp:85] Creating Layer score-fr
I0721 16:18:30.099175 11907 net.cpp:381] score-fr <- fc7
I0721 16:18:30.099210 11907 net.cpp:339] score-fr -> score
I0721 16:18:30.099226 11907 net.cpp:114] Setting up score-fr
I0721 16:18:30.099268 11907 net.cpp:121] Top shape: 1 2 13 13 (338)
I0721 16:18:30.099294 11907 layer_factory.hpp:74] Creating layer score2
I0721 16:18:30.099314 11907 net.cpp:85] Creating Layer score2
I0721 16:18:30.099331 11907 net.cpp:381] score2 <- score
I0721 16:18:30.099351 11907 net.cpp:339] score2 -> score2
I0721 16:18:30.099390 11907 net.cpp:114] Setting up score2
I0721 16:18:30.099418 11907 net.cpp:121] Top shape: 1 2 28 28 (1568)
I0721 16:18:30.099450 11907 layer_factory.hpp:74] Creating layer score2_score2_0_split
I0721 16:18:30.099469 11907 net.cpp:85] Creating Layer score2_score2_0_split
I0721 16:18:30.099480 11907 net.cpp:381] score2_score2_0_split <- score2
I0721 16:18:30.099514 11907 net.cpp:339] score2_score2_0_split -> score2_score2_0_split_0
I0721 16:18:30.099532 11907 net.cpp:339] score2_score2_0_split -> score2_score2_0_split_1
I0721 16:18:30.099545 11907 net.cpp:114] Setting up score2_score2_0_split
I0721 16:18:30.099570 11907 net.cpp:121] Top shape: 1 2 28 28 (1568)
I0721 16:18:30.099584 11907 net.cpp:121] Top shape: 1 2 28 28 (1568)
I0721 16:18:30.099606 11907 layer_factory.hpp:74] Creating layer score-pool4
I0721 16:18:30.099637 11907 net.cpp:85] Creating Layer score-pool4
I0721 16:18:30.099652 11907 net.cpp:381] score-pool4 <- pool4_pool4_0_split_1
I0721 16:18:30.099668 11907 net.cpp:339] score-pool4 -> score-pool4
I0721 16:18:30.099692 11907 net.cpp:114] Setting up score-pool4
I0721 16:18:30.099720 11907 net.cpp:121] Top shape: 1 2 37 37 (2738)
I0721 16:18:30.099738 11907 layer_factory.hpp:74] Creating layer crop
I0721 16:18:30.099750 11907 net.cpp:85] Creating Layer crop
I0721 16:18:30.099771 11907 net.cpp:381] crop <- score-pool4
I0721 16:18:30.099781 11907 net.cpp:381] crop <- score2_score2_0_split_0
I0721 16:18:30.099802 11907 net.cpp:339] crop -> score-pool4c
I0721 16:18:30.099814 11907 net.cpp:114] Setting up crop
I0721 16:18:30.099863 11907 net.cpp:121] Top shape: 1 2 28 28 (1568)
I0721 16:18:30.099870 11907 layer_factory.hpp:74] Creating layer fuse
I0721 16:18:30.099882 11907 net.cpp:85] Creating Layer fuse
I0721 16:18:30.099889 11907 net.cpp:381] fuse <- score2_score2_0_split_1
I0721 16:18:30.099899 11907 net.cpp:381] fuse <- score-pool4c
I0721 16:18:30.099920 11907 net.cpp:339] fuse -> score-fused
I0721 16:18:30.099932 11907 net.cpp:114] Setting up fuse
I0721 16:18:30.099963 11907 net.cpp:121] Top shape: 1 2 28 28 (1568)
I0721 16:18:30.099980 11907 layer_factory.hpp:74] Creating layer score4
I0721 16:18:30.099997 11907 net.cpp:85] Creating Layer score4
I0721 16:18:30.100026 11907 net.cpp:381] score4 <- score-fused
I0721 16:18:30.100045 11907 net.cpp:339] score4 -> score4
I0721 16:18:30.100083 11907 net.cpp:114] Setting up score4
I0721 16:18:30.100101 11907 net.cpp:121] Top shape: 1 2 58 58 (6728)
I0721 16:18:30.100110 11907 layer_factory.hpp:74] Creating layer score4_score4_0_split
I0721 16:18:30.100127 11907 net.cpp:85] Creating Layer score4_score4_0_split
I0721 16:18:30.100137 11907 net.cpp:381] score4_score4_0_split <- score4
I0721 16:18:30.100157 11907 net.cpp:339] score4_score4_0_split -> score4_score4_0_split_0
I0721 16:18:30.100169 11907 net.cpp:339] score4_score4_0_split -> score4_score4_0_split_1
I0721 16:18:30.100189 11907 net.cpp:114] Setting up score4_score4_0_split
I0721 16:18:30.100203 11907 net.cpp:121] Top shape: 1 2 58 58 (6728)
I0721 16:18:30.100222 11907 net.cpp:121] Top shape: 1 2 58 58 (6728)
I0721 16:18:30.100231 11907 layer_factory.hpp:74] Creating layer score-pool3
I0721 16:18:30.100255 11907 net.cpp:85] Creating Layer score-pool3
I0721 16:18:30.100301 11907 net.cpp:381] score-pool3 <- pool3_pool3_0_split_1
I0721 16:18:30.100320 11907 net.cpp:339] score-pool3 -> score-pool3
I0721 16:18:30.100342 11907 net.cpp:114] Setting up score-pool3
I0721 16:18:30.100366 11907 net.cpp:121] Top shape: 1 2 74 74 (10952)
I0721 16:18:30.100391 11907 layer_factory.hpp:74] Creating layer crop
I0721 16:18:30.100404 11907 net.cpp:85] Creating Layer crop
I0721 16:18:30.100421 11907 net.cpp:381] crop <- score-pool3
I0721 16:18:30.100435 11907 net.cpp:381] crop <- score4_score4_0_split_0
I0721 16:18:30.100450 11907 net.cpp:339] crop -> score-pool3c
I0721 16:18:30.100468 11907 net.cpp:114] Setting up crop
I0721 16:18:30.100534 11907 net.cpp:121] Top shape: 1 2 58 58 (6728)
I0721 16:18:30.100548 11907 layer_factory.hpp:74] Creating layer fuse
I0721 16:18:30.100558 11907 net.cpp:85] Creating Layer fuse
I0721 16:18:30.100565 11907 net.cpp:381] fuse <- score4_score4_0_split_1
I0721 16:18:30.100585 11907 net.cpp:381] fuse <- score-pool3c
I0721 16:18:30.100600 11907 net.cpp:339] fuse -> score-final
I0721 16:18:30.100616 11907 net.cpp:114] Setting up fuse
I0721 16:18:30.100636 11907 net.cpp:121] Top shape: 1 2 58 58 (6728)
I0721 16:18:30.100662 11907 layer_factory.hpp:74] Creating layer upsample
I0721 16:18:30.100680 11907 net.cpp:85] Creating Layer upsample
I0721 16:18:30.100692 11907 net.cpp:381] upsample <- score-final
I0721 16:18:30.100711 11907 net.cpp:339] upsample -> bigscore
I0721 16:18:30.100724 11907 net.cpp:114] Setting up upsample
I0721 16:18:30.100741 11907 net.cpp:121] Top shape: 1 2 472 472 (445568)
I0721 16:18:30.100754 11907 layer_factory.hpp:74] Creating layer crop
I0721 16:18:30.100764 11907 net.cpp:85] Creating Layer crop
I0721 16:18:30.100771 11907 net.cpp:381] crop <- bigscore
I0721 16:18:30.100782 11907 net.cpp:381] crop <- data_data_0_split_1
I0721 16:18:30.100792 11907 net.cpp:339] crop -> upscore
I0721 16:18:30.100800 11907 net.cpp:114] Setting up crop
I0721 16:18:30.100847 11907 net.cpp:121] Top shape: 1 2 388 388 (301088)
I0721 16:18:30.100855 11907 layer_factory.hpp:74] Creating layer upscore_crop_0_split
I0721 16:18:30.100864 11907 net.cpp:85] Creating Layer upscore_crop_0_split
I0721 16:18:30.100873 11907 net.cpp:381] upscore_crop_0_split <- upscore
I0721 16:18:30.100883 11907 net.cpp:339] upscore_crop_0_split -> upscore_crop_0_split_0
I0721 16:18:30.100890 11907 net.cpp:339] upscore_crop_0_split -> upscore_crop_0_split_1
I0721 16:18:30.100898 11907 net.cpp:114] Setting up upscore_crop_0_split
I0721 16:18:30.100908 11907 net.cpp:121] Top shape: 1 2 388 388 (301088)
I0721 16:18:30.100917 11907 net.cpp:121] Top shape: 1 2 388 388 (301088)
I0721 16:18:30.100924 11907 layer_factory.hpp:74] Creating layer loss
I0721 16:18:30.100939 11907 net.cpp:85] Creating Layer loss
I0721 16:18:30.100945 11907 net.cpp:381] loss <- upscore_crop_0_split_0
I0721 16:18:30.100951 11907 net.cpp:381] loss <- label_data_1_split_0
I0721 16:18:30.100958 11907 net.cpp:339] loss -> loss
I0721 16:18:30.100968 11907 net.cpp:114] Setting up loss
I0721 16:18:30.100980 11907 layer_factory.hpp:74] Creating layer loss
I0721 16:18:30.101420 11907 net.cpp:121] Top shape: (1)
I0721 16:18:30.101444 11907 net.cpp:123]     with loss weight 1
I0721 16:18:30.101461 11907 layer_factory.hpp:74] Creating layer accuracy
I0721 16:18:30.101481 11907 net.cpp:85] Creating Layer accuracy
I0721 16:18:30.101490 11907 net.cpp:381] accuracy <- upscore_crop_0_split_1
I0721 16:18:30.101497 11907 net.cpp:381] accuracy <- label_data_1_split_1
I0721 16:18:30.101512 11907 net.cpp:339] accuracy -> accuracy
I0721 16:18:30.101528 11907 net.cpp:114] Setting up accuracy
I0721 16:18:30.101552 11907 net.cpp:121] Top shape: 1 1 1 3 (3)
I0721 16:18:30.101569 11907 net.cpp:170] accuracy does not need backward computation.
I0721 16:18:30.101577 11907 net.cpp:168] loss needs backward computation.
I0721 16:18:30.101589 11907 net.cpp:168] upscore_crop_0_split needs backward computation.
I0721 16:18:30.101609 11907 net.cpp:168] crop needs backward computation.
I0721 16:18:30.101621 11907 net.cpp:168] upsample needs backward computation.
…
