…
I0813 23:18:39.400357 20837 net.cpp:42] Initializing net from parameters: 
name: "FCN"
state {
  phase: TRAIN
}
layer {
  name: "data"
  type: "ImageMat"
  top: "data"
  top: "label"
  include {
    phase: TRAIN
  }
  transform_param {
    mirror: true
    crop_size: 388
    mean_value: 104.008
    mean_value: 116.669
    mean_value: 122.675
  }
  image_data_param {
    source: "/media/BigDisk/xiaoyong/datafrommac/ourfacedata_train_2/traindatalist_2_5mat.txt"
    batch_size: 1
    shuffle: true
    root_folder: ""
    ignore_label: 255
    label_type: PIXEL
  }
}
layer {
  name: "conv1_1"
  type: "Convolution"
  bottom: "data"
  top: "conv1_1"
  param {
    lr_mult: 1
    decay_mult: 1
  }
  param {
    lr_mult: 2
    decay_mult: 0
  }
  convolution_param {
    num_output: 64
    pad: 100
    kernel_size: 3
    engine: CAFFE
  }
}
layer {
  name: "relu1_1"
  type: "ReLU"
  bottom: "conv1_1"
  top: "conv1_1"
}
layer {
  name: "conv1_2"
  type: "Convolution"
  bottom: "conv1_1"
  top: "conv1_2"
  param {
    lr_mult: 1
    decay_mult: 1
  }
  param {
    lr_mult: 2
    decay_mult: 0
  }
  convolution_param {
    num_output: 64
    pad: 1
    kernel_size: 3
    engine: CAFFE
  }
}
layer {
  name: "relu1_2"
  type: "ReLU"
  bottom: "conv1_2"
  top: "conv1_2"
}
layer {
  name: "pool1"
  type: "Pooling"
  bottom: "conv1_2"
  top: "pool1"
  pooling_param {
    pool: MAX
    kernel_size: 2
    stride: 2
  }
}
layer {
  name: "conv2_1"
  type: "Convolution"
  bottom: "pool1"
  top: "conv2_1"
  param {
    lr_mult: 1
    decay_mult: 1
  }
  param {
    lr_mult: 2
    decay_mult: 0
  }
  convolution_param {
    num_output: 128
    pad: 1
    kernel_size: 3
    engine: CAFFE
  }
}
layer {
  name: "relu2_1"
  type: "ReLU"
  bottom: "conv2_1"
  top: "conv2_1"
}
layer {
  name: "conv2_2"
  type: "Convolution"
  bottom: "conv2_1"
  top: "conv2_2"
  param {
    lr_mult: 1
    decay_mult: 1
  }
  param {
    lr_mult: 2
    decay_mult: 0
  }
  convolution_param {
    num_output: 128
    pad: 1
    kernel_size: 3
    engine: CAFFE
  }
}
layer {
  name: "relu2_2"
  type: "ReLU"
  bottom: "conv2_2"
  top: "conv2_2"
}
layer {
  name: "pool2"
  type: "Pooling"
  bottom: "conv2_2"
  top: "pool2"
  pooling_param {
    pool: MAX
    kernel_size: 2
    stride: 2
  }
}
layer {
  name: "conv3_1"
  type: "Convolution"
  bottom: "pool2"
  top: "conv3_1"
  param {
    lr_mult: 1
    decay_mult: 1
  }
  param {
    lr_mult: 2
    decay_mult: 0
  }
  convolution_param {
    num_output: 256
    pad: 1
    kernel_size: 3
    engine: CAFFE
  }
}
layer {
  name: "relu3_1"
  type: "ReLU"
  bottom: "conv3_1"
  top: "conv3_1"
}
layer {
  name: "conv3_2"
  type: "Convolution"
  bottom: "conv3_1"
  top: "conv3_2"
  param {
    lr_mult: 1
    decay_mult: 1
  }
  param {
    lr_mult: 2
    decay_mult: 0
  }
  convolution_param {
    num_output: 256
    pad: 1
    kernel_size: 3
    engine: CAFFE
  }
}
layer {
  name: "relu3_2"
  type: "ReLU"
  bottom: "conv3_2"
  top: "conv3_2"
}
layer {
  name: "conv3_3"
  type: "Convolution"
  bottom: "conv3_2"
  top: "conv3_3"
  param {
    lr_mult: 1
    decay_mult: 1
  }
  param {
    lr_mult: 2
    decay_mult: 0
  }
  convolution_param {
    num_output: 256
    pad: 1
    kernel_size: 3
    engine: CAFFE
  }
}
layer {
  name: "relu3_3"
  type: "ReLU"
  bottom: "conv3_3"
  top: "conv3_3"
}
layer {
  name: "pool3"
  type: "Pooling"
  bottom: "conv3_3"
  top: "pool3"
  pooling_param {
    pool: MAX
    kernel_size: 2
    stride: 2
  }
}
layer {
  name: "conv4_1"
  type: "Convolution"
  bottom: "pool3"
  top: "conv4_1"
  param {
    lr_mult: 1
    decay_mult: 1
  }
  param {
    lr_mult: 2
    decay_mult: 0
  }
  convolution_param {
    num_output: 512
    pad: 1
    kernel_size: 3
    engine: CAFFE
  }
}
layer {
  name: "relu4_1"
  type: "ReLU"
  bottom: "conv4_1"
  top: "conv4_1"
}
layer {
  name: "conv4_2"
  type: "Convolution"
  bottom: "conv4_1"
  top: "conv4_2"
  param {
    lr_mult: 1
    decay_mult: 1
  }
  param {
    lr_mult: 2
    decay_mult: 0
  }
  convolution_param {
    num_output: 512
    pad: 1
    kernel_size: 3
    engine: CAFFE
  }
}
layer {
  name: "relu4_2"
  type: "ReLU"
  bottom: "conv4_2"
  top: "conv4_2"
}
layer {
  name: "conv4_3"
  type: "Convolution"
  bottom: "conv4_2"
  top: "conv4_3"
  param {
    lr_mult: 1
    decay_mult: 1
  }
  param {
    lr_mult: 2
    decay_mult: 0
  }
  convolution_param {
    num_output: 512
    pad: 1
    kernel_size: 3
    engine: CAFFE
  }
}
layer {
  name: "relu4_3"
  type: "ReLU"
  bottom: "conv4_3"
  top: "conv4_3"
}
layer {
  name: "pool4"
  type: "Pooling"
  bottom: "conv4_3"
  top: "pool4"
  pooling_param {
    pool: MAX
    kernel_size: 2
    stride: 2
  }
}
layer {
  name: "conv5_1"
  type: "Convolution"
  bottom: "pool4"
  top: "conv5_1"
  param {
    lr_mult: 1
    decay_mult: 1
  }
  param {
    lr_mult: 2
    decay_mult: 0
  }
  convolution_param {
    num_output: 512
    pad: 1
    kernel_size: 3
    engine: CAFFE
  }
}
layer {
  name: "relu5_1"
  type: "ReLU"
  bottom: "conv5_1"
  top: "conv5_1"
}
layer {
  name: "conv5_2"
  type: "Convolution"
  bottom: "conv5_1"
  top: "conv5_2"
  param {
    lr_mult: 1
    decay_mult: 1
  }
  param {
    lr_mult: 2
    decay_mult: 0
  }
  convolution_param {
    num_output: 512
    pad: 1
    kernel_size: 3
    engine: CAFFE
  }
}
layer {
  name: "relu5_2"
  type: "ReLU"
  bottom: "conv5_2"
  top: "conv5_2"
}
layer {
  name: "conv5_3"
  type: "Convolution"
  bottom: "conv5_2"
  top: "conv5_3"
  param {
    lr_mult: 1
    decay_mult: 1
  }
  param {
    lr_mult: 2
    decay_mult: 0
  }
  convolution_param {
    num_output: 512
    pad: 1
    kernel_size: 3
    engine: CAFFE
  }
}
layer {
  name: "relu5_3"
  type: "ReLU"
  bottom: "conv5_3"
  top: "conv5_3"
}
layer {
  name: "pool5"
  type: "Pooling"
  bottom: "conv5_3"
  top: "pool5"
  pooling_param {
    pool: MAX
    kernel_size: 2
    stride: 2
  }
}
layer {
  name: "fc6"
  type: "Convolution"
  bottom: "pool5"
  top: "fc6"
  param {
    lr_mult: 1
    decay_mult: 1
  }
  param {
    lr_mult: 2
    decay_mult: 0
  }
  convolution_param {
    num_output: 4096
    kernel_size: 7
    engine: CAFFE
  }
}
layer {
  name: "relu6"
  type: "ReLU"
  bottom: "fc6"
  top: "fc6"
}
layer {
  name: "drop6"
  type: "Dropout"
  bottom: "fc6"
  top: "fc6"
  dropout_param {
    dropout_ratio: 0.5
  }
}
layer {
  name: "fc7"
  type: "Convolution"
  bottom: "fc6"
  top: "fc7"
  param {
    lr_mult: 1
    decay_mult: 1
  }
  param {
    lr_mult: 2
    decay_mult: 0
  }
  convolution_param {
    num_output: 4096
    kernel_size: 1
    engine: CAFFE
  }
}
layer {
  name: "relu7"
  type: "ReLU"
  bottom: "fc7"
  top: "fc7"
}
layer {
  name: "drop7"
  type: "Dropout"
  bottom: "fc7"
  top: "fc7"
  dropout_param {
    dropout_ratio: 0.5
  }
}
layer {
  name: "score-fr"
  type: "Convolution"
  bottom: "fc7"
  top: "score"
  param {
    lr_mult: 1
    decay_mult: 1
  }
  param {
    lr_mult: 2
    decay_mult: 0
  }
  convolution_param {
    num_output: 2
    kernel_size: 1
    engine: CAFFE
  }
}
layer {
  name: "score2"
  type: "Deconvolution"
  bottom: "score"
  top: "score2"
  param {
    lr_mult: 1
    decay_mult: 1
  }
  param {
    lr_mult: 2
    decay_mult: 0
  }
  convolution_param {
    num_output: 2
    kernel_size: 4
    stride: 2
  }
}
layer {
  name: "score-pool4"
  type: "Convolution"
  bottom: "pool4"
  top: "score-pool4"
  param {
    lr_mult: 1
    decay_mult: 1
  }
  param {
    lr_mult: 2
    decay_mult: 0
  }
  convolution_param {
    num_output: 2
    kernel_size: 1
    engine: CAFFE
  }
}
layer {
  name: "crop"
  type: "Crop"
  bottom: "score-pool4"
  bottom: "score2"
  top: "score-pool4c"
}
layer {
  name: "fuse"
  type: "Eltwise"
  bottom: "score2"
  bottom: "score-pool4c"
  top: "score-fused"
  eltwise_param {
    operation: SUM
  }
}
layer {
  name: "score4"
  type: "Deconvolution"
  bottom: "score-fused"
  top: "score4"
  param {
    lr_mult: 1
    decay_mult: 1
  }
  convolution_param {
    num_output: 2
    bias_term: false
    kernel_size: 4
    stride: 2
  }
}
layer {
  name: "score-pool3"
  type: "Convolution"
  bottom: "pool3"
  top: "score-pool3"
  param {
    lr_mult: 1
    decay_mult: 1
  }
  param {
    lr_mult: 2
    decay_mult: 0
  }
  convolution_param {
    num_output: 2
    kernel_size: 1
    engine: CAFFE
  }
}
layer {
  name: "crop"
  type: "Crop"
  bottom: "score-pool3"
  bottom: "score4"
  top: "score-pool3c"
}
layer {
  name: "fuse"
  type: "Eltwise"
  bottom: "score4"
  bottom: "score-pool3c"
  top: "score-final"
  eltwise_param {
    operation: SUM
  }
}
layer {
  name: "upsample"
  type: "Deconvolution"
  bottom: "score-final"
  top: "bigscore"
  param {
    lr_mult: 1
  }
  convolution_param {
    num_output: 2
    bias_term: false
    kernel_size: 16
    stride: 8
  }
}
layer {
  name: "crop"
  type: "Crop"
  bottom: "bigscore"
  bottom: "data"
  top: "upscore"
}
layer {
  name: "loss"
  type: "SoftmaxWithLoss"
  bottom: "upscore"
  bottom: "label"
  top: "loss"
  loss_param {
    ignore_label: 255
  }
}
I0813 23:18:39.400553 20837 layer_factory.hpp:74] Creating layer data
I0813 23:18:39.400573 20837 net.cpp:85] Creating Layer data
I0813 23:18:39.400580 20837 net.cpp:339] data -> data
I0813 23:18:39.400594 20837 net.cpp:339] data -> label
I0813 23:18:39.400604 20837 net.cpp:339] data -> (automatic)
I0813 23:18:39.400609 20837 net.cpp:114] Setting up data
I0813 23:18:39.400948 20837 image_mat_layer.cpp:55] Opening file /media/BigDisk/xiaoyong/datafrommac/ourfacedata_train_2/traindatalist_2_5mat.txt
I0813 23:18:39.402235 20837 image_mat_layer.cpp:72] Shuffling data
I0813 23:18:39.402333 20837 image_mat_layer.cpp:77] A total of 865 images.
I0813 23:18:39.456513 20837 image_mat_layer.cpp:143] output data size: 1,5,388,388
I0813 23:18:39.456532 20837 image_mat_layer.cpp:147] output label size: 1,1,388,388
I0813 23:18:39.456535 20837 image_mat_layer.cpp:151] output data_dim size: 1,1,1,2
I0813 23:18:39.457401 20837 net.cpp:121] Top shape: 1 5 388 388 (752720)
I0813 23:18:39.457409 20837 net.cpp:121] Top shape: 1 1 388 388 (150544)
I0813 23:18:39.457417 20837 net.cpp:121] Top shape: 1 1 1 2 (2)
I0813 23:18:39.457423 20837 layer_factory.hpp:74] Creating layer data_data_0_split
I0813 23:18:39.457434 20837 net.cpp:85] Creating Layer data_data_0_split
I0813 23:18:39.457440 20837 net.cpp:381] data_data_0_split <- data
I0813 23:18:39.457450 20837 net.cpp:339] data_data_0_split -> data_data_0_split_0
I0813 23:18:39.457460 20837 net.cpp:339] data_data_0_split -> data_data_0_split_1
I0813 23:18:39.457468 20837 net.cpp:114] Setting up data_data_0_split
I0813 23:18:39.457474 20837 net.cpp:121] Top shape: 1 5 388 388 (752720)
I0813 23:18:39.457479 20837 net.cpp:121] Top shape: 1 5 388 388 (752720)
I0813 23:18:39.457483 20837 layer_factory.hpp:74] Creating layer conv1_1
I0813 23:18:39.457490 20837 net.cpp:85] Creating Layer conv1_1
I0813 23:18:39.457494 20837 net.cpp:381] conv1_1 <- data_data_0_split_0
I0813 23:18:39.457500 20837 net.cpp:339] conv1_1 -> conv1_1
I0813 23:18:39.457506 20837 net.cpp:114] Setting up conv1_1
I0813 23:18:39.458086 20837 net.cpp:121] Top shape: 1 64 586 586 (21977344)
I0813 23:18:39.458099 20837 layer_factory.hpp:74] Creating layer relu1_1
I0813 23:18:39.458106 20837 net.cpp:85] Creating Layer relu1_1
I0813 23:18:39.458111 20837 net.cpp:381] relu1_1 <- conv1_1
I0813 23:18:39.458115 20837 net.cpp:328] relu1_1 -> conv1_1 (in-place)
I0813 23:18:39.458120 20837 net.cpp:114] Setting up relu1_1
I0813 23:18:39.458125 20837 net.cpp:121] Top shape: 1 64 586 586 (21977344)
I0813 23:18:39.458129 20837 layer_factory.hpp:74] Creating layer conv1_2
I0813 23:18:39.458137 20837 net.cpp:85] Creating Layer conv1_2
I0813 23:18:39.458140 20837 net.cpp:381] conv1_2 <- conv1_1
I0813 23:18:39.458147 20837 net.cpp:339] conv1_2 -> conv1_2
I0813 23:18:39.458153 20837 net.cpp:114] Setting up conv1_2
I0813 23:18:39.459034 20837 net.cpp:121] Top shape: 1 64 586 586 (21977344)
I0813 23:18:39.459048 20837 layer_factory.hpp:74] Creating layer relu1_2
I0813 23:18:39.459053 20837 net.cpp:85] Creating Layer relu1_2
I0813 23:18:39.459058 20837 net.cpp:381] relu1_2 <- conv1_2
I0813 23:18:39.459064 20837 net.cpp:328] relu1_2 -> conv1_2 (in-place)
I0813 23:18:39.459069 20837 net.cpp:114] Setting up relu1_2
I0813 23:18:39.459074 20837 net.cpp:121] Top shape: 1 64 586 586 (21977344)
I0813 23:18:39.459077 20837 layer_factory.hpp:74] Creating layer pool1
I0813 23:18:39.459084 20837 net.cpp:85] Creating Layer pool1
I0813 23:18:39.459087 20837 net.cpp:381] pool1 <- conv1_2
I0813 23:18:39.459094 20837 net.cpp:339] pool1 -> pool1
I0813 23:18:39.459100 20837 net.cpp:114] Setting up pool1
I0813 23:18:39.459112 20837 net.cpp:121] Top shape: 1 64 293 293 (5494336)
I0813 23:18:39.459116 20837 layer_factory.hpp:74] Creating layer conv2_1
I0813 23:18:39.459122 20837 net.cpp:85] Creating Layer conv2_1
I0813 23:18:39.459125 20837 net.cpp:381] conv2_1 <- pool1
I0813 23:18:39.459131 20837 net.cpp:339] conv2_1 -> conv2_1
I0813 23:18:39.459136 20837 net.cpp:114] Setting up conv2_1
I0813 23:18:39.459475 20837 net.cpp:121] Top shape: 1 128 293 293 (10988672)
I0813 23:18:39.459485 20837 layer_factory.hpp:74] Creating layer relu2_1
I0813 23:18:39.459492 20837 net.cpp:85] Creating Layer relu2_1
I0813 23:18:39.459496 20837 net.cpp:381] relu2_1 <- conv2_1
I0813 23:18:39.459501 20837 net.cpp:328] relu2_1 -> conv2_1 (in-place)
I0813 23:18:39.459506 20837 net.cpp:114] Setting up relu2_1
I0813 23:18:39.459511 20837 net.cpp:121] Top shape: 1 128 293 293 (10988672)
I0813 23:18:39.459516 20837 layer_factory.hpp:74] Creating layer conv2_2
I0813 23:18:39.459522 20837 net.cpp:85] Creating Layer conv2_2
I0813 23:18:39.459525 20837 net.cpp:381] conv2_2 <- conv2_1
I0813 23:18:39.459532 20837 net.cpp:339] conv2_2 -> conv2_2
I0813 23:18:39.459537 20837 net.cpp:114] Setting up conv2_2
I0813 23:18:39.460042 20837 net.cpp:121] Top shape: 1 128 293 293 (10988672)
I0813 23:18:39.460052 20837 layer_factory.hpp:74] Creating layer relu2_2
I0813 23:18:39.460058 20837 net.cpp:85] Creating Layer relu2_2
I0813 23:18:39.460062 20837 net.cpp:381] relu2_2 <- conv2_2
I0813 23:18:39.460067 20837 net.cpp:328] relu2_2 -> conv2_2 (in-place)
I0813 23:18:39.460072 20837 net.cpp:114] Setting up relu2_2
I0813 23:18:39.460077 20837 net.cpp:121] Top shape: 1 128 293 293 (10988672)
I0813 23:18:39.460080 20837 layer_factory.hpp:74] Creating layer pool2
I0813 23:18:39.460085 20837 net.cpp:85] Creating Layer pool2
I0813 23:18:39.460089 20837 net.cpp:381] pool2 <- conv2_2
I0813 23:18:39.460093 20837 net.cpp:339] pool2 -> pool2
I0813 23:18:39.460099 20837 net.cpp:114] Setting up pool2
I0813 23:18:39.460127 20837 net.cpp:121] Top shape: 1 128 147 147 (2765952)
I0813 23:18:39.460131 20837 layer_factory.hpp:74] Creating layer conv3_1
I0813 23:18:39.460137 20837 net.cpp:85] Creating Layer conv3_1
I0813 23:18:39.460141 20837 net.cpp:381] conv3_1 <- pool2
I0813 23:18:39.460147 20837 net.cpp:339] conv3_1 -> conv3_1
I0813 23:18:39.460153 20837 net.cpp:114] Setting up conv3_1
I0813 23:18:39.460782 20837 net.cpp:121] Top shape: 1 256 147 147 (5531904)
I0813 23:18:39.460793 20837 layer_factory.hpp:74] Creating layer relu3_1
I0813 23:18:39.460808 20837 net.cpp:85] Creating Layer relu3_1
I0813 23:18:39.460813 20837 net.cpp:381] relu3_1 <- conv3_1
I0813 23:18:39.460822 20837 net.cpp:328] relu3_1 -> conv3_1 (in-place)
I0813 23:18:39.460827 20837 net.cpp:114] Setting up relu3_1
I0813 23:18:39.460832 20837 net.cpp:121] Top shape: 1 256 147 147 (5531904)
I0813 23:18:39.460836 20837 layer_factory.hpp:74] Creating layer conv3_2
I0813 23:18:39.460841 20837 net.cpp:85] Creating Layer conv3_2
I0813 23:18:39.460845 20837 net.cpp:381] conv3_2 <- conv3_1
I0813 23:18:39.460850 20837 net.cpp:339] conv3_2 -> conv3_2
I0813 23:18:39.460855 20837 net.cpp:114] Setting up conv3_2
I0813 23:18:39.463711 20837 net.cpp:121] Top shape: 1 256 147 147 (5531904)
I0813 23:18:39.464388 20837 layer_factory.hpp:74] Creating layer relu3_2
I0813 23:18:39.464438 20837 net.cpp:85] Creating Layer relu3_2
I0813 23:18:39.464476 20837 net.cpp:381] relu3_2 <- conv3_2
I0813 23:18:39.464509 20837 net.cpp:328] relu3_2 -> conv3_2 (in-place)
I0813 23:18:39.464548 20837 net.cpp:114] Setting up relu3_2
I0813 23:18:39.464584 20837 net.cpp:121] Top shape: 1 256 147 147 (5531904)
I0813 23:18:39.464619 20837 layer_factory.hpp:74] Creating layer conv3_3
I0813 23:18:39.464658 20837 net.cpp:85] Creating Layer conv3_3
I0813 23:18:39.464700 20837 net.cpp:381] conv3_3 <- conv3_2
I0813 23:18:39.464731 20837 net.cpp:339] conv3_3 -> conv3_3
I0813 23:18:39.464768 20837 net.cpp:114] Setting up conv3_3
I0813 23:18:39.467031 20837 net.cpp:121] Top shape: 1 256 147 147 (5531904)
I0813 23:18:39.468825 20837 layer_factory.hpp:74] Creating layer relu3_3
I0813 23:18:39.468909 20837 net.cpp:85] Creating Layer relu3_3
I0813 23:18:39.468956 20837 net.cpp:381] relu3_3 <- conv3_3
I0813 23:18:39.468998 20837 net.cpp:328] relu3_3 -> conv3_3 (in-place)
I0813 23:18:39.469053 20837 net.cpp:114] Setting up relu3_3
I0813 23:18:39.469132 20837 net.cpp:121] Top shape: 1 256 147 147 (5531904)
I0813 23:18:39.470129 20837 layer_factory.hpp:74] Creating layer pool3
I0813 23:18:39.470197 20837 net.cpp:85] Creating Layer pool3
I0813 23:18:39.470232 20837 net.cpp:381] pool3 <- conv3_3
I0813 23:18:39.470268 20837 net.cpp:339] pool3 -> pool3
I0813 23:18:39.470312 20837 net.cpp:114] Setting up pool3
I0813 23:18:39.470362 20837 net.cpp:121] Top shape: 1 256 74 74 (1401856)
I0813 23:18:39.470427 20837 layer_factory.hpp:74] Creating layer pool3_pool3_0_split
I0813 23:18:39.470561 20837 net.cpp:85] Creating Layer pool3_pool3_0_split
I0813 23:18:39.470648 20837 net.cpp:381] pool3_pool3_0_split <- pool3
I0813 23:18:39.470679 20837 net.cpp:339] pool3_pool3_0_split -> pool3_pool3_0_split_0
I0813 23:18:39.470721 20837 net.cpp:339] pool3_pool3_0_split -> pool3_pool3_0_split_1
I0813 23:18:39.470768 20837 net.cpp:114] Setting up pool3_pool3_0_split
I0813 23:18:39.470811 20837 net.cpp:121] Top shape: 1 256 74 74 (1401856)
I0813 23:18:39.470856 20837 net.cpp:121] Top shape: 1 256 74 74 (1401856)
I0813 23:18:39.470937 20837 layer_factory.hpp:74] Creating layer conv4_1
I0813 23:18:39.471021 20837 net.cpp:85] Creating Layer conv4_1
I0813 23:18:39.471061 20837 net.cpp:381] conv4_1 <- pool3_pool3_0_split_0
I0813 23:18:39.471096 20837 net.cpp:339] conv4_1 -> conv4_1
I0813 23:18:39.471133 20837 net.cpp:114] Setting up conv4_1
I0813 23:18:39.474160 20837 net.cpp:121] Top shape: 1 512 74 74 (2803712)
I0813 23:18:39.475313 20837 layer_factory.hpp:74] Creating layer relu4_1
I0813 23:18:39.475356 20837 net.cpp:85] Creating Layer relu4_1
I0813 23:18:39.475389 20837 net.cpp:381] relu4_1 <- conv4_1
I0813 23:18:39.475424 20837 net.cpp:328] relu4_1 -> conv4_1 (in-place)
I0813 23:18:39.475460 20837 net.cpp:114] Setting up relu4_1
I0813 23:18:39.475492 20837 net.cpp:121] Top shape: 1 512 74 74 (2803712)
I0813 23:18:39.475522 20837 layer_factory.hpp:74] Creating layer conv4_2
I0813 23:18:39.475551 20837 net.cpp:85] Creating Layer conv4_2
I0813 23:18:39.475581 20837 net.cpp:381] conv4_2 <- conv4_1
I0813 23:18:39.475610 20837 net.cpp:339] conv4_2 -> conv4_2
I0813 23:18:39.475661 20837 net.cpp:114] Setting up conv4_2
I0813 23:18:39.478844 20837 net.cpp:121] Top shape: 1 512 74 74 (2803712)
I0813 23:18:39.480162 20837 layer_factory.hpp:74] Creating layer relu4_2
I0813 23:18:39.480183 20837 net.cpp:85] Creating Layer relu4_2
I0813 23:18:39.480200 20837 net.cpp:381] relu4_2 <- conv4_2
I0813 23:18:39.480218 20837 net.cpp:328] relu4_2 -> conv4_2 (in-place)
I0813 23:18:39.480237 20837 net.cpp:114] Setting up relu4_2
I0813 23:18:39.480253 20837 net.cpp:121] Top shape: 1 512 74 74 (2803712)
I0813 23:18:39.480268 20837 layer_factory.hpp:74] Creating layer conv4_3
I0813 23:18:39.480307 20837 net.cpp:85] Creating Layer conv4_3
I0813 23:18:39.480324 20837 net.cpp:381] conv4_3 <- conv4_2
I0813 23:18:39.480343 20837 net.cpp:339] conv4_3 -> conv4_3
I0813 23:18:39.480361 20837 net.cpp:114] Setting up conv4_3
I0813 23:18:39.485666 20837 net.cpp:121] Top shape: 1 512 74 74 (2803712)
I0813 23:18:39.485968 20837 layer_factory.hpp:74] Creating layer relu4_3
I0813 23:18:39.486001 20837 net.cpp:85] Creating Layer relu4_3
I0813 23:18:39.486028 20837 net.cpp:381] relu4_3 <- conv4_3
I0813 23:18:39.486054 20837 net.cpp:328] relu4_3 -> conv4_3 (in-place)
I0813 23:18:39.486080 20837 net.cpp:114] Setting up relu4_3
I0813 23:18:39.486107 20837 net.cpp:121] Top shape: 1 512 74 74 (2803712)
I0813 23:18:39.486130 20837 layer_factory.hpp:74] Creating layer pool4
I0813 23:18:39.486157 20837 net.cpp:85] Creating Layer pool4
I0813 23:18:39.486183 20837 net.cpp:381] pool4 <- conv4_3
I0813 23:18:39.486209 20837 net.cpp:339] pool4 -> pool4
I0813 23:18:39.486237 20837 net.cpp:114] Setting up pool4
I0813 23:18:39.486268 20837 net.cpp:121] Top shape: 1 512 37 37 (700928)
I0813 23:18:39.486305 20837 layer_factory.hpp:74] Creating layer pool4_pool4_0_split
I0813 23:18:39.486325 20837 net.cpp:85] Creating Layer pool4_pool4_0_split
I0813 23:18:39.486346 20837 net.cpp:381] pool4_pool4_0_split <- pool4
I0813 23:18:39.486371 20837 net.cpp:339] pool4_pool4_0_split -> pool4_pool4_0_split_0
I0813 23:18:39.486397 20837 net.cpp:339] pool4_pool4_0_split -> pool4_pool4_0_split_1
I0813 23:18:39.486424 20837 net.cpp:114] Setting up pool4_pool4_0_split
I0813 23:18:39.486452 20837 net.cpp:121] Top shape: 1 512 37 37 (700928)
I0813 23:18:39.486477 20837 net.cpp:121] Top shape: 1 512 37 37 (700928)
I0813 23:18:39.486500 20837 layer_factory.hpp:74] Creating layer conv5_1
I0813 23:18:39.486529 20837 net.cpp:85] Creating Layer conv5_1
I0813 23:18:39.486557 20837 net.cpp:381] conv5_1 <- pool4_pool4_0_split_0
I0813 23:18:39.486582 20837 net.cpp:339] conv5_1 -> conv5_1
I0813 23:18:39.486608 20837 net.cpp:114] Setting up conv5_1
I0813 23:18:39.489573 20837 net.cpp:121] Top shape: 1 512 37 37 (700928)
I0813 23:18:39.489998 20837 layer_factory.hpp:74] Creating layer relu5_1
I0813 23:18:39.490031 20837 net.cpp:85] Creating Layer relu5_1
I0813 23:18:39.490057 20837 net.cpp:381] relu5_1 <- conv5_1
I0813 23:18:39.490082 20837 net.cpp:328] relu5_1 -> conv5_1 (in-place)
I0813 23:18:39.490108 20837 net.cpp:114] Setting up relu5_1
I0813 23:18:39.490131 20837 net.cpp:121] Top shape: 1 512 37 37 (700928)
I0813 23:18:39.490154 20837 layer_factory.hpp:74] Creating layer conv5_2
I0813 23:18:39.490178 20837 net.cpp:85] Creating Layer conv5_2
I0813 23:18:39.490200 20837 net.cpp:381] conv5_2 <- conv5_1
I0813 23:18:39.490224 20837 net.cpp:339] conv5_2 -> conv5_2
I0813 23:18:39.490250 20837 net.cpp:114] Setting up conv5_2
I0813 23:18:39.497970 20837 net.cpp:121] Top shape: 1 512 37 37 (700928)
I0813 23:18:39.498214 20837 layer_factory.hpp:74] Creating layer relu5_2
I0813 23:18:39.498245 20837 net.cpp:85] Creating Layer relu5_2
I0813 23:18:39.498270 20837 net.cpp:381] relu5_2 <- conv5_2
I0813 23:18:39.498296 20837 net.cpp:328] relu5_2 -> conv5_2 (in-place)
I0813 23:18:39.498325 20837 net.cpp:114] Setting up relu5_2
I0813 23:18:39.498349 20837 net.cpp:121] Top shape: 1 512 37 37 (700928)
I0813 23:18:39.498370 20837 layer_factory.hpp:74] Creating layer conv5_3
I0813 23:18:39.498400 20837 net.cpp:85] Creating Layer conv5_3
I0813 23:18:39.498425 20837 net.cpp:381] conv5_3 <- conv5_2
I0813 23:18:39.498461 20837 net.cpp:339] conv5_3 -> conv5_3
I0813 23:18:39.498505 20837 net.cpp:114] Setting up conv5_3
I0813 23:18:39.501267 20837 net.cpp:121] Top shape: 1 512 37 37 (700928)
I0813 23:18:39.502648 20837 layer_factory.hpp:74] Creating layer relu5_3
I0813 23:18:39.502682 20837 net.cpp:85] Creating Layer relu5_3
I0813 23:18:39.502706 20837 net.cpp:381] relu5_3 <- conv5_3
I0813 23:18:39.502730 20837 net.cpp:328] relu5_3 -> conv5_3 (in-place)
I0813 23:18:39.502756 20837 net.cpp:114] Setting up relu5_3
I0813 23:18:39.502779 20837 net.cpp:121] Top shape: 1 512 37 37 (700928)
I0813 23:18:39.502804 20837 layer_factory.hpp:74] Creating layer pool5
I0813 23:18:39.502826 20837 net.cpp:85] Creating Layer pool5
I0813 23:18:39.502849 20837 net.cpp:381] pool5 <- conv5_3
I0813 23:18:39.502871 20837 net.cpp:339] pool5 -> pool5
I0813 23:18:39.502897 20837 net.cpp:114] Setting up pool5
I0813 23:18:39.502924 20837 net.cpp:121] Top shape: 1 512 19 19 (184832)
I0813 23:18:39.502949 20837 layer_factory.hpp:74] Creating layer fc6
I0813 23:18:39.502976 20837 net.cpp:85] Creating Layer fc6
I0813 23:18:39.502998 20837 net.cpp:381] fc6 <- pool5
I0813 23:18:39.503021 20837 net.cpp:339] fc6 -> fc6
I0813 23:18:39.503048 20837 net.cpp:114] Setting up fc6
I0813 23:18:40.280508 20837 net.cpp:121] Top shape: 1 4096 13 13 (692224)
I0813 23:18:40.280535 20837 layer_factory.hpp:74] Creating layer relu6
I0813 23:18:40.280547 20837 net.cpp:85] Creating Layer relu6
I0813 23:18:40.280555 20837 net.cpp:381] relu6 <- fc6
I0813 23:18:40.280563 20837 net.cpp:328] relu6 -> fc6 (in-place)
I0813 23:18:40.280571 20837 net.cpp:114] Setting up relu6
I0813 23:18:40.280577 20837 net.cpp:121] Top shape: 1 4096 13 13 (692224)
I0813 23:18:40.280583 20837 layer_factory.hpp:74] Creating layer drop6
I0813 23:18:40.280596 20837 net.cpp:85] Creating Layer drop6
I0813 23:18:40.280601 20837 net.cpp:381] drop6 <- fc6
I0813 23:18:40.280607 20837 net.cpp:328] drop6 -> fc6 (in-place)
I0813 23:18:40.280619 20837 net.cpp:114] Setting up drop6
I0813 23:18:40.280627 20837 net.cpp:121] Top shape: 1 4096 13 13 (692224)
I0813 23:18:40.280634 20837 layer_factory.hpp:74] Creating layer fc7
I0813 23:18:40.280642 20837 net.cpp:85] Creating Layer fc7
I0813 23:18:40.280645 20837 net.cpp:381] fc7 <- fc6
I0813 23:18:40.280652 20837 net.cpp:339] fc7 -> fc7
I0813 23:18:40.280659 20837 net.cpp:114] Setting up fc7
I0813 23:18:40.426268 20837 net.cpp:121] Top shape: 1 4096 13 13 (692224)
I0813 23:18:40.426296 20837 layer_factory.hpp:74] Creating layer relu7
I0813 23:18:40.426307 20837 net.cpp:85] Creating Layer relu7
I0813 23:18:40.426312 20837 net.cpp:381] relu7 <- fc7
I0813 23:18:40.426319 20837 net.cpp:328] relu7 -> fc7 (in-place)
I0813 23:18:40.426327 20837 net.cpp:114] Setting up relu7
I0813 23:18:40.426334 20837 net.cpp:121] Top shape: 1 4096 13 13 (692224)
I0813 23:18:40.426338 20837 layer_factory.hpp:74] Creating layer drop7
I0813 23:18:40.426347 20837 net.cpp:85] Creating Layer drop7
I0813 23:18:40.426350 20837 net.cpp:381] drop7 <- fc7
I0813 23:18:40.426355 20837 net.cpp:328] drop7 -> fc7 (in-place)
I0813 23:18:40.426362 20837 net.cpp:114] Setting up drop7
I0813 23:18:40.426368 20837 net.cpp:121] Top shape: 1 4096 13 13 (692224)
I0813 23:18:40.426375 20837 layer_factory.hpp:74] Creating layer score-fr
I0813 23:18:40.426383 20837 net.cpp:85] Creating Layer score-fr
I0813 23:18:40.426388 20837 net.cpp:381] score-fr <- fc7
I0813 23:18:40.426394 20837 net.cpp:339] score-fr -> score
I0813 23:18:40.426400 20837 net.cpp:114] Setting up score-fr
I0813 23:18:40.426422 20837 net.cpp:121] Top shape: 1 2 13 13 (338)
I0813 23:18:40.426429 20837 layer_factory.hpp:74] Creating layer score2
I0813 23:18:40.426435 20837 net.cpp:85] Creating Layer score2
I0813 23:18:40.426440 20837 net.cpp:381] score2 <- score
I0813 23:18:40.426445 20837 net.cpp:339] score2 -> score2
I0813 23:18:40.426450 20837 net.cpp:114] Setting up score2
I0813 23:18:40.426460 20837 net.cpp:121] Top shape: 1 2 28 28 (1568)
I0813 23:18:40.426471 20837 layer_factory.hpp:74] Creating layer score2_score2_0_split
I0813 23:18:40.426478 20837 net.cpp:85] Creating Layer score2_score2_0_split
I0813 23:18:40.426496 20837 net.cpp:381] score2_score2_0_split <- score2
I0813 23:18:40.426512 20837 net.cpp:339] score2_score2_0_split -> score2_score2_0_split_0
I0813 23:18:40.426519 20837 net.cpp:339] score2_score2_0_split -> score2_score2_0_split_1
I0813 23:18:40.426529 20837 net.cpp:114] Setting up score2_score2_0_split
I0813 23:18:40.426537 20837 net.cpp:121] Top shape: 1 2 28 28 (1568)
I0813 23:18:40.426542 20837 net.cpp:121] Top shape: 1 2 28 28 (1568)
I0813 23:18:40.426548 20837 layer_factory.hpp:74] Creating layer score-pool4
I0813 23:18:40.426553 20837 net.cpp:85] Creating Layer score-pool4
I0813 23:18:40.426558 20837 net.cpp:381] score-pool4 <- pool4_pool4_0_split_1
I0813 23:18:40.426566 20837 net.cpp:339] score-pool4 -> score-pool4
I0813 23:18:40.426571 20837 net.cpp:114] Setting up score-pool4
I0813 23:18:40.426586 20837 net.cpp:121] Top shape: 1 2 37 37 (2738)
I0813 23:18:40.426592 20837 layer_factory.hpp:74] Creating layer crop
I0813 23:18:40.426602 20837 net.cpp:85] Creating Layer crop
I0813 23:18:40.426606 20837 net.cpp:381] crop <- score-pool4
I0813 23:18:40.426611 20837 net.cpp:381] crop <- score2_score2_0_split_0
I0813 23:18:40.426617 20837 net.cpp:339] crop -> score-pool4c
I0813 23:18:40.426625 20837 net.cpp:114] Setting up crop
I0813 23:18:40.426672 20837 net.cpp:121] Top shape: 1 2 28 28 (1568)
I0813 23:18:40.426689 20837 layer_factory.hpp:74] Creating layer fuse
I0813 23:18:40.426695 20837 net.cpp:85] Creating Layer fuse
I0813 23:18:40.426702 20837 net.cpp:381] fuse <- score2_score2_0_split_1
I0813 23:18:40.426707 20837 net.cpp:381] fuse <- score-pool4c
I0813 23:18:40.426713 20837 net.cpp:339] fuse -> score-fused
I0813 23:18:40.426720 20837 net.cpp:114] Setting up fuse
I0813 23:18:40.426728 20837 net.cpp:121] Top shape: 1 2 28 28 (1568)
I0813 23:18:40.426733 20837 layer_factory.hpp:74] Creating layer score4
I0813 23:18:40.426738 20837 net.cpp:85] Creating Layer score4
I0813 23:18:40.426741 20837 net.cpp:381] score4 <- score-fused
I0813 23:18:40.426746 20837 net.cpp:339] score4 -> score4
I0813 23:18:40.426753 20837 net.cpp:114] Setting up score4
I0813 23:18:40.426760 20837 net.cpp:121] Top shape: 1 2 58 58 (6728)
I0813 23:18:40.426766 20837 layer_factory.hpp:74] Creating layer score4_score4_0_split
I0813 23:18:40.426771 20837 net.cpp:85] Creating Layer score4_score4_0_split
I0813 23:18:40.426776 20837 net.cpp:381] score4_score4_0_split <- score4
I0813 23:18:40.426782 20837 net.cpp:339] score4_score4_0_split -> score4_score4_0_split_0
I0813 23:18:40.426789 20837 net.cpp:339] score4_score4_0_split -> score4_score4_0_split_1
I0813 23:18:40.426796 20837 net.cpp:114] Setting up score4_score4_0_split
I0813 23:18:40.426801 20837 net.cpp:121] Top shape: 1 2 58 58 (6728)
I0813 23:18:40.426806 20837 net.cpp:121] Top shape: 1 2 58 58 (6728)
I0813 23:18:40.426811 20837 layer_factory.hpp:74] Creating layer score-pool3
I0813 23:18:40.426818 20837 net.cpp:85] Creating Layer score-pool3
I0813 23:18:40.426825 20837 net.cpp:381] score-pool3 <- pool3_pool3_0_split_1
I0813 23:18:40.426831 20837 net.cpp:339] score-pool3 -> score-pool3
I0813 23:18:40.426836 20837 net.cpp:114] Setting up score-pool3
I0813 23:18:40.426851 20837 net.cpp:121] Top shape: 1 2 74 74 (10952)
I0813 23:18:40.426856 20837 layer_factory.hpp:74] Creating layer crop
I0813 23:18:40.426862 20837 net.cpp:85] Creating Layer crop
I0813 23:18:40.426867 20837 net.cpp:381] crop <- score-pool3
I0813 23:18:40.426872 20837 net.cpp:381] crop <- score4_score4_0_split_0
I0813 23:18:40.426877 20837 net.cpp:339] crop -> score-pool3c
I0813 23:18:40.426883 20837 net.cpp:114] Setting up crop
I0813 23:18:40.426916 20837 net.cpp:121] Top shape: 1 2 58 58 (6728)
I0813 23:18:40.426921 20837 layer_factory.hpp:74] Creating layer fuse
I0813 23:18:40.426926 20837 net.cpp:85] Creating Layer fuse
I0813 23:18:40.426931 20837 net.cpp:381] fuse <- score4_score4_0_split_1
I0813 23:18:40.426935 20837 net.cpp:381] fuse <- score-pool3c
I0813 23:18:40.426940 20837 net.cpp:339] fuse -> score-final
I0813 23:18:40.426947 20837 net.cpp:114] Setting up fuse
I0813 23:18:40.426954 20837 net.cpp:121] Top shape: 1 2 58 58 (6728)
I0813 23:18:40.426965 20837 layer_factory.hpp:74] Creating layer upsample
I0813 23:18:40.426971 20837 net.cpp:85] Creating Layer upsample
I0813 23:18:40.426976 20837 net.cpp:381] upsample <- score-final
I0813 23:18:40.426982 20837 net.cpp:339] upsample -> bigscore
I0813 23:18:40.426988 20837 net.cpp:114] Setting up upsample
I0813 23:18:40.426998 20837 net.cpp:121] Top shape: 1 2 472 472 (445568)
I0813 23:18:40.427005 20837 layer_factory.hpp:74] Creating layer crop
I0813 23:18:40.427008 20837 net.cpp:85] Creating Layer crop
I0813 23:18:40.427012 20837 net.cpp:381] crop <- bigscore
I0813 23:18:40.427017 20837 net.cpp:381] crop <- data_data_0_split_1
I0813 23:18:40.427028 20837 net.cpp:339] crop -> upscore
I0813 23:18:40.427034 20837 net.cpp:114] Setting up crop
I0813 23:18:40.427078 20837 net.cpp:121] Top shape: 1 2 388 388 (301088)
I0813 23:18:40.427084 20837 layer_factory.hpp:74] Creating layer loss
I0813 23:18:40.427093 20837 net.cpp:85] Creating Layer loss
I0813 23:18:40.427099 20837 net.cpp:381] loss <- upscore
I0813 23:18:40.427103 20837 net.cpp:381] loss <- label
I0813 23:18:40.427109 20837 net.cpp:339] loss -> loss
I0813 23:18:40.427119 20837 net.cpp:114] Setting up loss
I0813 23:18:40.427125 20837 layer_factory.hpp:74] Creating layer loss
…
I0813 23:18:40.429258 20837 net.cpp:42] Initializing net from parameters: 
name: "FCN"
state {
  phase: TEST
}
layer {
  name: "data"
  type: "ImageMat"
  top: "data"
  top: "label"
  include {
    phase: TEST
  }
  transform_param {
    mirror: true
    crop_size: 388
    mean_value: 104.008
    mean_value: 116.669
    mean_value: 122.675
  }
  image_data_param {
    source: "/media/BigDisk/xiaoyong/datafrommac/ourfacedata_train_2/ourtestdatalist_5mat.txt"
    batch_size: 1
    shuffle: true
    root_folder: ""
    ignore_label: 255
    label_type: PIXEL
  }
}
layer {
  name: "conv1_1"
  type: "Convolution"
  bottom: "data"
  top: "conv1_1"
  param {
    lr_mult: 1
    decay_mult: 1
  }
  param {
    lr_mult: 2
    decay_mult: 0
  }
  convolution_param {
    num_output: 64
    pad: 100
    kernel_size: 3
    engine: CAFFE
  }
}
layer {
  name: "relu1_1"
  type: "ReLU"
  bottom: "conv1_1"
  top: "conv1_1"
}
layer {
  name: "conv1_2"
  type: "Convolution"
  bottom: "conv1_1"
  top: "conv1_2"
  param {
    lr_mult: 1
    decay_mult: 1
  }
  param {
    lr_mult: 2
    decay_mult: 0
  }
  convolution_param {
    num_output: 64
    pad: 1
    kernel_size: 3
    engine: CAFFE
  }
}
layer {
  name: "relu1_2"
  type: "ReLU"
  bottom: "conv1_2"
  top: "conv1_2"
}
layer {
  name: "pool1"
  type: "Pooling"
  bottom: "conv1_2"
  top: "pool1"
  pooling_param {
    pool: MAX
    kernel_size: 2
    stride: 2
  }
}
layer {
  name: "conv2_1"
  type: "Convolution"
  bottom: "pool1"
  top: "conv2_1"
  param {
    lr_mult: 1
    decay_mult: 1
  }
  param {
    lr_mult: 2
    decay_mult: 0
  }
  convolution_param {
    num_output: 128
    pad: 1
    kernel_size: 3
    engine: CAFFE
  }
}
layer {
  name: "relu2_1"
  type: "ReLU"
  bottom: "conv2_1"
  top: "conv2_1"
}
layer {
  name: "conv2_2"
  type: "Convolution"
  bottom: "conv2_1"
  top: "conv2_2"
  param {
    lr_mult: 1
    decay_mult: 1
  }
  param {
    lr_mult: 2
    decay_mult: 0
  }
  convolution_param {
    num_output: 128
    pad: 1
    kernel_size: 3
    engine: CAFFE
  }
}
layer {
  name: "relu2_2"
  type: "ReLU"
  bottom: "conv2_2"
  top: "conv2_2"
}
layer {
  name: "pool2"
  type: "Pooling"
  bottom: "conv2_2"
  top: "pool2"
  pooling_param {
    pool: MAX
    kernel_size: 2
    stride: 2
  }
}
layer {
  name: "conv3_1"
  type: "Convolution"
  bottom: "pool2"
  top: "conv3_1"
  param {
    lr_mult: 1
    decay_mult: 1
  }
  param {
    lr_mult: 2
    decay_mult: 0
  }
  convolution_param {
    num_output: 256
    pad: 1
    kernel_size: 3
    engine: CAFFE
  }
}
layer {
  name: "relu3_1"
  type: "ReLU"
  bottom: "conv3_1"
  top: "conv3_1"
}
layer {
  name: "conv3_2"
  type: "Convolution"
  bottom: "conv3_1"
  top: "conv3_2"
  param {
    lr_mult: 1
    decay_mult: 1
  }
  param {
    lr_mult: 2
    decay_mult: 0
  }
  convolution_param {
    num_output: 256
    pad: 1
    kernel_size: 3
    engine: CAFFE
  }
}
layer {
  name: "relu3_2"
  type: "ReLU"
  bottom: "conv3_2"
  top: "conv3_2"
}
layer {
  name: "conv3_3"
  type: "Convolution"
  bottom: "conv3_2"
  top: "conv3_3"
  param {
    lr_mult: 1
    decay_mult: 1
  }
  param {
    lr_mult: 2
    decay_mult: 0
  }
  convolution_param {
    num_output: 256
    pad: 1
    kernel_size: 3
    engine: CAFFE
  }
}
layer {
  name: "relu3_3"
  type: "ReLU"
  bottom: "conv3_3"
  top: "conv3_3"
}
layer {
  name: "pool3"
  type: "Pooling"
  bottom: "conv3_3"
  top: "pool3"
  pooling_param {
    pool: MAX
    kernel_size: 2
    stride: 2
  }
}
layer {
  name: "conv4_1"
  type: "Convolution"
  bottom: "pool3"
  top: "conv4_1"
  param {
    lr_mult: 1
    decay_mult: 1
  }
  param {
    lr_mult: 2
    decay_mult: 0
  }
  convolution_param {
    num_output: 512
    pad: 1
    kernel_size: 3
    engine: CAFFE
  }
}
layer {
  name: "relu4_1"
  type: "ReLU"
  bottom: "conv4_1"
  top: "conv4_1"
}
layer {
  name: "conv4_2"
  type: "Convolution"
  bottom: "conv4_1"
  top: "conv4_2"
  param {
    lr_mult: 1
    decay_mult: 1
  }
  param {
    lr_mult: 2
    decay_mult: 0
  }
  convolution_param {
    num_output: 512
    pad: 1
    kernel_size: 3
    engine: CAFFE
  }
}
layer {
  name: "relu4_2"
  type: "ReLU"
  bottom: "conv4_2"
  top: "conv4_2"
}
layer {
  name: "conv4_3"
  type: "Convolution"
  bottom: "conv4_2"
  top: "conv4_3"
  param {
    lr_mult: 1
    decay_mult: 1
  }
  param {
    lr_mult: 2
    decay_mult: 0
  }
  convolution_param {
    num_output: 512
    pad: 1
    kernel_size: 3
    engine: CAFFE
  }
}
layer {
  name: "relu4_3"
  type: "ReLU"
  bottom: "conv4_3"
  top: "conv4_3"
}
layer {
  name: "pool4"
  type: "Pooling"
  bottom: "conv4_3"
  top: "pool4"
  pooling_param {
    pool: MAX
    kernel_size: 2
    stride: 2
  }
}
layer {
  name: "conv5_1"
  type: "Convolution"
  bottom: "pool4"
  top: "conv5_1"
  param {
    lr_mult: 1
    decay_mult: 1
  }
  param {
    lr_mult: 2
    decay_mult: 0
  }
  convolution_param {
    num_output: 512
    pad: 1
    kernel_size: 3
    engine: CAFFE
  }
}
layer {
  name: "relu5_1"
  type: "ReLU"
  bottom: "conv5_1"
  top: "conv5_1"
}
layer {
  name: "conv5_2"
  type: "Convolution"
  bottom: "conv5_1"
  top: "conv5_2"
  param {
    lr_mult: 1
    decay_mult: 1
  }
  param {
    lr_mult: 2
    decay_mult: 0
  }
  convolution_param {
    num_output: 512
    pad: 1
    kernel_size: 3
    engine: CAFFE
  }
}
layer {
  name: "relu5_2"
  type: "ReLU"
  bottom: "conv5_2"
  top: "conv5_2"
}
layer {
  name: "conv5_3"
  type: "Convolution"
  bottom: "conv5_2"
  top: "conv5_3"
  param {
    lr_mult: 1
    decay_mult: 1
  }
  param {
    lr_mult: 2
    decay_mult: 0
  }
  convolution_param {
    num_output: 512
    pad: 1
    kernel_size: 3
    engine: CAFFE
  }
}
layer {
  name: "relu5_3"
  type: "ReLU"
  bottom: "conv5_3"
  top: "conv5_3"
}
layer {
  name: "pool5"
  type: "Pooling"
  bottom: "conv5_3"
  top: "pool5"
  pooling_param {
    pool: MAX
    kernel_size: 2
    stride: 2
  }
}
layer {
  name: "fc6"
  type: "Convolution"
  bottom: "pool5"
  top: "fc6"
  param {
    lr_mult: 1
    decay_mult: 1
  }
  param {
    lr_mult: 2
    decay_mult: 0
  }
  convolution_param {
    num_output: 4096
    kernel_size: 7
    engine: CAFFE
  }
}
layer {
  name: "relu6"
  type: "ReLU"
  bottom: "fc6"
  top: "fc6"
}
layer {
  name: "drop6"
  type: "Dropout"
  bottom: "fc6"
  top: "fc6"
  dropout_param {
    dropout_ratio: 0.5
  }
}
layer {
  name: "fc7"
  type: "Convolution"
  bottom: "fc6"
  top: "fc7"
  param {
    lr_mult: 1
    decay_mult: 1
  }
  param {
    lr_mult: 2
    decay_mult: 0
  }
  convolution_param {
    num_output: 4096
    kernel_size: 1
    engine: CAFFE
  }
}
layer {
  name: "relu7"
  type: "ReLU"
  bottom: "fc7"
  top: "fc7"
}
layer {
  name: "drop7"
  type: "Dropout"
  bottom: "fc7"
  top: "fc7"
  dropout_param {
    dropout_ratio: 0.5
  }
}
layer {
  name: "score-fr"
  type: "Convolution"
  bottom: "fc7"
  top: "score"
  param {
    lr_mult: 1
    decay_mult: 1
  }
  param {
    lr_mult: 2
    decay_mult: 0
  }
  convolution_param {
    num_output: 2
    kernel_size: 1
    engine: CAFFE
  }
}
layer {
  name: "score2"
  type: "Deconvolution"
  bottom: "score"
  top: "score2"
  param {
    lr_mult: 1
    decay_mult: 1
  }
  param {
    lr_mult: 2
    decay_mult: 0
  }
  convolution_param {
    num_output: 2
    kernel_size: 4
    stride: 2
  }
}
layer {
  name: "score-pool4"
  type: "Convolution"
  bottom: "pool4"
  top: "score-pool4"
  param {
    lr_mult: 1
    decay_mult: 1
  }
  param {
    lr_mult: 2
    decay_mult: 0
  }
  convolution_param {
    num_output: 2
    kernel_size: 1
    engine: CAFFE
  }
}
layer {
  name: "crop"
  type: "Crop"
  bottom: "score-pool4"
  bottom: "score2"
  top: "score-pool4c"
}
layer {
  name: "fuse"
  type: "Eltwise"
  bottom: "score2"
  bottom: "score-pool4c"
  top: "score-fused"
  eltwise_param {
    operation: SUM
  }
}
layer {
  name: "score4"
  type: "Deconvolution"
  bottom: "score-fused"
  top: "score4"
  param {
    lr_mult: 1
    decay_mult: 1
  }
  convolution_param {
    num_output: 2
    bias_term: false
    kernel_size: 4
    stride: 2
  }
}
layer {
  name: "score-pool3"
  type: "Convolution"
  bottom: "pool3"
  top: "score-pool3"
  param {
    lr_mult: 1
    decay_mult: 1
  }
  param {
    lr_mult: 2
    decay_mult: 0
  }
  convolution_param {
    num_output: 2
    kernel_size: 1
    engine: CAFFE
  }
}
layer {
  name: "crop"
  type: "Crop"
  bottom: "score-pool3"
  bottom: "score4"
  top: "score-pool3c"
}
layer {
  name: "fuse"
  type: "Eltwise"
  bottom: "score4"
  bottom: "score-pool3c"
  top: "score-final"
  eltwise_param {
    operation: SUM
  }
}
layer {
  name: "upsample"
  type: "Deconvolution"
  bottom: "score-final"
  top: "bigscore"
  param {
    lr_mult: 1
  }
  convolution_param {
    num_output: 2
    bias_term: false
    kernel_size: 16
    stride: 8
  }
}
layer {
  name: "crop"
  type: "Crop"
  bottom: "bigscore"
  bottom: "data"
  top: "upscore"
}
layer {
  name: "loss"
  type: "SoftmaxWithLoss"
  bottom: "upscore"
  bottom: "label"
  top: "loss"
  loss_param {
    ignore_label: 255
  }
}
layer {
  name: "accuracy"
  type: "SegAccuracy"
  bottom: "upscore"
  bottom: "label"
  top: "accuracy"
  include {
    phase: TEST
  }
  seg_accuracy_param {
    ignore_label: 255
  }
}
I0813 23:18:40.429445 20837 layer_factory.hpp:74] Creating layer data
I0813 23:18:40.429458 20837 net.cpp:85] Creating Layer data
I0813 23:18:40.429464 20837 net.cpp:339] data -> data
I0813 23:18:40.429474 20837 net.cpp:339] data -> label
I0813 23:18:40.429483 20837 net.cpp:339] data -> (automatic)
I0813 23:18:40.429489 20837 net.cpp:114] Setting up data
I0813 23:18:40.429500 20837 image_mat_layer.cpp:55] Opening file /media/BigDisk/xiaoyong/datafrommac/ourfacedata_train_2/ourtestdatalist_5mat.txt
I0813 23:18:40.431452 20837 image_mat_layer.cpp:72] Shuffling data
I0813 23:18:40.431502 20837 image_mat_layer.cpp:77] A total of 339 images.
I0813 23:18:40.518605 20837 image_mat_layer.cpp:143] output data size: 1,5,388,388
I0813 23:18:40.518626 20837 image_mat_layer.cpp:147] output label size: 1,1,388,388
I0813 23:18:40.518630 20837 image_mat_layer.cpp:151] output data_dim size: 1,1,1,2
I0813 23:18:40.519035 20837 net.cpp:121] Top shape: 1 5 388 388 (752720)
I0813 23:18:40.519045 20837 net.cpp:121] Top shape: 1 1 388 388 (150544)
I0813 23:18:40.519052 20837 net.cpp:121] Top shape: 1 1 1 2 (2)
I0813 23:18:40.519060 20837 layer_factory.hpp:74] Creating layer data_data_0_split
I0813 23:18:40.519075 20837 net.cpp:85] Creating Layer data_data_0_split
I0813 23:18:40.519086 20837 net.cpp:381] data_data_0_split <- data
I0813 23:18:40.519096 20837 net.cpp:339] data_data_0_split -> data_data_0_split_0
I0813 23:18:40.519106 20837 net.cpp:339] data_data_0_split -> data_data_0_split_1
I0813 23:18:40.519114 20837 net.cpp:114] Setting up data_data_0_split
I0813 23:18:40.519124 20837 net.cpp:121] Top shape: 1 5 388 388 (752720)
I0813 23:18:40.519132 20837 net.cpp:121] Top shape: 1 5 388 388 (752720)
I0813 23:18:40.519140 20837 layer_factory.hpp:74] Creating layer label_data_1_split
I0813 23:18:40.519150 20837 net.cpp:85] Creating Layer label_data_1_split
I0813 23:18:40.519155 20837 net.cpp:381] label_data_1_split <- label
I0813 23:18:40.519160 20837 net.cpp:339] label_data_1_split -> label_data_1_split_0
I0813 23:18:40.519167 20837 net.cpp:339] label_data_1_split -> label_data_1_split_1
I0813 23:18:40.519173 20837 net.cpp:114] Setting up label_data_1_split
I0813 23:18:40.519182 20837 net.cpp:121] Top shape: 1 1 388 388 (150544)
I0813 23:18:40.519188 20837 net.cpp:121] Top shape: 1 1 388 388 (150544)
I0813 23:18:40.519196 20837 layer_factory.hpp:74] Creating layer conv1_1
I0813 23:18:40.519208 20837 net.cpp:85] Creating Layer conv1_1
I0813 23:18:40.519217 20837 net.cpp:381] conv1_1 <- data_data_0_split_0
I0813 23:18:40.519225 20837 net.cpp:339] conv1_1 -> conv1_1
I0813 23:18:40.519235 20837 net.cpp:114] Setting up conv1_1
I0813 23:18:40.519498 20837 net.cpp:121] Top shape: 1 64 586 586 (21977344)
I0813 23:18:40.519513 20837 layer_factory.hpp:74] Creating layer relu1_1
I0813 23:18:40.519531 20837 net.cpp:85] Creating Layer relu1_1
I0813 23:18:40.519536 20837 net.cpp:381] relu1_1 <- conv1_1
I0813 23:18:40.519542 20837 net.cpp:328] relu1_1 -> conv1_1 (in-place)
I0813 23:18:40.519551 20837 net.cpp:114] Setting up relu1_1
I0813 23:18:40.519557 20837 net.cpp:121] Top shape: 1 64 586 586 (21977344)
I0813 23:18:40.519567 20837 layer_factory.hpp:74] Creating layer conv1_2
I0813 23:18:40.519575 20837 net.cpp:85] Creating Layer conv1_2
I0813 23:18:40.519582 20837 net.cpp:381] conv1_2 <- conv1_1
I0813 23:18:40.519588 20837 net.cpp:339] conv1_2 -> conv1_2
I0813 23:18:40.519595 20837 net.cpp:114] Setting up conv1_2
I0813 23:18:40.519877 20837 net.cpp:121] Top shape: 1 64 586 586 (21977344)
I0813 23:18:40.519887 20837 layer_factory.hpp:74] Creating layer relu1_2
I0813 23:18:40.519896 20837 net.cpp:85] Creating Layer relu1_2
I0813 23:18:40.519902 20837 net.cpp:381] relu1_2 <- conv1_2
I0813 23:18:40.519908 20837 net.cpp:328] relu1_2 -> conv1_2 (in-place)
I0813 23:18:40.519913 20837 net.cpp:114] Setting up relu1_2
I0813 23:18:40.519919 20837 net.cpp:121] Top shape: 1 64 586 586 (21977344)
I0813 23:18:40.519923 20837 layer_factory.hpp:74] Creating layer pool1
I0813 23:18:40.519930 20837 net.cpp:85] Creating Layer pool1
I0813 23:18:40.519935 20837 net.cpp:381] pool1 <- conv1_2
I0813 23:18:40.519942 20837 net.cpp:339] pool1 -> pool1
I0813 23:18:40.519948 20837 net.cpp:114] Setting up pool1
I0813 23:18:40.519956 20837 net.cpp:121] Top shape: 1 64 293 293 (5494336)
I0813 23:18:40.519960 20837 layer_factory.hpp:74] Creating layer conv2_1
I0813 23:18:40.519968 20837 net.cpp:85] Creating Layer conv2_1
I0813 23:18:40.519975 20837 net.cpp:381] conv2_1 <- pool1
I0813 23:18:40.519983 20837 net.cpp:339] conv2_1 -> conv2_1
I0813 23:18:40.519991 20837 net.cpp:114] Setting up conv2_1
I0813 23:18:40.520139 20837 net.cpp:121] Top shape: 1 128 293 293 (10988672)
I0813 23:18:40.520164 20837 layer_factory.hpp:74] Creating layer relu2_1
I0813 23:18:40.520170 20837 net.cpp:85] Creating Layer relu2_1
I0813 23:18:40.520177 20837 net.cpp:381] relu2_1 <- conv2_1
I0813 23:18:40.520185 20837 net.cpp:328] relu2_1 -> conv2_1 (in-place)
I0813 23:18:40.520196 20837 net.cpp:114] Setting up relu2_1
I0813 23:18:40.520205 20837 net.cpp:121] Top shape: 1 128 293 293 (10988672)
I0813 23:18:40.520212 20837 layer_factory.hpp:74] Creating layer conv2_2
I0813 23:18:40.520222 20837 net.cpp:85] Creating Layer conv2_2
I0813 23:18:40.520228 20837 net.cpp:381] conv2_2 <- conv2_1
I0813 23:18:40.520236 20837 net.cpp:339] conv2_2 -> conv2_2
I0813 23:18:40.520242 20837 net.cpp:114] Setting up conv2_2
I0813 23:18:40.520424 20837 net.cpp:121] Top shape: 1 128 293 293 (10988672)
I0813 23:18:40.520436 20837 layer_factory.hpp:74] Creating layer relu2_2
I0813 23:18:40.520442 20837 net.cpp:85] Creating Layer relu2_2
I0813 23:18:40.520452 20837 net.cpp:381] relu2_2 <- conv2_2
I0813 23:18:40.520460 20837 net.cpp:328] relu2_2 -> conv2_2 (in-place)
I0813 23:18:40.520468 20837 net.cpp:114] Setting up relu2_2
I0813 23:18:40.520476 20837 net.cpp:121] Top shape: 1 128 293 293 (10988672)
I0813 23:18:40.520481 20837 layer_factory.hpp:74] Creating layer pool2
I0813 23:18:40.520488 20837 net.cpp:85] Creating Layer pool2
I0813 23:18:40.520493 20837 net.cpp:381] pool2 <- conv2_2
I0813 23:18:40.520499 20837 net.cpp:339] pool2 -> pool2
I0813 23:18:40.520506 20837 net.cpp:114] Setting up pool2
I0813 23:18:40.520515 20837 net.cpp:121] Top shape: 1 128 147 147 (2765952)
I0813 23:18:40.520522 20837 layer_factory.hpp:74] Creating layer conv3_1
I0813 23:18:40.520530 20837 net.cpp:85] Creating Layer conv3_1
I0813 23:18:40.520534 20837 net.cpp:381] conv3_1 <- pool2
I0813 23:18:40.520540 20837 net.cpp:339] conv3_1 -> conv3_1
I0813 23:18:40.520547 20837 net.cpp:114] Setting up conv3_1
I0813 23:18:40.520781 20837 net.cpp:121] Top shape: 1 256 147 147 (5531904)
I0813 23:18:40.520793 20837 layer_factory.hpp:74] Creating layer relu3_1
I0813 23:18:40.520800 20837 net.cpp:85] Creating Layer relu3_1
I0813 23:18:40.520804 20837 net.cpp:381] relu3_1 <- conv3_1
I0813 23:18:40.520812 20837 net.cpp:328] relu3_1 -> conv3_1 (in-place)
I0813 23:18:40.520818 20837 net.cpp:114] Setting up relu3_1
I0813 23:18:40.520826 20837 net.cpp:121] Top shape: 1 256 147 147 (5531904)
I0813 23:18:40.520831 20837 layer_factory.hpp:74] Creating layer conv3_2
I0813 23:18:40.520838 20837 net.cpp:85] Creating Layer conv3_2
I0813 23:18:40.520845 20837 net.cpp:381] conv3_2 <- conv3_1
I0813 23:18:40.520850 20837 net.cpp:339] conv3_2 -> conv3_2
I0813 23:18:40.520859 20837 net.cpp:114] Setting up conv3_2
I0813 23:18:40.521298 20837 net.cpp:121] Top shape: 1 256 147 147 (5531904)
I0813 23:18:40.521308 20837 layer_factory.hpp:74] Creating layer relu3_2
I0813 23:18:40.521314 20837 net.cpp:85] Creating Layer relu3_2
I0813 23:18:40.521320 20837 net.cpp:381] relu3_2 <- conv3_2
I0813 23:18:40.521327 20837 net.cpp:328] relu3_2 -> conv3_2 (in-place)
I0813 23:18:40.521333 20837 net.cpp:114] Setting up relu3_2
I0813 23:18:40.521340 20837 net.cpp:121] Top shape: 1 256 147 147 (5531904)
I0813 23:18:40.521349 20837 layer_factory.hpp:74] Creating layer conv3_3
I0813 23:18:40.521356 20837 net.cpp:85] Creating Layer conv3_3
I0813 23:18:40.521364 20837 net.cpp:381] conv3_3 <- conv3_2
I0813 23:18:40.521368 20837 net.cpp:339] conv3_3 -> conv3_3
I0813 23:18:40.521375 20837 net.cpp:114] Setting up conv3_3
I0813 23:18:40.521879 20837 net.cpp:121] Top shape: 1 256 147 147 (5531904)
I0813 23:18:40.521889 20837 layer_factory.hpp:74] Creating layer relu3_3
I0813 23:18:40.521895 20837 net.cpp:85] Creating Layer relu3_3
I0813 23:18:40.521903 20837 net.cpp:381] relu3_3 <- conv3_3
I0813 23:18:40.521908 20837 net.cpp:328] relu3_3 -> conv3_3 (in-place)
I0813 23:18:40.521913 20837 net.cpp:114] Setting up relu3_3
I0813 23:18:40.521919 20837 net.cpp:121] Top shape: 1 256 147 147 (5531904)
I0813 23:18:40.521924 20837 layer_factory.hpp:74] Creating layer pool3
I0813 23:18:40.521939 20837 net.cpp:85] Creating Layer pool3
I0813 23:18:40.521942 20837 net.cpp:381] pool3 <- conv3_3
I0813 23:18:40.521949 20837 net.cpp:339] pool3 -> pool3
I0813 23:18:40.521955 20837 net.cpp:114] Setting up pool3
I0813 23:18:40.521963 20837 net.cpp:121] Top shape: 1 256 74 74 (1401856)
I0813 23:18:40.521967 20837 layer_factory.hpp:74] Creating layer pool3_pool3_0_split
I0813 23:18:40.521973 20837 net.cpp:85] Creating Layer pool3_pool3_0_split
I0813 23:18:40.521977 20837 net.cpp:381] pool3_pool3_0_split <- pool3
I0813 23:18:40.521981 20837 net.cpp:339] pool3_pool3_0_split -> pool3_pool3_0_split_0
I0813 23:18:40.521987 20837 net.cpp:339] pool3_pool3_0_split -> pool3_pool3_0_split_1
I0813 23:18:40.521993 20837 net.cpp:114] Setting up pool3_pool3_0_split
I0813 23:18:40.521999 20837 net.cpp:121] Top shape: 1 256 74 74 (1401856)
I0813 23:18:40.522006 20837 net.cpp:121] Top shape: 1 256 74 74 (1401856)
I0813 23:18:40.522011 20837 layer_factory.hpp:74] Creating layer conv4_1
I0813 23:18:40.522017 20837 net.cpp:85] Creating Layer conv4_1
I0813 23:18:40.522020 20837 net.cpp:381] conv4_1 <- pool3_pool3_0_split_0
I0813 23:18:40.522027 20837 net.cpp:339] conv4_1 -> conv4_1
I0813 23:18:40.522032 20837 net.cpp:114] Setting up conv4_1
I0813 23:18:40.522989 20837 net.cpp:121] Top shape: 1 512 74 74 (2803712)
I0813 23:18:40.523000 20837 layer_factory.hpp:74] Creating layer relu4_1
I0813 23:18:40.523006 20837 net.cpp:85] Creating Layer relu4_1
I0813 23:18:40.523011 20837 net.cpp:381] relu4_1 <- conv4_1
I0813 23:18:40.523018 20837 net.cpp:328] relu4_1 -> conv4_1 (in-place)
I0813 23:18:40.523025 20837 net.cpp:114] Setting up relu4_1
I0813 23:18:40.523030 20837 net.cpp:121] Top shape: 1 512 74 74 (2803712)
I0813 23:18:40.523035 20837 layer_factory.hpp:74] Creating layer conv4_2
I0813 23:18:40.523041 20837 net.cpp:85] Creating Layer conv4_2
I0813 23:18:40.523046 20837 net.cpp:381] conv4_2 <- conv4_1
I0813 23:18:40.523051 20837 net.cpp:339] conv4_2 -> conv4_2
I0813 23:18:40.523059 20837 net.cpp:114] Setting up conv4_2
I0813 23:18:40.537453 20837 net.cpp:121] Top shape: 1 512 74 74 (2803712)
I0813 23:18:40.537477 20837 layer_factory.hpp:74] Creating layer relu4_2
I0813 23:18:40.537487 20837 net.cpp:85] Creating Layer relu4_2
I0813 23:18:40.537492 20837 net.cpp:381] relu4_2 <- conv4_2
I0813 23:18:40.537499 20837 net.cpp:328] relu4_2 -> conv4_2 (in-place)
I0813 23:18:40.537506 20837 net.cpp:114] Setting up relu4_2
I0813 23:18:40.537511 20837 net.cpp:121] Top shape: 1 512 74 74 (2803712)
I0813 23:18:40.537518 20837 layer_factory.hpp:74] Creating layer conv4_3
I0813 23:18:40.537524 20837 net.cpp:85] Creating Layer conv4_3
I0813 23:18:40.537528 20837 net.cpp:381] conv4_3 <- conv4_2
I0813 23:18:40.537533 20837 net.cpp:339] conv4_3 -> conv4_3
I0813 23:18:40.537540 20837 net.cpp:114] Setting up conv4_3
I0813 23:18:40.555698 20837 net.cpp:121] Top shape: 1 512 74 74 (2803712)
I0813 23:18:40.555719 20837 layer_factory.hpp:74] Creating layer relu4_3
I0813 23:18:40.555732 20837 net.cpp:85] Creating Layer relu4_3
I0813 23:18:40.555735 20837 net.cpp:381] relu4_3 <- conv4_3
I0813 23:18:40.555742 20837 net.cpp:328] relu4_3 -> conv4_3 (in-place)
I0813 23:18:40.555748 20837 net.cpp:114] Setting up relu4_3
I0813 23:18:40.555755 20837 net.cpp:121] Top shape: 1 512 74 74 (2803712)
I0813 23:18:40.555758 20837 layer_factory.hpp:74] Creating layer pool4
I0813 23:18:40.555768 20837 net.cpp:85] Creating Layer pool4
I0813 23:18:40.555774 20837 net.cpp:381] pool4 <- conv4_3
I0813 23:18:40.555780 20837 net.cpp:339] pool4 -> pool4
I0813 23:18:40.555790 20837 net.cpp:114] Setting up pool4
I0813 23:18:40.555799 20837 net.cpp:121] Top shape: 1 512 37 37 (700928)
I0813 23:18:40.555802 20837 layer_factory.hpp:74] Creating layer pool4_pool4_0_split
I0813 23:18:40.555810 20837 net.cpp:85] Creating Layer pool4_pool4_0_split
I0813 23:18:40.555814 20837 net.cpp:381] pool4_pool4_0_split <- pool4
I0813 23:18:40.555829 20837 net.cpp:339] pool4_pool4_0_split -> pool4_pool4_0_split_0
I0813 23:18:40.555837 20837 net.cpp:339] pool4_pool4_0_split -> pool4_pool4_0_split_1
I0813 23:18:40.555863 20837 net.cpp:114] Setting up pool4_pool4_0_split
I0813 23:18:40.555873 20837 net.cpp:121] Top shape: 1 512 37 37 (700928)
I0813 23:18:40.555883 20837 net.cpp:121] Top shape: 1 512 37 37 (700928)
I0813 23:18:40.555894 20837 layer_factory.hpp:74] Creating layer conv5_1
I0813 23:18:40.555907 20837 net.cpp:85] Creating Layer conv5_1
I0813 23:18:40.555920 20837 net.cpp:381] conv5_1 <- pool4_pool4_0_split_0
I0813 23:18:40.555930 20837 net.cpp:339] conv5_1 -> conv5_1
I0813 23:18:40.555943 20837 net.cpp:114] Setting up conv5_1
I0813 23:18:40.576962 20837 net.cpp:121] Top shape: 1 512 37 37 (700928)
I0813 23:18:40.576984 20837 layer_factory.hpp:74] Creating layer relu5_1
I0813 23:18:40.576994 20837 net.cpp:85] Creating Layer relu5_1
I0813 23:18:40.576999 20837 net.cpp:381] relu5_1 <- conv5_1
I0813 23:18:40.577008 20837 net.cpp:328] relu5_1 -> conv5_1 (in-place)
I0813 23:18:40.577016 20837 net.cpp:114] Setting up relu5_1
I0813 23:18:40.577025 20837 net.cpp:121] Top shape: 1 512 37 37 (700928)
I0813 23:18:40.577033 20837 layer_factory.hpp:74] Creating layer conv5_2
I0813 23:18:40.577039 20837 net.cpp:85] Creating Layer conv5_2
I0813 23:18:40.577046 20837 net.cpp:381] conv5_2 <- conv5_1
I0813 23:18:40.577055 20837 net.cpp:339] conv5_2 -> conv5_2
I0813 23:18:40.577064 20837 net.cpp:114] Setting up conv5_2
I0813 23:18:40.598377 20837 net.cpp:121] Top shape: 1 512 37 37 (700928)
I0813 23:18:40.598398 20837 layer_factory.hpp:74] Creating layer relu5_2
I0813 23:18:40.598412 20837 net.cpp:85] Creating Layer relu5_2
I0813 23:18:40.598418 20837 net.cpp:381] relu5_2 <- conv5_2
I0813 23:18:40.598426 20837 net.cpp:328] relu5_2 -> conv5_2 (in-place)
I0813 23:18:40.598434 20837 net.cpp:114] Setting up relu5_2
I0813 23:18:40.598440 20837 net.cpp:121] Top shape: 1 512 37 37 (700928)
I0813 23:18:40.598445 20837 layer_factory.hpp:74] Creating layer conv5_3
I0813 23:18:40.598453 20837 net.cpp:85] Creating Layer conv5_3
I0813 23:18:40.598459 20837 net.cpp:381] conv5_3 <- conv5_2
I0813 23:18:40.598467 20837 net.cpp:339] conv5_3 -> conv5_3
I0813 23:18:40.598476 20837 net.cpp:114] Setting up conv5_3
I0813 23:18:40.616614 20837 net.cpp:121] Top shape: 1 512 37 37 (700928)
I0813 23:18:40.616642 20837 layer_factory.hpp:74] Creating layer relu5_3
I0813 23:18:40.616652 20837 net.cpp:85] Creating Layer relu5_3
I0813 23:18:40.616658 20837 net.cpp:381] relu5_3 <- conv5_3
I0813 23:18:40.616665 20837 net.cpp:328] relu5_3 -> conv5_3 (in-place)
I0813 23:18:40.616672 20837 net.cpp:114] Setting up relu5_3
I0813 23:18:40.616677 20837 net.cpp:121] Top shape: 1 512 37 37 (700928)
I0813 23:18:40.616683 20837 layer_factory.hpp:74] Creating layer pool5
I0813 23:18:40.616693 20837 net.cpp:85] Creating Layer pool5
I0813 23:18:40.616699 20837 net.cpp:381] pool5 <- conv5_3
I0813 23:18:40.616706 20837 net.cpp:339] pool5 -> pool5
I0813 23:18:40.616714 20837 net.cpp:114] Setting up pool5
I0813 23:18:40.616724 20837 net.cpp:121] Top shape: 1 512 19 19 (184832)
I0813 23:18:40.616729 20837 layer_factory.hpp:74] Creating layer fc6
I0813 23:18:40.616735 20837 net.cpp:85] Creating Layer fc6
I0813 23:18:40.616740 20837 net.cpp:381] fc6 <- pool5
I0813 23:18:40.616747 20837 net.cpp:339] fc6 -> fc6
I0813 23:18:40.616752 20837 net.cpp:114] Setting up fc6
I0813 23:18:41.579951 20837 net.cpp:121] Top shape: 1 4096 13 13 (692224)
I0813 23:18:41.579982 20837 layer_factory.hpp:74] Creating layer relu6
I0813 23:18:41.579993 20837 net.cpp:85] Creating Layer relu6
I0813 23:18:41.579998 20837 net.cpp:381] relu6 <- fc6
I0813 23:18:41.580006 20837 net.cpp:328] relu6 -> fc6 (in-place)
I0813 23:18:41.580015 20837 net.cpp:114] Setting up relu6
I0813 23:18:41.580021 20837 net.cpp:121] Top shape: 1 4096 13 13 (692224)
I0813 23:18:41.580025 20837 layer_factory.hpp:74] Creating layer drop6
I0813 23:18:41.580032 20837 net.cpp:85] Creating Layer drop6
I0813 23:18:41.580041 20837 net.cpp:381] drop6 <- fc6
I0813 23:18:41.580046 20837 net.cpp:328] drop6 -> fc6 (in-place)
I0813 23:18:41.580052 20837 net.cpp:114] Setting up drop6
I0813 23:18:41.580060 20837 net.cpp:121] Top shape: 1 4096 13 13 (692224)
I0813 23:18:41.580080 20837 layer_factory.hpp:74] Creating layer fc7
I0813 23:18:41.580088 20837 net.cpp:85] Creating Layer fc7
I0813 23:18:41.580092 20837 net.cpp:381] fc7 <- fc6
I0813 23:18:41.580098 20837 net.cpp:339] fc7 -> fc7
I0813 23:18:41.580116 20837 net.cpp:114] Setting up fc7
I0813 23:18:41.731045 20837 net.cpp:121] Top shape: 1 4096 13 13 (692224)
I0813 23:18:41.731072 20837 layer_factory.hpp:74] Creating layer relu7
I0813 23:18:41.731082 20837 net.cpp:85] Creating Layer relu7
I0813 23:18:41.731091 20837 net.cpp:381] relu7 <- fc7
I0813 23:18:41.731098 20837 net.cpp:328] relu7 -> fc7 (in-place)
I0813 23:18:41.731107 20837 net.cpp:114] Setting up relu7
I0813 23:18:41.731112 20837 net.cpp:121] Top shape: 1 4096 13 13 (692224)
I0813 23:18:41.731117 20837 layer_factory.hpp:74] Creating layer drop7
I0813 23:18:41.731124 20837 net.cpp:85] Creating Layer drop7
I0813 23:18:41.731130 20837 net.cpp:381] drop7 <- fc7
I0813 23:18:41.731135 20837 net.cpp:328] drop7 -> fc7 (in-place)
I0813 23:18:41.731142 20837 net.cpp:114] Setting up drop7
I0813 23:18:41.731150 20837 net.cpp:121] Top shape: 1 4096 13 13 (692224)
I0813 23:18:41.731155 20837 layer_factory.hpp:74] Creating layer score-fr
I0813 23:18:41.731166 20837 net.cpp:85] Creating Layer score-fr
I0813 23:18:41.731171 20837 net.cpp:381] score-fr <- fc7
I0813 23:18:41.731178 20837 net.cpp:339] score-fr -> score
I0813 23:18:41.731186 20837 net.cpp:114] Setting up score-fr
I0813 23:18:41.731206 20837 net.cpp:121] Top shape: 1 2 13 13 (338)
I0813 23:18:41.731215 20837 layer_factory.hpp:74] Creating layer score2
I0813 23:18:41.731223 20837 net.cpp:85] Creating Layer score2
I0813 23:18:41.731230 20837 net.cpp:381] score2 <- score
I0813 23:18:41.731235 20837 net.cpp:339] score2 -> score2
I0813 23:18:41.731246 20837 net.cpp:114] Setting up score2
I0813 23:18:41.731261 20837 net.cpp:121] Top shape: 1 2 28 28 (1568)
I0813 23:18:41.731272 20837 layer_factory.hpp:74] Creating layer score2_score2_0_split
I0813 23:18:41.731281 20837 net.cpp:85] Creating Layer score2_score2_0_split
I0813 23:18:41.731286 20837 net.cpp:381] score2_score2_0_split <- score2
I0813 23:18:41.731292 20837 net.cpp:339] score2_score2_0_split -> score2_score2_0_split_0
I0813 23:18:41.731298 20837 net.cpp:339] score2_score2_0_split -> score2_score2_0_split_1
I0813 23:18:41.731305 20837 net.cpp:114] Setting up score2_score2_0_split
I0813 23:18:41.731312 20837 net.cpp:121] Top shape: 1 2 28 28 (1568)
I0813 23:18:41.731318 20837 net.cpp:121] Top shape: 1 2 28 28 (1568)
I0813 23:18:41.731323 20837 layer_factory.hpp:74] Creating layer score-pool4
I0813 23:18:41.731338 20837 net.cpp:85] Creating Layer score-pool4
I0813 23:18:41.731345 20837 net.cpp:381] score-pool4 <- pool4_pool4_0_split_1
I0813 23:18:41.731350 20837 net.cpp:339] score-pool4 -> score-pool4
I0813 23:18:41.731360 20837 net.cpp:114] Setting up score-pool4
I0813 23:18:41.731374 20837 net.cpp:121] Top shape: 1 2 37 37 (2738)
I0813 23:18:41.731382 20837 layer_factory.hpp:74] Creating layer crop
I0813 23:18:41.731389 20837 net.cpp:85] Creating Layer crop
I0813 23:18:41.731395 20837 net.cpp:381] crop <- score-pool4
I0813 23:18:41.731401 20837 net.cpp:381] crop <- score2_score2_0_split_0
I0813 23:18:41.731408 20837 net.cpp:339] crop -> score-pool4c
I0813 23:18:41.731415 20837 net.cpp:114] Setting up crop
I0813 23:18:41.731456 20837 net.cpp:121] Top shape: 1 2 28 28 (1568)
I0813 23:18:41.731464 20837 layer_factory.hpp:74] Creating layer fuse
I0813 23:18:41.731472 20837 net.cpp:85] Creating Layer fuse
I0813 23:18:41.731478 20837 net.cpp:381] fuse <- score2_score2_0_split_1
I0813 23:18:41.731482 20837 net.cpp:381] fuse <- score-pool4c
I0813 23:18:41.731489 20837 net.cpp:339] fuse -> score-fused
I0813 23:18:41.731499 20837 net.cpp:114] Setting up fuse
I0813 23:18:41.731505 20837 net.cpp:121] Top shape: 1 2 28 28 (1568)
I0813 23:18:41.731513 20837 layer_factory.hpp:74] Creating layer score4
I0813 23:18:41.731519 20837 net.cpp:85] Creating Layer score4
I0813 23:18:41.731525 20837 net.cpp:381] score4 <- score-fused
I0813 23:18:41.731534 20837 net.cpp:339] score4 -> score4
I0813 23:18:41.731555 20837 net.cpp:114] Setting up score4
I0813 23:18:41.731565 20837 net.cpp:121] Top shape: 1 2 58 58 (6728)
I0813 23:18:41.731572 20837 layer_factory.hpp:74] Creating layer score4_score4_0_split
I0813 23:18:41.731580 20837 net.cpp:85] Creating Layer score4_score4_0_split
I0813 23:18:41.731587 20837 net.cpp:381] score4_score4_0_split <- score4
I0813 23:18:41.731595 20837 net.cpp:339] score4_score4_0_split -> score4_score4_0_split_0
I0813 23:18:41.731600 20837 net.cpp:339] score4_score4_0_split -> score4_score4_0_split_1
I0813 23:18:41.731606 20837 net.cpp:114] Setting up score4_score4_0_split
I0813 23:18:41.731616 20837 net.cpp:121] Top shape: 1 2 58 58 (6728)
I0813 23:18:41.731621 20837 net.cpp:121] Top shape: 1 2 58 58 (6728)
I0813 23:18:41.731626 20837 layer_factory.hpp:74] Creating layer score-pool3
I0813 23:18:41.731634 20837 net.cpp:85] Creating Layer score-pool3
I0813 23:18:41.731640 20837 net.cpp:381] score-pool3 <- pool3_pool3_0_split_1
I0813 23:18:41.731650 20837 net.cpp:339] score-pool3 -> score-pool3
I0813 23:18:41.731657 20837 net.cpp:114] Setting up score-pool3
I0813 23:18:41.731672 20837 net.cpp:121] Top shape: 1 2 74 74 (10952)
I0813 23:18:41.731679 20837 layer_factory.hpp:74] Creating layer crop
I0813 23:18:41.731684 20837 net.cpp:85] Creating Layer crop
I0813 23:18:41.731689 20837 net.cpp:381] crop <- score-pool3
I0813 23:18:41.731695 20837 net.cpp:381] crop <- score4_score4_0_split_0
I0813 23:18:41.731703 20837 net.cpp:339] crop -> score-pool3c
I0813 23:18:41.731711 20837 net.cpp:114] Setting up crop
I0813 23:18:41.731746 20837 net.cpp:121] Top shape: 1 2 58 58 (6728)
I0813 23:18:41.731753 20837 layer_factory.hpp:74] Creating layer fuse
I0813 23:18:41.731761 20837 net.cpp:85] Creating Layer fuse
I0813 23:18:41.731768 20837 net.cpp:381] fuse <- score4_score4_0_split_1
I0813 23:18:41.731775 20837 net.cpp:381] fuse <- score-pool3c
I0813 23:18:41.731782 20837 net.cpp:339] fuse -> score-final
I0813 23:18:41.731789 20837 net.cpp:114] Setting up fuse
I0813 23:18:41.731798 20837 net.cpp:121] Top shape: 1 2 58 58 (6728)
I0813 23:18:41.731804 20837 layer_factory.hpp:74] Creating layer upsample
I0813 23:18:41.731812 20837 net.cpp:85] Creating Layer upsample
I0813 23:18:41.731819 20837 net.cpp:381] upsample <- score-final
I0813 23:18:41.731827 20837 net.cpp:339] upsample -> bigscore
I0813 23:18:41.731835 20837 net.cpp:114] Setting up upsample
I0813 23:18:41.731848 20837 net.cpp:121] Top shape: 1 2 472 472 (445568)
I0813 23:18:41.731856 20837 layer_factory.hpp:74] Creating layer crop
I0813 23:18:41.731863 20837 net.cpp:85] Creating Layer crop
I0813 23:18:41.731870 20837 net.cpp:381] crop <- bigscore
I0813 23:18:41.731878 20837 net.cpp:381] crop <- data_data_0_split_1
I0813 23:18:41.731886 20837 net.cpp:339] crop -> upscore
I0813 23:18:41.731894 20837 net.cpp:114] Setting up crop
I0813 23:18:41.731940 20837 net.cpp:121] Top shape: 1 2 388 388 (301088)
I0813 23:18:41.731946 20837 layer_factory.hpp:74] Creating layer upscore_crop_0_split
I0813 23:18:41.731955 20837 net.cpp:85] Creating Layer upscore_crop_0_split
I0813 23:18:41.731962 20837 net.cpp:381] upscore_crop_0_split <- upscore
I0813 23:18:41.731968 20837 net.cpp:339] upscore_crop_0_split -> upscore_crop_0_split_0
I0813 23:18:41.731976 20837 net.cpp:339] upscore_crop_0_split -> upscore_crop_0_split_1
I0813 23:18:41.731984 20837 net.cpp:114] Setting up upscore_crop_0_split
I0813 23:18:41.731992 20837 net.cpp:121] Top shape: 1 2 388 388 (301088)
I0813 23:18:41.731999 20837 net.cpp:121] Top shape: 1 2 388 388 (301088)
I0813 23:18:41.732007 20837 layer_factory.hpp:74] Creating layer loss
I0813 23:18:41.732014 20837 net.cpp:85] Creating Layer loss
I0813 23:18:41.732022 20837 net.cpp:381] loss <- upscore_crop_0_split_0
I0813 23:18:41.732028 20837 net.cpp:381] loss <- label_data_1_split_0
I0813 23:18:41.732034 20837 net.cpp:339] loss -> loss
I0813 23:18:41.732044 20837 net.cpp:114] Setting up loss
I0813 23:18:41.732050 20837 layer_factory.hpp:74] Creating layer loss
I0813 23:18:41.732583 20837 net.cpp:121] Top shape: (1)
I0813 23:18:41.732591 20837 net.cpp:123]     with loss weight 1
I0813 23:18:41.732614 20837 layer_factory.hpp:74] Creating layer accuracy
I0813 23:18:41.732626 20837 net.cpp:85] Creating Layer accuracy
I0813 23:18:41.732635 20837 net.cpp:381] accuracy <- upscore_crop_0_split_1
I0813 23:18:41.732641 20837 net.cpp:381] accuracy <- label_data_1_split_1
I0813 23:18:41.732651 20837 net.cpp:339] accuracy -> accuracy
I0813 23:18:41.732661 20837 net.cpp:114] Setting up accuracy
I0813 23:18:41.732676 20837 net.cpp:121] Top shape: 1 1 1 3 (3)
I0813 23:18:41.732682 20837 net.cpp:170] accuracy does not need backward computation.
I0813 23:18:41.732688 20837 net.cpp:168] loss needs backward computation.
I0813 23:18:41.732695 20837 net.cpp:168] upscore_crop_0_split needs backward computation.
I0813 23:18:41.732700 20837 net.cpp:168] crop needs backward computation.
I0813 23:18:41.732709 20837 net.cpp:168] upsample needs backward computation.
…
