…
I0819 13:32:06.836434  2169 net.cpp:42] Initializing net from parameters: 
name: "FCN"
state {
  phase: TRAIN
}
layer {
  name: "data"
  type: "ImageMat"
  top: "data"
  top: "label"
  include {
    phase: TRAIN
  }
  transform_param {
    mirror: true
    crop_size: 388
    mean_value: 104.008
    mean_value: 116.669
    mean_value: 122.675
  }
  image_data_param {
    source: "/media/BigDisk/xiaoyong/datafrommac/ourfacedata_train_2/traindatalist_2_5mat.txt"
    batch_size: 1
    shuffle: true
    root_folder: ""
    ignore_label: 255
    label_type: PIXEL
  }
}
layer {
  name: "conv1_1"
  type: "Convolution"
  bottom: "data"
  top: "conv1_1"
  param {
    lr_mult: 1
    decay_mult: 1
  }
  param {
    lr_mult: 2
    decay_mult: 0
  }
  convolution_param {
    num_output: 64
    pad: 100
    kernel_size: 3
    engine: CAFFE
  }
}
layer {
  name: "relu1_1"
  type: "ReLU"
  bottom: "conv1_1"
  top: "conv1_1"
}
layer {
  name: "conv1_2"
  type: "Convolution"
  bottom: "conv1_1"
  top: "conv1_2"
  param {
    lr_mult: 1
    decay_mult: 1
  }
  param {
    lr_mult: 2
    decay_mult: 0
  }
  convolution_param {
    num_output: 64
    pad: 1
    kernel_size: 3
    engine: CAFFE
  }
}
layer {
  name: "relu1_2"
  type: "ReLU"
  bottom: "conv1_2"
  top: "conv1_2"
}
layer {
  name: "pool1"
  type: "Pooling"
  bottom: "conv1_2"
  top: "pool1"
  pooling_param {
    pool: MAX
    kernel_size: 2
    stride: 2
  }
}
layer {
  name: "conv2_1"
  type: "Convolution"
  bottom: "pool1"
  top: "conv2_1"
  param {
    lr_mult: 1
    decay_mult: 1
  }
  param {
    lr_mult: 2
    decay_mult: 0
  }
  convolution_param {
    num_output: 128
    pad: 1
    kernel_size: 3
    engine: CAFFE
  }
}
layer {
  name: "relu2_1"
  type: "ReLU"
  bottom: "conv2_1"
  top: "conv2_1"
}
layer {
  name: "conv2_2"
  type: "Convolution"
  bottom: "conv2_1"
  top: "conv2_2"
  param {
    lr_mult: 1
    decay_mult: 1
  }
  param {
    lr_mult: 2
    decay_mult: 0
  }
  convolution_param {
    num_output: 128
    pad: 1
    kernel_size: 3
    engine: CAFFE
  }
}
layer {
  name: "relu2_2"
  type: "ReLU"
  bottom: "conv2_2"
  top: "conv2_2"
}
layer {
  name: "pool2"
  type: "Pooling"
  bottom: "conv2_2"
  top: "pool2"
  pooling_param {
    pool: MAX
    kernel_size: 2
    stride: 2
  }
}
layer {
  name: "conv3_1"
  type: "Convolution"
  bottom: "pool2"
  top: "conv3_1"
  param {
    lr_mult: 1
    decay_mult: 1
  }
  param {
    lr_mult: 2
    decay_mult: 0
  }
  convolution_param {
    num_output: 256
    pad: 1
    kernel_size: 3
    engine: CAFFE
  }
}
layer {
  name: "relu3_1"
  type: "ReLU"
  bottom: "conv3_1"
  top: "conv3_1"
}
layer {
  name: "conv3_2"
  type: "Convolution"
  bottom: "conv3_1"
  top: "conv3_2"
  param {
    lr_mult: 1
    decay_mult: 1
  }
  param {
    lr_mult: 2
    decay_mult: 0
  }
  convolution_param {
    num_output: 256
    pad: 1
    kernel_size: 3
    engine: CAFFE
  }
}
layer {
  name: "relu3_2"
  type: "ReLU"
  bottom: "conv3_2"
  top: "conv3_2"
}
layer {
  name: "conv3_3"
  type: "Convolution"
  bottom: "conv3_2"
  top: "conv3_3"
  param {
    lr_mult: 1
    decay_mult: 1
  }
  param {
    lr_mult: 2
    decay_mult: 0
  }
  convolution_param {
    num_output: 256
    pad: 1
    kernel_size: 3
    engine: CAFFE
  }
}
layer {
  name: "relu3_3"
  type: "ReLU"
  bottom: "conv3_3"
  top: "conv3_3"
}
layer {
  name: "pool3"
  type: "Pooling"
  bottom: "conv3_3"
  top: "pool3"
  pooling_param {
    pool: MAX
    kernel_size: 2
    stride: 2
  }
}
layer {
  name: "conv4_1"
  type: "Convolution"
  bottom: "pool3"
  top: "conv4_1"
  param {
    lr_mult: 1
    decay_mult: 1
  }
  param {
    lr_mult: 2
    decay_mult: 0
  }
  convolution_param {
    num_output: 512
    pad: 1
    kernel_size: 3
    engine: CAFFE
  }
}
layer {
  name: "relu4_1"
  type: "ReLU"
  bottom: "conv4_1"
  top: "conv4_1"
}
layer {
  name: "conv4_2"
  type: "Convolution"
  bottom: "conv4_1"
  top: "conv4_2"
  param {
    lr_mult: 1
    decay_mult: 1
  }
  param {
    lr_mult: 2
    decay_mult: 0
  }
  convolution_param {
    num_output: 512
    pad: 1
    kernel_size: 3
    engine: CAFFE
  }
}
layer {
  name: "relu4_2"
  type: "ReLU"
  bottom: "conv4_2"
  top: "conv4_2"
}
layer {
  name: "conv4_3"
  type: "Convolution"
  bottom: "conv4_2"
  top: "conv4_3"
  param {
    lr_mult: 1
    decay_mult: 1
  }
  param {
    lr_mult: 2
    decay_mult: 0
  }
  convolution_param {
    num_output: 512
    pad: 1
    kernel_size: 3
    engine: CAFFE
  }
}
layer {
  name: "relu4_3"
  type: "ReLU"
  bottom: "conv4_3"
  top: "conv4_3"
}
layer {
  name: "pool4"
  type: "Pooling"
  bottom: "conv4_3"
  top: "pool4"
  pooling_param {
    pool: MAX
    kernel_size: 2
    stride: 2
  }
}
layer {
  name: "conv5_1"
  type: "Convolution"
  bottom: "pool4"
  top: "conv5_1"
  param {
    lr_mult: 1
    decay_mult: 1
  }
  param {
    lr_mult: 2
    decay_mult: 0
  }
  convolution_param {
    num_output: 512
    pad: 1
    kernel_size: 3
    engine: CAFFE
  }
}
layer {
  name: "relu5_1"
  type: "ReLU"
  bottom: "conv5_1"
  top: "conv5_1"
}
layer {
  name: "conv5_2"
  type: "Convolution"
  bottom: "conv5_1"
  top: "conv5_2"
  param {
    lr_mult: 1
    decay_mult: 1
  }
  param {
    lr_mult: 2
    decay_mult: 0
  }
  convolution_param {
    num_output: 512
    pad: 1
    kernel_size: 3
    engine: CAFFE
  }
}
layer {
  name: "relu5_2"
  type: "ReLU"
  bottom: "conv5_2"
  top: "conv5_2"
}
layer {
  name: "conv5_3"
  type: "Convolution"
  bottom: "conv5_2"
  top: "conv5_3"
  param {
    lr_mult: 1
    decay_mult: 1
  }
  param {
    lr_mult: 2
    decay_mult: 0
  }
  convolution_param {
    num_output: 512
    pad: 1
    kernel_size: 3
    engine: CAFFE
  }
}
layer {
  name: "relu5_3"
  type: "ReLU"
  bottom: "conv5_3"
  top: "conv5_3"
}
layer {
  name: "pool5"
  type: "Pooling"
  bottom: "conv5_3"
  top: "pool5"
  pooling_param {
    pool: MAX
    kernel_size: 2
    stride: 2
  }
}
layer {
  name: "fc6"
  type: "Convolution"
  bottom: "pool5"
  top: "fc6"
  param {
    lr_mult: 1
    decay_mult: 1
  }
  param {
    lr_mult: 2
    decay_mult: 0
  }
  convolution_param {
    num_output: 4096
    kernel_size: 7
    engine: CAFFE
  }
}
layer {
  name: "relu6"
  type: "ReLU"
  bottom: "fc6"
  top: "fc6"
}
layer {
  name: "drop6"
  type: "Dropout"
  bottom: "fc6"
  top: "fc6"
  dropout_param {
    dropout_ratio: 0.5
  }
}
layer {
  name: "fc7"
  type: "Convolution"
  bottom: "fc6"
  top: "fc7"
  param {
    lr_mult: 1
    decay_mult: 1
  }
  param {
    lr_mult: 2
    decay_mult: 0
  }
  convolution_param {
    num_output: 4096
    kernel_size: 1
    engine: CAFFE
  }
}
layer {
  name: "relu7"
  type: "ReLU"
  bottom: "fc7"
  top: "fc7"
}
layer {
  name: "drop7"
  type: "Dropout"
  bottom: "fc7"
  top: "fc7"
  dropout_param {
    dropout_ratio: 0.5
  }
}
layer {
  name: "score-fr"
  type: "Convolution"
  bottom: "fc7"
  top: "score"
  param {
    lr_mult: 1
    decay_mult: 1
  }
  param {
    lr_mult: 2
    decay_mult: 0
  }
  convolution_param {
    num_output: 2
    kernel_size: 1
    engine: CAFFE
  }
}
layer {
  name: "score2"
  type: "Deconvolution"
  bottom: "score"
  top: "score2"
  param {
    lr_mult: 1
    decay_mult: 1
  }
  param {
    lr_mult: 2
    decay_mult: 0
  }
  convolution_param {
    num_output: 2
    kernel_size: 4
    stride: 2
  }
}
layer {
  name: "score-pool4"
  type: "Convolution"
  bottom: "pool4"
  top: "score-pool4"
  param {
    lr_mult: 1
    decay_mult: 1
  }
  param {
    lr_mult: 2
    decay_mult: 0
  }
  convolution_param {
    num_output: 2
    kernel_size: 1
    engine: CAFFE
  }
}
layer {
  name: "crop"
  type: "Crop"
  bottom: "score-pool4"
  bottom: "score2"
  top: "score-pool4c"
}
layer {
  name: "fuse"
  type: "Eltwise"
  bottom: "score2"
  bottom: "score-pool4c"
  top: "score-fused"
  eltwise_param {
    operation: SUM
  }
}
layer {
  name: "score4"
  type: "Deconvolution"
  bottom: "score-fused"
  top: "score4"
  param {
    lr_mult: 1
    decay_mult: 1
  }
  convolution_param {
    num_output: 2
    bias_term: false
    kernel_size: 4
    stride: 2
  }
}
layer {
  name: "score-pool3"
  type: "Convolution"
  bottom: "pool3"
  top: "score-pool3"
  param {
    lr_mult: 1
    decay_mult: 1
  }
  param {
    lr_mult: 2
    decay_mult: 0
  }
  convolution_param {
    num_output: 2
    kernel_size: 1
    engine: CAFFE
  }
}
layer {
  name: "crop"
  type: "Crop"
  bottom: "score-pool3"
  bottom: "score4"
  top: "score-pool3c"
}
layer {
  name: "fuse"
  type: "Eltwise"
  bottom: "score4"
  bottom: "score-pool3c"
  top: "score-final"
  eltwise_param {
    operation: SUM
  }
}
layer {
  name: "upsample"
  type: "Deconvolution"
  bottom: "score-final"
  top: "bigscore"
  param {
    lr_mult: 1
  }
  convolution_param {
    num_output: 2
    bias_term: false
    kernel_size: 16
    stride: 8
  }
}
layer {
  name: "crop"
  type: "Crop"
  bottom: "bigscore"
  bottom: "data"
  top: "upscore"
}
layer {
  name: "loss"
  type: "SoftmaxWithLoss"
  bottom: "upscore"
  bottom: "label"
  top: "loss"
  loss_param {
    ignore_label: 255
  }
}
I0819 13:32:06.836706  2169 layer_factory.hpp:74] Creating layer data
I0819 13:32:06.836730  2169 net.cpp:85] Creating Layer data
I0819 13:32:06.836740  2169 net.cpp:339] data -> data
I0819 13:32:06.836760  2169 net.cpp:339] data -> label
I0819 13:32:06.836771  2169 net.cpp:339] data -> (automatic)
I0819 13:32:06.836778  2169 net.cpp:114] Setting up data
I0819 13:32:06.837203  2169 image_mat_layer.cpp:55] Opening file /media/BigDisk/xiaoyong/datafrommac/ourfacedata_train_2/traindatalist_2_5mat.txt
I0819 13:32:06.838464  2169 image_mat_layer.cpp:72] Shuffling data
I0819 13:32:06.838582  2169 image_mat_layer.cpp:77] A total of 865 images.
I0819 13:32:06.910168  2169 image_mat_layer.cpp:143] output data size: 1,5,388,388
I0819 13:32:06.910193  2169 image_mat_layer.cpp:147] output label size: 1,1,388,388
I0819 13:32:06.910199  2169 image_mat_layer.cpp:151] output data_dim size: 1,1,1,2
I0819 13:32:06.911100  2169 net.cpp:121] Top shape: 1 5 388 388 (752720)
I0819 13:32:06.911113  2169 net.cpp:121] Top shape: 1 1 388 388 (150544)
I0819 13:32:06.911120  2169 net.cpp:121] Top shape: 1 1 1 2 (2)
I0819 13:32:06.911130  2169 layer_factory.hpp:74] Creating layer data_data_0_split
I0819 13:32:06.911146  2169 net.cpp:85] Creating Layer data_data_0_split
I0819 13:32:06.911154  2169 net.cpp:381] data_data_0_split <- data
I0819 13:32:06.911170  2169 net.cpp:339] data_data_0_split -> data_data_0_split_0
I0819 13:32:06.911185  2169 net.cpp:339] data_data_0_split -> data_data_0_split_1
I0819 13:32:06.911195  2169 net.cpp:114] Setting up data_data_0_split
I0819 13:32:06.911206  2169 net.cpp:121] Top shape: 1 5 388 388 (752720)
I0819 13:32:06.911218  2169 net.cpp:121] Top shape: 1 5 388 388 (752720)
I0819 13:32:06.911224  2169 layer_factory.hpp:74] Creating layer conv1_1
I0819 13:32:06.911236  2169 net.cpp:85] Creating Layer conv1_1
I0819 13:32:06.911244  2169 net.cpp:381] conv1_1 <- data_data_0_split_0
I0819 13:32:06.911255  2169 net.cpp:339] conv1_1 -> conv1_1
I0819 13:32:06.911265  2169 net.cpp:114] Setting up conv1_1
I0819 13:32:06.912284  2169 net.cpp:121] Top shape: 1 64 586 586 (21977344)
I0819 13:32:06.912305  2169 layer_factory.hpp:74] Creating layer relu1_1
I0819 13:32:06.912317  2169 net.cpp:85] Creating Layer relu1_1
I0819 13:32:06.912324  2169 net.cpp:381] relu1_1 <- conv1_1
I0819 13:32:06.912331  2169 net.cpp:328] relu1_1 -> conv1_1 (in-place)
I0819 13:32:06.912340  2169 net.cpp:114] Setting up relu1_1
I0819 13:32:06.912351  2169 net.cpp:121] Top shape: 1 64 586 586 (21977344)
I0819 13:32:06.912356  2169 layer_factory.hpp:74] Creating layer conv1_2
I0819 13:32:06.912364  2169 net.cpp:85] Creating Layer conv1_2
I0819 13:32:06.912374  2169 net.cpp:381] conv1_2 <- conv1_1
I0819 13:32:06.912384  2169 net.cpp:339] conv1_2 -> conv1_2
I0819 13:32:06.912395  2169 net.cpp:114] Setting up conv1_2
I0819 13:32:06.913441  2169 net.cpp:121] Top shape: 1 64 586 586 (21977344)
I0819 13:32:06.913456  2169 layer_factory.hpp:74] Creating layer relu1_2
I0819 13:32:06.913468  2169 net.cpp:85] Creating Layer relu1_2
I0819 13:32:06.913475  2169 net.cpp:381] relu1_2 <- conv1_2
I0819 13:32:06.913485  2169 net.cpp:328] relu1_2 -> conv1_2 (in-place)
I0819 13:32:06.913491  2169 net.cpp:114] Setting up relu1_2
I0819 13:32:06.913497  2169 net.cpp:121] Top shape: 1 64 586 586 (21977344)
I0819 13:32:06.913506  2169 layer_factory.hpp:74] Creating layer pool1
I0819 13:32:06.913513  2169 net.cpp:85] Creating Layer pool1
I0819 13:32:06.913522  2169 net.cpp:381] pool1 <- conv1_2
I0819 13:32:06.913534  2169 net.cpp:339] pool1 -> pool1
I0819 13:32:06.913544  2169 net.cpp:114] Setting up pool1
I0819 13:32:06.913561  2169 net.cpp:121] Top shape: 1 64 293 293 (5494336)
I0819 13:32:06.913569  2169 layer_factory.hpp:74] Creating layer conv2_1
I0819 13:32:06.913581  2169 net.cpp:85] Creating Layer conv2_1
I0819 13:32:06.913589  2169 net.cpp:381] conv2_1 <- pool1
I0819 13:32:06.913599  2169 net.cpp:339] conv2_1 -> conv2_1
I0819 13:32:06.913614  2169 net.cpp:114] Setting up conv2_1
I0819 13:32:06.913939  2169 net.cpp:121] Top shape: 1 128 293 293 (10988672)
I0819 13:32:06.913954  2169 layer_factory.hpp:74] Creating layer relu2_1
I0819 13:32:06.913969  2169 net.cpp:85] Creating Layer relu2_1
I0819 13:32:06.913975  2169 net.cpp:381] relu2_1 <- conv2_1
I0819 13:32:06.913982  2169 net.cpp:328] relu2_1 -> conv2_1 (in-place)
I0819 13:32:06.913990  2169 net.cpp:114] Setting up relu2_1
I0819 13:32:06.913996  2169 net.cpp:121] Top shape: 1 128 293 293 (10988672)
I0819 13:32:06.914001  2169 layer_factory.hpp:74] Creating layer conv2_2
I0819 13:32:06.914013  2169 net.cpp:85] Creating Layer conv2_2
I0819 13:32:06.914021  2169 net.cpp:381] conv2_2 <- conv2_1
I0819 13:32:06.914028  2169 net.cpp:339] conv2_2 -> conv2_2
I0819 13:32:06.914036  2169 net.cpp:114] Setting up conv2_2
I0819 13:32:06.914489  2169 net.cpp:121] Top shape: 1 128 293 293 (10988672)
I0819 13:32:06.914504  2169 layer_factory.hpp:74] Creating layer relu2_2
I0819 13:32:06.914515  2169 net.cpp:85] Creating Layer relu2_2
I0819 13:32:06.914520  2169 net.cpp:381] relu2_2 <- conv2_2
I0819 13:32:06.914528  2169 net.cpp:328] relu2_2 -> conv2_2 (in-place)
I0819 13:32:06.914535  2169 net.cpp:114] Setting up relu2_2
I0819 13:32:06.914541  2169 net.cpp:121] Top shape: 1 128 293 293 (10988672)
I0819 13:32:06.914547  2169 layer_factory.hpp:74] Creating layer pool2
I0819 13:32:06.914556  2169 net.cpp:85] Creating Layer pool2
I0819 13:32:06.914561  2169 net.cpp:381] pool2 <- conv2_2
I0819 13:32:06.914567  2169 net.cpp:339] pool2 -> pool2
I0819 13:32:06.914574  2169 net.cpp:114] Setting up pool2
I0819 13:32:06.914583  2169 net.cpp:121] Top shape: 1 128 147 147 (2765952)
I0819 13:32:06.914590  2169 layer_factory.hpp:74] Creating layer conv3_1
I0819 13:32:06.914598  2169 net.cpp:85] Creating Layer conv3_1
I0819 13:32:06.914603  2169 net.cpp:381] conv3_1 <- pool2
I0819 13:32:06.914611  2169 net.cpp:339] conv3_1 -> conv3_1
I0819 13:32:06.914618  2169 net.cpp:114] Setting up conv3_1
I0819 13:32:06.915216  2169 net.cpp:121] Top shape: 1 256 147 147 (5531904)
I0819 13:32:06.915230  2169 layer_factory.hpp:74] Creating layer relu3_1
I0819 13:32:06.915256  2169 net.cpp:85] Creating Layer relu3_1
I0819 13:32:06.915263  2169 net.cpp:381] relu3_1 <- conv3_1
I0819 13:32:06.915271  2169 net.cpp:328] relu3_1 -> conv3_1 (in-place)
I0819 13:32:06.915277  2169 net.cpp:114] Setting up relu3_1
I0819 13:32:06.915285  2169 net.cpp:121] Top shape: 1 256 147 147 (5531904)
I0819 13:32:06.915292  2169 layer_factory.hpp:74] Creating layer conv3_2
I0819 13:32:06.915300  2169 net.cpp:85] Creating Layer conv3_2
I0819 13:32:06.915307  2169 net.cpp:381] conv3_2 <- conv3_1
I0819 13:32:06.915318  2169 net.cpp:339] conv3_2 -> conv3_2
I0819 13:32:06.915326  2169 net.cpp:114] Setting up conv3_2
I0819 13:32:06.917553  2169 net.cpp:121] Top shape: 1 256 147 147 (5531904)
I0819 13:32:06.918511  2169 layer_factory.hpp:74] Creating layer relu3_2
I0819 13:32:06.918534  2169 net.cpp:85] Creating Layer relu3_2
I0819 13:32:06.918550  2169 net.cpp:381] relu3_2 <- conv3_2
I0819 13:32:06.918560  2169 net.cpp:328] relu3_2 -> conv3_2 (in-place)
I0819 13:32:06.918570  2169 net.cpp:114] Setting up relu3_2
I0819 13:32:06.918579  2169 net.cpp:121] Top shape: 1 256 147 147 (5531904)
I0819 13:32:06.918586  2169 layer_factory.hpp:74] Creating layer conv3_3
I0819 13:32:06.918598  2169 net.cpp:85] Creating Layer conv3_3
I0819 13:32:06.918606  2169 net.cpp:381] conv3_3 <- conv3_2
I0819 13:32:06.918618  2169 net.cpp:339] conv3_3 -> conv3_3
I0819 13:32:06.918633  2169 net.cpp:114] Setting up conv3_3
I0819 13:32:06.919909  2169 net.cpp:121] Top shape: 1 256 147 147 (5531904)
I0819 13:32:06.919939  2169 layer_factory.hpp:74] Creating layer relu3_3
I0819 13:32:06.919952  2169 net.cpp:85] Creating Layer relu3_3
I0819 13:32:06.919960  2169 net.cpp:381] relu3_3 <- conv3_3
I0819 13:32:06.920280  2169 net.cpp:328] relu3_3 -> conv3_3 (in-place)
I0819 13:32:06.920295  2169 net.cpp:114] Setting up relu3_3
I0819 13:32:06.920301  2169 net.cpp:121] Top shape: 1 256 147 147 (5531904)
I0819 13:32:06.920307  2169 layer_factory.hpp:74] Creating layer pool3
I0819 13:32:06.920318  2169 net.cpp:85] Creating Layer pool3
I0819 13:32:06.920325  2169 net.cpp:381] pool3 <- conv3_3
I0819 13:32:06.920332  2169 net.cpp:339] pool3 -> pool3
I0819 13:32:06.920341  2169 net.cpp:114] Setting up pool3
I0819 13:32:06.920353  2169 net.cpp:121] Top shape: 1 256 74 74 (1401856)
I0819 13:32:06.920359  2169 layer_factory.hpp:74] Creating layer pool3_pool3_0_split
I0819 13:32:06.920367  2169 net.cpp:85] Creating Layer pool3_pool3_0_split
I0819 13:32:06.920372  2169 net.cpp:381] pool3_pool3_0_split <- pool3
I0819 13:32:06.920379  2169 net.cpp:339] pool3_pool3_0_split -> pool3_pool3_0_split_0
I0819 13:32:06.920387  2169 net.cpp:339] pool3_pool3_0_split -> pool3_pool3_0_split_1
I0819 13:32:06.920397  2169 net.cpp:114] Setting up pool3_pool3_0_split
I0819 13:32:06.920405  2169 net.cpp:121] Top shape: 1 256 74 74 (1401856)
I0819 13:32:06.920414  2169 net.cpp:121] Top shape: 1 256 74 74 (1401856)
I0819 13:32:06.920421  2169 layer_factory.hpp:74] Creating layer conv4_1
I0819 13:32:06.920431  2169 net.cpp:85] Creating Layer conv4_1
I0819 13:32:06.920439  2169 net.cpp:381] conv4_1 <- pool3_pool3_0_split_0
I0819 13:32:06.920446  2169 net.cpp:339] conv4_1 -> conv4_1
I0819 13:32:06.920457  2169 net.cpp:114] Setting up conv4_1
I0819 13:32:06.921815  2169 net.cpp:121] Top shape: 1 512 74 74 (2803712)
I0819 13:32:06.921830  2169 layer_factory.hpp:74] Creating layer relu4_1
I0819 13:32:06.921840  2169 net.cpp:85] Creating Layer relu4_1
I0819 13:32:06.921850  2169 net.cpp:381] relu4_1 <- conv4_1
I0819 13:32:06.921860  2169 net.cpp:328] relu4_1 -> conv4_1 (in-place)
I0819 13:32:06.921869  2169 net.cpp:114] Setting up relu4_1
I0819 13:32:06.921879  2169 net.cpp:121] Top shape: 1 512 74 74 (2803712)
I0819 13:32:06.921885  2169 layer_factory.hpp:74] Creating layer conv4_2
I0819 13:32:06.921892  2169 net.cpp:85] Creating Layer conv4_2
I0819 13:32:06.921903  2169 net.cpp:381] conv4_2 <- conv4_1
I0819 13:32:06.921921  2169 net.cpp:339] conv4_2 -> conv4_2
I0819 13:32:06.921927  2169 net.cpp:114] Setting up conv4_2
I0819 13:32:06.926069  2169 net.cpp:121] Top shape: 1 512 74 74 (2803712)
I0819 13:32:06.926154  2169 layer_factory.hpp:74] Creating layer relu4_2
I0819 13:32:06.926168  2169 net.cpp:85] Creating Layer relu4_2
I0819 13:32:06.926177  2169 net.cpp:381] relu4_2 <- conv4_2
I0819 13:32:06.926192  2169 net.cpp:328] relu4_2 -> conv4_2 (in-place)
I0819 13:32:06.926203  2169 net.cpp:114] Setting up relu4_2
I0819 13:32:06.926214  2169 net.cpp:121] Top shape: 1 512 74 74 (2803712)
I0819 13:32:06.926219  2169 layer_factory.hpp:74] Creating layer conv4_3
I0819 13:32:06.926229  2169 net.cpp:85] Creating Layer conv4_3
I0819 13:32:06.926237  2169 net.cpp:381] conv4_3 <- conv4_2
I0819 13:32:06.926249  2169 net.cpp:339] conv4_3 -> conv4_3
I0819 13:32:06.926260  2169 net.cpp:114] Setting up conv4_3
I0819 13:32:06.930197  2169 net.cpp:121] Top shape: 1 512 74 74 (2803712)
I0819 13:32:06.930230  2169 layer_factory.hpp:74] Creating layer relu4_3
I0819 13:32:06.930248  2169 net.cpp:85] Creating Layer relu4_3
I0819 13:32:06.930260  2169 net.cpp:381] relu4_3 <- conv4_3
I0819 13:32:06.930270  2169 net.cpp:328] relu4_3 -> conv4_3 (in-place)
I0819 13:32:06.930281  2169 net.cpp:114] Setting up relu4_3
I0819 13:32:06.930290  2169 net.cpp:121] Top shape: 1 512 74 74 (2803712)
I0819 13:32:06.930297  2169 layer_factory.hpp:74] Creating layer pool4
I0819 13:32:06.930305  2169 net.cpp:85] Creating Layer pool4
I0819 13:32:06.930316  2169 net.cpp:381] pool4 <- conv4_3
I0819 13:32:06.930325  2169 net.cpp:339] pool4 -> pool4
I0819 13:32:06.930336  2169 net.cpp:114] Setting up pool4
I0819 13:32:06.930349  2169 net.cpp:121] Top shape: 1 512 37 37 (700928)
I0819 13:32:06.930356  2169 layer_factory.hpp:74] Creating layer pool4_pool4_0_split
I0819 13:32:06.930363  2169 net.cpp:85] Creating Layer pool4_pool4_0_split
I0819 13:32:06.930371  2169 net.cpp:381] pool4_pool4_0_split <- pool4
I0819 13:32:06.930379  2169 net.cpp:339] pool4_pool4_0_split -> pool4_pool4_0_split_0
I0819 13:32:06.930392  2169 net.cpp:339] pool4_pool4_0_split -> pool4_pool4_0_split_1
I0819 13:32:06.930403  2169 net.cpp:114] Setting up pool4_pool4_0_split
I0819 13:32:06.930413  2169 net.cpp:121] Top shape: 1 512 37 37 (700928)
I0819 13:32:06.930420  2169 net.cpp:121] Top shape: 1 512 37 37 (700928)
I0819 13:32:06.930430  2169 layer_factory.hpp:74] Creating layer conv5_1
I0819 13:32:06.930441  2169 net.cpp:85] Creating Layer conv5_1
I0819 13:32:06.930450  2169 net.cpp:381] conv5_1 <- pool4_pool4_0_split_0
I0819 13:32:06.930457  2169 net.cpp:339] conv5_1 -> conv5_1
I0819 13:32:06.930467  2169 net.cpp:114] Setting up conv5_1
I0819 13:32:06.935560  2169 net.cpp:121] Top shape: 1 512 37 37 (700928)
I0819 13:32:06.935593  2169 layer_factory.hpp:74] Creating layer relu5_1
I0819 13:32:06.935607  2169 net.cpp:85] Creating Layer relu5_1
I0819 13:32:06.935613  2169 net.cpp:381] relu5_1 <- conv5_1
I0819 13:32:06.935622  2169 net.cpp:328] relu5_1 -> conv5_1 (in-place)
I0819 13:32:06.935632  2169 net.cpp:114] Setting up relu5_1
I0819 13:32:06.935641  2169 net.cpp:121] Top shape: 1 512 37 37 (700928)
I0819 13:32:06.935647  2169 layer_factory.hpp:74] Creating layer conv5_2
I0819 13:32:06.935659  2169 net.cpp:85] Creating Layer conv5_2
I0819 13:32:06.935667  2169 net.cpp:381] conv5_2 <- conv5_1
I0819 13:32:06.935683  2169 net.cpp:339] conv5_2 -> conv5_2
I0819 13:32:06.935722  2169 net.cpp:114] Setting up conv5_2
I0819 13:32:06.938644  2169 net.cpp:121] Top shape: 1 512 37 37 (700928)
I0819 13:32:06.938673  2169 layer_factory.hpp:74] Creating layer relu5_2
I0819 13:32:06.938688  2169 net.cpp:85] Creating Layer relu5_2
I0819 13:32:06.938699  2169 net.cpp:381] relu5_2 <- conv5_2
I0819 13:32:06.938707  2169 net.cpp:328] relu5_2 -> conv5_2 (in-place)
I0819 13:32:06.938719  2169 net.cpp:114] Setting up relu5_2
I0819 13:32:06.938727  2169 net.cpp:121] Top shape: 1 512 37 37 (700928)
I0819 13:32:06.938733  2169 layer_factory.hpp:74] Creating layer conv5_3
I0819 13:32:06.938750  2169 net.cpp:85] Creating Layer conv5_3
I0819 13:32:06.938766  2169 net.cpp:381] conv5_3 <- conv5_2
I0819 13:32:06.938773  2169 net.cpp:339] conv5_3 -> conv5_3
I0819 13:32:06.938798  2169 net.cpp:114] Setting up conv5_3
I0819 13:32:06.943935  2169 net.cpp:121] Top shape: 1 512 37 37 (700928)
I0819 13:32:06.943979  2169 layer_factory.hpp:74] Creating layer relu5_3
I0819 13:32:06.944006  2169 net.cpp:85] Creating Layer relu5_3
I0819 13:32:06.944022  2169 net.cpp:381] relu5_3 <- conv5_3
I0819 13:32:06.944047  2169 net.cpp:328] relu5_3 -> conv5_3 (in-place)
I0819 13:32:06.944082  2169 net.cpp:114] Setting up relu5_3
I0819 13:32:06.944123  2169 net.cpp:121] Top shape: 1 512 37 37 (700928)
I0819 13:32:06.944135  2169 layer_factory.hpp:74] Creating layer pool5
I0819 13:32:06.944154  2169 net.cpp:85] Creating Layer pool5
I0819 13:32:06.944169  2169 net.cpp:381] pool5 <- conv5_3
I0819 13:32:06.944180  2169 net.cpp:339] pool5 -> pool5
I0819 13:32:06.944193  2169 net.cpp:114] Setting up pool5
I0819 13:32:06.944207  2169 net.cpp:121] Top shape: 1 512 19 19 (184832)
I0819 13:32:06.944213  2169 layer_factory.hpp:74] Creating layer fc6
I0819 13:32:06.944224  2169 net.cpp:85] Creating Layer fc6
I0819 13:32:06.944229  2169 net.cpp:381] fc6 <- pool5
I0819 13:32:06.944242  2169 net.cpp:339] fc6 -> fc6
I0819 13:32:06.944252  2169 net.cpp:114] Setting up fc6
I0819 13:32:07.074319  2169 net.cpp:121] Top shape: 1 4096 13 13 (692224)
I0819 13:32:07.074359  2169 layer_factory.hpp:74] Creating layer relu6
I0819 13:32:07.074374  2169 net.cpp:85] Creating Layer relu6
I0819 13:32:07.074385  2169 net.cpp:381] relu6 <- fc6
I0819 13:32:07.074398  2169 net.cpp:328] relu6 -> fc6 (in-place)
I0819 13:32:07.074409  2169 net.cpp:114] Setting up relu6
I0819 13:32:07.074420  2169 net.cpp:121] Top shape: 1 4096 13 13 (692224)
I0819 13:32:07.074429  2169 layer_factory.hpp:74] Creating layer drop6
I0819 13:32:07.074453  2169 net.cpp:85] Creating Layer drop6
I0819 13:32:07.074466  2169 net.cpp:381] drop6 <- fc6
I0819 13:32:07.074478  2169 net.cpp:328] drop6 -> fc6 (in-place)
I0819 13:32:07.074492  2169 net.cpp:114] Setting up drop6
I0819 13:32:07.074508  2169 net.cpp:121] Top shape: 1 4096 13 13 (692224)
I0819 13:32:07.074520  2169 layer_factory.hpp:74] Creating layer fc7
I0819 13:32:07.074534  2169 net.cpp:85] Creating Layer fc7
I0819 13:32:07.074549  2169 net.cpp:381] fc7 <- fc6
I0819 13:32:07.074561  2169 net.cpp:339] fc7 -> fc7
I0819 13:32:07.074578  2169 net.cpp:114] Setting up fc7
I0819 13:32:07.092741  2169 net.cpp:121] Top shape: 1 4096 13 13 (692224)
I0819 13:32:07.092777  2169 layer_factory.hpp:74] Creating layer relu7
I0819 13:32:07.092793  2169 net.cpp:85] Creating Layer relu7
I0819 13:32:07.092803  2169 net.cpp:381] relu7 <- fc7
I0819 13:32:07.092814  2169 net.cpp:328] relu7 -> fc7 (in-place)
I0819 13:32:07.092824  2169 net.cpp:114] Setting up relu7
I0819 13:32:07.092835  2169 net.cpp:121] Top shape: 1 4096 13 13 (692224)
I0819 13:32:07.092844  2169 layer_factory.hpp:74] Creating layer drop7
I0819 13:32:07.092855  2169 net.cpp:85] Creating Layer drop7
I0819 13:32:07.092867  2169 net.cpp:381] drop7 <- fc7
I0819 13:32:07.092878  2169 net.cpp:328] drop7 -> fc7 (in-place)
I0819 13:32:07.092893  2169 net.cpp:114] Setting up drop7
I0819 13:32:07.092901  2169 net.cpp:121] Top shape: 1 4096 13 13 (692224)
I0819 13:32:07.092913  2169 layer_factory.hpp:74] Creating layer score-fr
I0819 13:32:07.092927  2169 net.cpp:85] Creating Layer score-fr
I0819 13:32:07.092937  2169 net.cpp:381] score-fr <- fc7
I0819 13:32:07.092952  2169 net.cpp:339] score-fr -> score
I0819 13:32:07.092969  2169 net.cpp:114] Setting up score-fr
I0819 13:32:07.092999  2169 net.cpp:121] Top shape: 1 2 13 13 (338)
I0819 13:32:07.093016  2169 layer_factory.hpp:74] Creating layer score2
I0819 13:32:07.093034  2169 net.cpp:85] Creating Layer score2
I0819 13:32:07.093050  2169 net.cpp:381] score2 <- score
I0819 13:32:07.093061  2169 net.cpp:339] score2 -> score2
I0819 13:32:07.093076  2169 net.cpp:114] Setting up score2
I0819 13:32:07.093108  2169 net.cpp:121] Top shape: 1 2 28 28 (1568)
I0819 13:32:07.093125  2169 layer_factory.hpp:74] Creating layer score2_score2_0_split
I0819 13:32:07.093140  2169 net.cpp:85] Creating Layer score2_score2_0_split
I0819 13:32:07.093175  2169 net.cpp:381] score2_score2_0_split <- score2
I0819 13:32:07.093189  2169 net.cpp:339] score2_score2_0_split -> score2_score2_0_split_0
I0819 13:32:07.093204  2169 net.cpp:339] score2_score2_0_split -> score2_score2_0_split_1
I0819 13:32:07.093222  2169 net.cpp:114] Setting up score2_score2_0_split
I0819 13:32:07.093236  2169 net.cpp:121] Top shape: 1 2 28 28 (1568)
I0819 13:32:07.093247  2169 net.cpp:121] Top shape: 1 2 28 28 (1568)
I0819 13:32:07.093258  2169 layer_factory.hpp:74] Creating layer score-pool4
I0819 13:32:07.093272  2169 net.cpp:85] Creating Layer score-pool4
I0819 13:32:07.093281  2169 net.cpp:381] score-pool4 <- pool4_pool4_0_split_1
I0819 13:32:07.093292  2169 net.cpp:339] score-pool4 -> score-pool4
I0819 13:32:07.093302  2169 net.cpp:114] Setting up score-pool4
I0819 13:32:07.093325  2169 net.cpp:121] Top shape: 1 2 37 37 (2738)
I0819 13:32:07.093343  2169 layer_factory.hpp:74] Creating layer crop
I0819 13:32:07.093358  2169 net.cpp:85] Creating Layer crop
I0819 13:32:07.093366  2169 net.cpp:381] crop <- score-pool4
I0819 13:32:07.093372  2169 net.cpp:381] crop <- score2_score2_0_split_0
I0819 13:32:07.093384  2169 net.cpp:339] crop -> score-pool4c
I0819 13:32:07.093395  2169 net.cpp:114] Setting up crop
I0819 13:32:07.093468  2169 net.cpp:121] Top shape: 1 2 28 28 (1568)
I0819 13:32:07.093478  2169 layer_factory.hpp:74] Creating layer fuse
I0819 13:32:07.093492  2169 net.cpp:85] Creating Layer fuse
I0819 13:32:07.093500  2169 net.cpp:381] fuse <- score2_score2_0_split_1
I0819 13:32:07.093509  2169 net.cpp:381] fuse <- score-pool4c
I0819 13:32:07.093518  2169 net.cpp:339] fuse -> score-fused
I0819 13:32:07.093528  2169 net.cpp:114] Setting up fuse
I0819 13:32:07.093541  2169 net.cpp:121] Top shape: 1 2 28 28 (1568)
I0819 13:32:07.093549  2169 layer_factory.hpp:74] Creating layer score4
I0819 13:32:07.093559  2169 net.cpp:85] Creating Layer score4
I0819 13:32:07.093570  2169 net.cpp:381] score4 <- score-fused
I0819 13:32:07.093583  2169 net.cpp:339] score4 -> score4
I0819 13:32:07.093595  2169 net.cpp:114] Setting up score4
I0819 13:32:07.093611  2169 net.cpp:121] Top shape: 1 2 58 58 (6728)
I0819 13:32:07.093626  2169 layer_factory.hpp:74] Creating layer score4_score4_0_split
I0819 13:32:07.093633  2169 net.cpp:85] Creating Layer score4_score4_0_split
I0819 13:32:07.093638  2169 net.cpp:381] score4_score4_0_split <- score4
I0819 13:32:07.093647  2169 net.cpp:339] score4_score4_0_split -> score4_score4_0_split_0
I0819 13:32:07.093657  2169 net.cpp:339] score4_score4_0_split -> score4_score4_0_split_1
I0819 13:32:07.093663  2169 net.cpp:114] Setting up score4_score4_0_split
I0819 13:32:07.093674  2169 net.cpp:121] Top shape: 1 2 58 58 (6728)
I0819 13:32:07.093684  2169 net.cpp:121] Top shape: 1 2 58 58 (6728)
I0819 13:32:07.093693  2169 layer_factory.hpp:74] Creating layer score-pool3
I0819 13:32:07.093705  2169 net.cpp:85] Creating Layer score-pool3
I0819 13:32:07.093715  2169 net.cpp:381] score-pool3 <- pool3_pool3_0_split_1
I0819 13:32:07.093726  2169 net.cpp:339] score-pool3 -> score-pool3
I0819 13:32:07.093741  2169 net.cpp:114] Setting up score-pool3
I0819 13:32:07.093775  2169 net.cpp:121] Top shape: 1 2 74 74 (10952)
I0819 13:32:07.093792  2169 layer_factory.hpp:74] Creating layer crop
I0819 13:32:07.093804  2169 net.cpp:85] Creating Layer crop
I0819 13:32:07.093813  2169 net.cpp:381] crop <- score-pool3
I0819 13:32:07.093823  2169 net.cpp:381] crop <- score4_score4_0_split_0
I0819 13:32:07.093833  2169 net.cpp:339] crop -> score-pool3c
I0819 13:32:07.093844  2169 net.cpp:114] Setting up crop
I0819 13:32:07.093899  2169 net.cpp:121] Top shape: 1 2 58 58 (6728)
I0819 13:32:07.093910  2169 layer_factory.hpp:74] Creating layer fuse
I0819 13:32:07.093922  2169 net.cpp:85] Creating Layer fuse
I0819 13:32:07.093931  2169 net.cpp:381] fuse <- score4_score4_0_split_1
I0819 13:32:07.093940  2169 net.cpp:381] fuse <- score-pool3c
I0819 13:32:07.093948  2169 net.cpp:339] fuse -> score-final
I0819 13:32:07.093956  2169 net.cpp:114] Setting up fuse
I0819 13:32:07.093966  2169 net.cpp:121] Top shape: 1 2 58 58 (6728)
I0819 13:32:07.093986  2169 layer_factory.hpp:74] Creating layer upsample
I0819 13:32:07.093999  2169 net.cpp:85] Creating Layer upsample
I0819 13:32:07.094010  2169 net.cpp:381] upsample <- score-final
I0819 13:32:07.094023  2169 net.cpp:339] upsample -> bigscore
I0819 13:32:07.094034  2169 net.cpp:114] Setting up upsample
I0819 13:32:07.094053  2169 net.cpp:121] Top shape: 1 2 472 472 (445568)
I0819 13:32:07.094069  2169 layer_factory.hpp:74] Creating layer crop
I0819 13:32:07.094080  2169 net.cpp:85] Creating Layer crop
I0819 13:32:07.094090  2169 net.cpp:381] crop <- bigscore
I0819 13:32:07.094099  2169 net.cpp:381] crop <- data_data_0_split_1
I0819 13:32:07.094106  2169 net.cpp:339] crop -> upscore
I0819 13:32:07.094115  2169 net.cpp:114] Setting up crop
I0819 13:32:07.094182  2169 net.cpp:121] Top shape: 1 2 388 388 (301088)
I0819 13:32:07.094193  2169 layer_factory.hpp:74] Creating layer loss
I0819 13:32:07.094204  2169 net.cpp:85] Creating Layer loss
I0819 13:32:07.094385  2169 net.cpp:381] loss <- upscore
I0819 13:32:07.094398  2169 net.cpp:381] loss <- label
I0819 13:32:07.094410  2169 net.cpp:339] loss -> loss
I0819 13:32:07.094429  2169 net.cpp:114] Setting up loss
I0819 13:32:07.094441  2169 layer_factory.hpp:74] Creating layer loss
…
I0819 13:32:07.097877  2169 net.cpp:42] Initializing net from parameters: 
name: "FCN"
state {
  phase: TEST
}
layer {
  name: "data"
  type: "ImageMat"
  top: "data"
  top: "label"
  include {
    phase: TEST
  }
  transform_param {
    mirror: true
    crop_size: 388
    mean_value: 104.008
    mean_value: 116.669
    mean_value: 122.675
  }
  image_data_param {
    source: "/media/BigDisk/xiaoyong/datafrommac/ourfacedata_train_2/ourtestdatalist_5mat.txt"
    batch_size: 1
    shuffle: true
    root_folder: ""
    ignore_label: 255
    label_type: PIXEL
  }
}
layer {
  name: "conv1_1"
  type: "Convolution"
  bottom: "data"
  top: "conv1_1"
  param {
    lr_mult: 1
    decay_mult: 1
  }
  param {
    lr_mult: 2
    decay_mult: 0
  }
  convolution_param {
    num_output: 64
    pad: 100
    kernel_size: 3
    engine: CAFFE
  }
}
layer {
  name: "relu1_1"
  type: "ReLU"
  bottom: "conv1_1"
  top: "conv1_1"
}
layer {
  name: "conv1_2"
  type: "Convolution"
  bottom: "conv1_1"
  top: "conv1_2"
  param {
    lr_mult: 1
    decay_mult: 1
  }
  param {
    lr_mult: 2
    decay_mult: 0
  }
  convolution_param {
    num_output: 64
    pad: 1
    kernel_size: 3
    engine: CAFFE
  }
}
layer {
  name: "relu1_2"
  type: "ReLU"
  bottom: "conv1_2"
  top: "conv1_2"
}
layer {
  name: "pool1"
  type: "Pooling"
  bottom: "conv1_2"
  top: "pool1"
  pooling_param {
    pool: MAX
    kernel_size: 2
    stride: 2
  }
}
layer {
  name: "conv2_1"
  type: "Convolution"
  bottom: "pool1"
  top: "conv2_1"
  param {
    lr_mult: 1
    decay_mult: 1
  }
  param {
    lr_mult: 2
    decay_mult: 0
  }
  convolution_param {
    num_output: 128
    pad: 1
    kernel_size: 3
    engine: CAFFE
  }
}
layer {
  name: "relu2_1"
  type: "ReLU"
  bottom: "conv2_1"
  top: "conv2_1"
}
layer {
  name: "conv2_2"
  type: "Convolution"
  bottom: "conv2_1"
  top: "conv2_2"
  param {
    lr_mult: 1
    decay_mult: 1
  }
  param {
    lr_mult: 2
    decay_mult: 0
  }
  convolution_param {
    num_output: 128
    pad: 1
    kernel_size: 3
    engine: CAFFE
  }
}
layer {
  name: "relu2_2"
  type: "ReLU"
  bottom: "conv2_2"
  top: "conv2_2"
}
layer {
  name: "pool2"
  type: "Pooling"
  bottom: "conv2_2"
  top: "pool2"
  pooling_param {
    pool: MAX
    kernel_size: 2
    stride: 2
  }
}
layer {
  name: "conv3_1"
  type: "Convolution"
  bottom: "pool2"
  top: "conv3_1"
  param {
    lr_mult: 1
    decay_mult: 1
  }
  param {
    lr_mult: 2
    decay_mult: 0
  }
  convolution_param {
    num_output: 256
    pad: 1
    kernel_size: 3
    engine: CAFFE
  }
}
layer {
  name: "relu3_1"
  type: "ReLU"
  bottom: "conv3_1"
  top: "conv3_1"
}
layer {
  name: "conv3_2"
  type: "Convolution"
  bottom: "conv3_1"
  top: "conv3_2"
  param {
    lr_mult: 1
    decay_mult: 1
  }
  param {
    lr_mult: 2
    decay_mult: 0
  }
  convolution_param {
    num_output: 256
    pad: 1
    kernel_size: 3
    engine: CAFFE
  }
}
layer {
  name: "relu3_2"
  type: "ReLU"
  bottom: "conv3_2"
  top: "conv3_2"
}
layer {
  name: "conv3_3"
  type: "Convolution"
  bottom: "conv3_2"
  top: "conv3_3"
  param {
    lr_mult: 1
    decay_mult: 1
  }
  param {
    lr_mult: 2
    decay_mult: 0
  }
  convolution_param {
    num_output: 256
    pad: 1
    kernel_size: 3
    engine: CAFFE
  }
}
layer {
  name: "relu3_3"
  type: "ReLU"
  bottom: "conv3_3"
  top: "conv3_3"
}
layer {
  name: "pool3"
  type: "Pooling"
  bottom: "conv3_3"
  top: "pool3"
  pooling_param {
    pool: MAX
    kernel_size: 2
    stride: 2
  }
}
layer {
  name: "conv4_1"
  type: "Convolution"
  bottom: "pool3"
  top: "conv4_1"
  param {
    lr_mult: 1
    decay_mult: 1
  }
  param {
    lr_mult: 2
    decay_mult: 0
  }
  convolution_param {
    num_output: 512
    pad: 1
    kernel_size: 3
    engine: CAFFE
  }
}
layer {
  name: "relu4_1"
  type: "ReLU"
  bottom: "conv4_1"
  top: "conv4_1"
}
layer {
  name: "conv4_2"
  type: "Convolution"
  bottom: "conv4_1"
  top: "conv4_2"
  param {
    lr_mult: 1
    decay_mult: 1
  }
  param {
    lr_mult: 2
    decay_mult: 0
  }
  convolution_param {
    num_output: 512
    pad: 1
    kernel_size: 3
    engine: CAFFE
  }
}
layer {
  name: "relu4_2"
  type: "ReLU"
  bottom: "conv4_2"
  top: "conv4_2"
}
layer {
  name: "conv4_3"
  type: "Convolution"
  bottom: "conv4_2"
  top: "conv4_3"
  param {
    lr_mult: 1
    decay_mult: 1
  }
  param {
    lr_mult: 2
    decay_mult: 0
  }
  convolution_param {
    num_output: 512
    pad: 1
    kernel_size: 3
    engine: CAFFE
  }
}
layer {
  name: "relu4_3"
  type: "ReLU"
  bottom: "conv4_3"
  top: "conv4_3"
}
layer {
  name: "pool4"
  type: "Pooling"
  bottom: "conv4_3"
  top: "pool4"
  pooling_param {
    pool: MAX
    kernel_size: 2
    stride: 2
  }
}
layer {
  name: "conv5_1"
  type: "Convolution"
  bottom: "pool4"
  top: "conv5_1"
  param {
    lr_mult: 1
    decay_mult: 1
  }
  param {
    lr_mult: 2
    decay_mult: 0
  }
  convolution_param {
    num_output: 512
    pad: 1
    kernel_size: 3
    engine: CAFFE
  }
}
layer {
  name: "relu5_1"
  type: "ReLU"
  bottom: "conv5_1"
  top: "conv5_1"
}
layer {
  name: "conv5_2"
  type: "Convolution"
  bottom: "conv5_1"
  top: "conv5_2"
  param {
    lr_mult: 1
    decay_mult: 1
  }
  param {
    lr_mult: 2
    decay_mult: 0
  }
  convolution_param {
    num_output: 512
    pad: 1
    kernel_size: 3
    engine: CAFFE
  }
}
layer {
  name: "relu5_2"
  type: "ReLU"
  bottom: "conv5_2"
  top: "conv5_2"
}
layer {
  name: "conv5_3"
  type: "Convolution"
  bottom: "conv5_2"
  top: "conv5_3"
  param {
    lr_mult: 1
    decay_mult: 1
  }
  param {
    lr_mult: 2
    decay_mult: 0
  }
  convolution_param {
    num_output: 512
    pad: 1
    kernel_size: 3
    engine: CAFFE
  }
}
layer {
  name: "relu5_3"
  type: "ReLU"
  bottom: "conv5_3"
  top: "conv5_3"
}
layer {
  name: "pool5"
  type: "Pooling"
  bottom: "conv5_3"
  top: "pool5"
  pooling_param {
    pool: MAX
    kernel_size: 2
    stride: 2
  }
}
layer {
  name: "fc6"
  type: "Convolution"
  bottom: "pool5"
  top: "fc6"
  param {
    lr_mult: 1
    decay_mult: 1
  }
  param {
    lr_mult: 2
    decay_mult: 0
  }
  convolution_param {
    num_output: 4096
    kernel_size: 7
    engine: CAFFE
  }
}
layer {
  name: "relu6"
  type: "ReLU"
  bottom: "fc6"
  top: "fc6"
}
layer {
  name: "drop6"
  type: "Dropout"
  bottom: "fc6"
  top: "fc6"
  dropout_param {
    dropout_ratio: 0.5
  }
}
layer {
  name: "fc7"
  type: "Convolution"
  bottom: "fc6"
  top: "fc7"
  param {
    lr_mult: 1
    decay_mult: 1
  }
  param {
    lr_mult: 2
    decay_mult: 0
  }
  convolution_param {
    num_output: 4096
    kernel_size: 1
    engine: CAFFE
  }
}
layer {
  name: "relu7"
  type: "ReLU"
  bottom: "fc7"
  top: "fc7"
}
layer {
  name: "drop7"
  type: "Dropout"
  bottom: "fc7"
  top: "fc7"
  dropout_param {
    dropout_ratio: 0.5
  }
}
layer {
  name: "score-fr"
  type: "Convolution"
  bottom: "fc7"
  top: "score"
  param {
    lr_mult: 1
    decay_mult: 1
  }
  param {
    lr_mult: 2
    decay_mult: 0
  }
  convolution_param {
    num_output: 2
    kernel_size: 1
    engine: CAFFE
  }
}
layer {
  name: "score2"
  type: "Deconvolution"
  bottom: "score"
  top: "score2"
  param {
    lr_mult: 1
    decay_mult: 1
  }
  param {
    lr_mult: 2
    decay_mult: 0
  }
  convolution_param {
    num_output: 2
    kernel_size: 4
    stride: 2
  }
}
layer {
  name: "score-pool4"
  type: "Convolution"
  bottom: "pool4"
  top: "score-pool4"
  param {
    lr_mult: 1
    decay_mult: 1
  }
  param {
    lr_mult: 2
    decay_mult: 0
  }
  convolution_param {
    num_output: 2
    kernel_size: 1
    engine: CAFFE
  }
}
layer {
  name: "crop"
  type: "Crop"
  bottom: "score-pool4"
  bottom: "score2"
  top: "score-pool4c"
}
layer {
  name: "fuse"
  type: "Eltwise"
  bottom: "score2"
  bottom: "score-pool4c"
  top: "score-fused"
  eltwise_param {
    operation: SUM
  }
}
layer {
  name: "score4"
  type: "Deconvolution"
  bottom: "score-fused"
  top: "score4"
  param {
    lr_mult: 1
    decay_mult: 1
  }
  convolution_param {
    num_output: 2
    bias_term: false
    kernel_size: 4
    stride: 2
  }
}
layer {
  name: "score-pool3"
  type: "Convolution"
  bottom: "pool3"
  top: "score-pool3"
  param {
    lr_mult: 1
    decay_mult: 1
  }
  param {
    lr_mult: 2
    decay_mult: 0
  }
  convolution_param {
    num_output: 2
    kernel_size: 1
    engine: CAFFE
  }
}
layer {
  name: "crop"
  type: "Crop"
  bottom: "score-pool3"
  bottom: "score4"
  top: "score-pool3c"
}
layer {
  name: "fuse"
  type: "Eltwise"
  bottom: "score4"
  bottom: "score-pool3c"
  top: "score-final"
  eltwise_param {
    operation: SUM
  }
}
layer {
  name: "upsample"
  type: "Deconvolution"
  bottom: "score-final"
  top: "bigscore"
  param {
    lr_mult: 1
  }
  convolution_param {
    num_output: 2
    bias_term: false
    kernel_size: 16
    stride: 8
  }
}
layer {
  name: "crop"
  type: "Crop"
  bottom: "bigscore"
  bottom: "data"
  top: "upscore"
}
layer {
  name: "loss"
  type: "SoftmaxWithLoss"
  bottom: "upscore"
  bottom: "label"
  top: "loss"
  loss_param {
    ignore_label: 255
  }
}
layer {
  name: "accuracy"
  type: "SegAccuracy"
  bottom: "upscore"
  bottom: "label"
  top: "accuracy"
  include {
    phase: TEST
  }
  seg_accuracy_param {
    ignore_label: 255
  }
}
I0819 13:32:07.098172  2169 layer_factory.hpp:74] Creating layer data
I0819 13:32:07.098186  2169 net.cpp:85] Creating Layer data
I0819 13:32:07.098196  2169 net.cpp:339] data -> data
I0819 13:32:07.098211  2169 net.cpp:339] data -> label
I0819 13:32:07.098222  2169 net.cpp:339] data -> (automatic)
I0819 13:32:07.098229  2169 net.cpp:114] Setting up data
I0819 13:32:07.098245  2169 image_mat_layer.cpp:55] Opening file /media/BigDisk/xiaoyong/datafrommac/ourfacedata_train_2/ourtestdatalist_5mat.txt
I0819 13:32:07.098757  2169 image_mat_layer.cpp:72] Shuffling data
I0819 13:32:07.098814  2169 image_mat_layer.cpp:77] A total of 339 images.
I0819 13:32:07.167588  2169 image_mat_layer.cpp:143] output data size: 1,5,388,388
I0819 13:32:07.167613  2169 image_mat_layer.cpp:147] output label size: 1,1,388,388
I0819 13:32:07.167619  2169 image_mat_layer.cpp:151] output data_dim size: 1,1,1,2
I0819 13:32:07.168023  2169 net.cpp:121] Top shape: 1 5 388 388 (752720)
I0819 13:32:07.168035  2169 net.cpp:121] Top shape: 1 1 388 388 (150544)
I0819 13:32:07.168041  2169 net.cpp:121] Top shape: 1 1 1 2 (2)
I0819 13:32:07.168051  2169 layer_factory.hpp:74] Creating layer data_data_0_split
I0819 13:32:07.168066  2169 net.cpp:85] Creating Layer data_data_0_split
I0819 13:32:07.168074  2169 net.cpp:381] data_data_0_split <- data
I0819 13:32:07.168086  2169 net.cpp:339] data_data_0_split -> data_data_0_split_0
I0819 13:32:07.168097  2169 net.cpp:339] data_data_0_split -> data_data_0_split_1
I0819 13:32:07.168134  2169 net.cpp:114] Setting up data_data_0_split
I0819 13:32:07.168146  2169 net.cpp:121] Top shape: 1 5 388 388 (752720)
I0819 13:32:07.168174  2169 net.cpp:121] Top shape: 1 5 388 388 (752720)
I0819 13:32:07.168180  2169 layer_factory.hpp:74] Creating layer label_data_1_split
I0819 13:32:07.168189  2169 net.cpp:85] Creating Layer label_data_1_split
I0819 13:32:07.168193  2169 net.cpp:381] label_data_1_split <- label
I0819 13:32:07.168202  2169 net.cpp:339] label_data_1_split -> label_data_1_split_0
I0819 13:32:07.168211  2169 net.cpp:339] label_data_1_split -> label_data_1_split_1
I0819 13:32:07.168220  2169 net.cpp:114] Setting up label_data_1_split
I0819 13:32:07.168228  2169 net.cpp:121] Top shape: 1 1 388 388 (150544)
I0819 13:32:07.168234  2169 net.cpp:121] Top shape: 1 1 388 388 (150544)
I0819 13:32:07.168241  2169 layer_factory.hpp:74] Creating layer conv1_1
I0819 13:32:07.168251  2169 net.cpp:85] Creating Layer conv1_1
I0819 13:32:07.168256  2169 net.cpp:381] conv1_1 <- data_data_0_split_0
I0819 13:32:07.168264  2169 net.cpp:339] conv1_1 -> conv1_1
I0819 13:32:07.168272  2169 net.cpp:114] Setting up conv1_1
I0819 13:32:07.168612  2169 net.cpp:121] Top shape: 1 64 586 586 (21977344)
I0819 13:32:07.168630  2169 layer_factory.hpp:74] Creating layer relu1_1
I0819 13:32:07.168640  2169 net.cpp:85] Creating Layer relu1_1
I0819 13:32:07.168645  2169 net.cpp:381] relu1_1 <- conv1_1
I0819 13:32:07.168653  2169 net.cpp:328] relu1_1 -> conv1_1 (in-place)
I0819 13:32:07.168660  2169 net.cpp:114] Setting up relu1_1
I0819 13:32:07.168666  2169 net.cpp:121] Top shape: 1 64 586 586 (21977344)
I0819 13:32:07.168671  2169 layer_factory.hpp:74] Creating layer conv1_2
I0819 13:32:07.168679  2169 net.cpp:85] Creating Layer conv1_2
I0819 13:32:07.168684  2169 net.cpp:381] conv1_2 <- conv1_1
I0819 13:32:07.168692  2169 net.cpp:339] conv1_2 -> conv1_2
I0819 13:32:07.168701  2169 net.cpp:114] Setting up conv1_2
I0819 13:32:07.169035  2169 net.cpp:121] Top shape: 1 64 586 586 (21977344)
I0819 13:32:07.169049  2169 layer_factory.hpp:74] Creating layer relu1_2
I0819 13:32:07.169059  2169 net.cpp:85] Creating Layer relu1_2
I0819 13:32:07.169064  2169 net.cpp:381] relu1_2 <- conv1_2
I0819 13:32:07.169071  2169 net.cpp:328] relu1_2 -> conv1_2 (in-place)
I0819 13:32:07.169078  2169 net.cpp:114] Setting up relu1_2
I0819 13:32:07.169085  2169 net.cpp:121] Top shape: 1 64 586 586 (21977344)
I0819 13:32:07.169090  2169 layer_factory.hpp:74] Creating layer pool1
I0819 13:32:07.169100  2169 net.cpp:85] Creating Layer pool1
I0819 13:32:07.169105  2169 net.cpp:381] pool1 <- conv1_2
I0819 13:32:07.169111  2169 net.cpp:339] pool1 -> pool1
I0819 13:32:07.169118  2169 net.cpp:114] Setting up pool1
I0819 13:32:07.169128  2169 net.cpp:121] Top shape: 1 64 293 293 (5494336)
I0819 13:32:07.169133  2169 layer_factory.hpp:74] Creating layer conv2_1
I0819 13:32:07.169142  2169 net.cpp:85] Creating Layer conv2_1
I0819 13:32:07.169147  2169 net.cpp:381] conv2_1 <- pool1
I0819 13:32:07.169153  2169 net.cpp:339] conv2_1 -> conv2_1
I0819 13:32:07.169162  2169 net.cpp:114] Setting up conv2_1
I0819 13:32:07.169307  2169 net.cpp:121] Top shape: 1 128 293 293 (10988672)
I0819 13:32:07.169337  2169 layer_factory.hpp:74] Creating layer relu2_1
I0819 13:32:07.169345  2169 net.cpp:85] Creating Layer relu2_1
I0819 13:32:07.169351  2169 net.cpp:381] relu2_1 <- conv2_1
I0819 13:32:07.169358  2169 net.cpp:328] relu2_1 -> conv2_1 (in-place)
I0819 13:32:07.169365  2169 net.cpp:114] Setting up relu2_1
I0819 13:32:07.169373  2169 net.cpp:121] Top shape: 1 128 293 293 (10988672)
I0819 13:32:07.169379  2169 layer_factory.hpp:74] Creating layer conv2_2
I0819 13:32:07.169386  2169 net.cpp:85] Creating Layer conv2_2
I0819 13:32:07.169391  2169 net.cpp:381] conv2_2 <- conv2_1
I0819 13:32:07.169399  2169 net.cpp:339] conv2_2 -> conv2_2
I0819 13:32:07.169405  2169 net.cpp:114] Setting up conv2_2
I0819 13:32:07.169608  2169 net.cpp:121] Top shape: 1 128 293 293 (10988672)
I0819 13:32:07.169622  2169 layer_factory.hpp:74] Creating layer relu2_2
I0819 13:32:07.169631  2169 net.cpp:85] Creating Layer relu2_2
I0819 13:32:07.169636  2169 net.cpp:381] relu2_2 <- conv2_2
I0819 13:32:07.169644  2169 net.cpp:328] relu2_2 -> conv2_2 (in-place)
I0819 13:32:07.169651  2169 net.cpp:114] Setting up relu2_2
I0819 13:32:07.169656  2169 net.cpp:121] Top shape: 1 128 293 293 (10988672)
I0819 13:32:07.169661  2169 layer_factory.hpp:74] Creating layer pool2
I0819 13:32:07.169668  2169 net.cpp:85] Creating Layer pool2
I0819 13:32:07.169674  2169 net.cpp:381] pool2 <- conv2_2
I0819 13:32:07.169682  2169 net.cpp:339] pool2 -> pool2
I0819 13:32:07.169689  2169 net.cpp:114] Setting up pool2
I0819 13:32:07.169697  2169 net.cpp:121] Top shape: 1 128 147 147 (2765952)
I0819 13:32:07.169703  2169 layer_factory.hpp:74] Creating layer conv3_1
I0819 13:32:07.169710  2169 net.cpp:85] Creating Layer conv3_1
I0819 13:32:07.169715  2169 net.cpp:381] conv3_1 <- pool2
I0819 13:32:07.169723  2169 net.cpp:339] conv3_1 -> conv3_1
I0819 13:32:07.169729  2169 net.cpp:114] Setting up conv3_1
I0819 13:32:07.169996  2169 net.cpp:121] Top shape: 1 256 147 147 (5531904)
I0819 13:32:07.170009  2169 layer_factory.hpp:74] Creating layer relu3_1
I0819 13:32:07.170017  2169 net.cpp:85] Creating Layer relu3_1
I0819 13:32:07.170022  2169 net.cpp:381] relu3_1 <- conv3_1
I0819 13:32:07.170029  2169 net.cpp:328] relu3_1 -> conv3_1 (in-place)
I0819 13:32:07.170035  2169 net.cpp:114] Setting up relu3_1
I0819 13:32:07.170042  2169 net.cpp:121] Top shape: 1 256 147 147 (5531904)
I0819 13:32:07.170047  2169 layer_factory.hpp:74] Creating layer conv3_2
I0819 13:32:07.170055  2169 net.cpp:85] Creating Layer conv3_2
I0819 13:32:07.170061  2169 net.cpp:381] conv3_2 <- conv3_1
I0819 13:32:07.170069  2169 net.cpp:339] conv3_2 -> conv3_2
I0819 13:32:07.170078  2169 net.cpp:114] Setting up conv3_2
I0819 13:32:07.170598  2169 net.cpp:121] Top shape: 1 256 147 147 (5531904)
I0819 13:32:07.170611  2169 layer_factory.hpp:74] Creating layer relu3_2
I0819 13:32:07.170622  2169 net.cpp:85] Creating Layer relu3_2
I0819 13:32:07.170627  2169 net.cpp:381] relu3_2 <- conv3_2
I0819 13:32:07.170639  2169 net.cpp:328] relu3_2 -> conv3_2 (in-place)
I0819 13:32:07.170645  2169 net.cpp:114] Setting up relu3_2
I0819 13:32:07.170653  2169 net.cpp:121] Top shape: 1 256 147 147 (5531904)
I0819 13:32:07.170660  2169 layer_factory.hpp:74] Creating layer conv3_3
I0819 13:32:07.170668  2169 net.cpp:85] Creating Layer conv3_3
I0819 13:32:07.170675  2169 net.cpp:381] conv3_3 <- conv3_2
I0819 13:32:07.170686  2169 net.cpp:339] conv3_3 -> conv3_3
I0819 13:32:07.170696  2169 net.cpp:114] Setting up conv3_3
I0819 13:32:07.171206  2169 net.cpp:121] Top shape: 1 256 147 147 (5531904)
I0819 13:32:07.171219  2169 layer_factory.hpp:74] Creating layer relu3_3
I0819 13:32:07.171227  2169 net.cpp:85] Creating Layer relu3_3
I0819 13:32:07.171232  2169 net.cpp:381] relu3_3 <- conv3_3
I0819 13:32:07.171239  2169 net.cpp:328] relu3_3 -> conv3_3 (in-place)
I0819 13:32:07.171246  2169 net.cpp:114] Setting up relu3_3
I0819 13:32:07.171252  2169 net.cpp:121] Top shape: 1 256 147 147 (5531904)
I0819 13:32:07.171257  2169 layer_factory.hpp:74] Creating layer pool3
I0819 13:32:07.171273  2169 net.cpp:85] Creating Layer pool3
I0819 13:32:07.171279  2169 net.cpp:381] pool3 <- conv3_3
I0819 13:32:07.171288  2169 net.cpp:339] pool3 -> pool3
I0819 13:32:07.171295  2169 net.cpp:114] Setting up pool3
I0819 13:32:07.171304  2169 net.cpp:121] Top shape: 1 256 74 74 (1401856)
I0819 13:32:07.171309  2169 layer_factory.hpp:74] Creating layer pool3_pool3_0_split
I0819 13:32:07.171317  2169 net.cpp:85] Creating Layer pool3_pool3_0_split
I0819 13:32:07.171322  2169 net.cpp:381] pool3_pool3_0_split <- pool3
I0819 13:32:07.171329  2169 net.cpp:339] pool3_pool3_0_split -> pool3_pool3_0_split_0
I0819 13:32:07.171336  2169 net.cpp:339] pool3_pool3_0_split -> pool3_pool3_0_split_1
I0819 13:32:07.171344  2169 net.cpp:114] Setting up pool3_pool3_0_split
I0819 13:32:07.171351  2169 net.cpp:121] Top shape: 1 256 74 74 (1401856)
I0819 13:32:07.171357  2169 net.cpp:121] Top shape: 1 256 74 74 (1401856)
I0819 13:32:07.171365  2169 layer_factory.hpp:74] Creating layer conv4_1
I0819 13:32:07.171373  2169 net.cpp:85] Creating Layer conv4_1
I0819 13:32:07.171383  2169 net.cpp:381] conv4_1 <- pool3_pool3_0_split_0
I0819 13:32:07.171391  2169 net.cpp:339] conv4_1 -> conv4_1
I0819 13:32:07.171401  2169 net.cpp:114] Setting up conv4_1
I0819 13:32:07.172420  2169 net.cpp:121] Top shape: 1 512 74 74 (2803712)
I0819 13:32:07.172435  2169 layer_factory.hpp:74] Creating layer relu4_1
I0819 13:32:07.172442  2169 net.cpp:85] Creating Layer relu4_1
I0819 13:32:07.172448  2169 net.cpp:381] relu4_1 <- conv4_1
I0819 13:32:07.172456  2169 net.cpp:328] relu4_1 -> conv4_1 (in-place)
I0819 13:32:07.172466  2169 net.cpp:114] Setting up relu4_1
I0819 13:32:07.172472  2169 net.cpp:121] Top shape: 1 512 74 74 (2803712)
I0819 13:32:07.172479  2169 layer_factory.hpp:74] Creating layer conv4_2
I0819 13:32:07.172487  2169 net.cpp:85] Creating Layer conv4_2
I0819 13:32:07.172492  2169 net.cpp:381] conv4_2 <- conv4_1
I0819 13:32:07.172499  2169 net.cpp:339] conv4_2 -> conv4_2
I0819 13:32:07.172507  2169 net.cpp:114] Setting up conv4_2
I0819 13:32:07.175516  2169 net.cpp:121] Top shape: 1 512 74 74 (2803712)
I0819 13:32:07.175545  2169 layer_factory.hpp:74] Creating layer relu4_2
I0819 13:32:07.175554  2169 net.cpp:85] Creating Layer relu4_2
I0819 13:32:07.175560  2169 net.cpp:381] relu4_2 <- conv4_2
I0819 13:32:07.175570  2169 net.cpp:328] relu4_2 -> conv4_2 (in-place)
I0819 13:32:07.175577  2169 net.cpp:114] Setting up relu4_2
I0819 13:32:07.175583  2169 net.cpp:121] Top shape: 1 512 74 74 (2803712)
I0819 13:32:07.175588  2169 layer_factory.hpp:74] Creating layer conv4_3
I0819 13:32:07.175596  2169 net.cpp:85] Creating Layer conv4_3
I0819 13:32:07.175601  2169 net.cpp:381] conv4_3 <- conv4_2
I0819 13:32:07.175609  2169 net.cpp:339] conv4_3 -> conv4_3
I0819 13:32:07.175616  2169 net.cpp:114] Setting up conv4_3
I0819 13:32:07.178434  2169 net.cpp:121] Top shape: 1 512 74 74 (2803712)
I0819 13:32:07.178459  2169 layer_factory.hpp:74] Creating layer relu4_3
I0819 13:32:07.178470  2169 net.cpp:85] Creating Layer relu4_3
I0819 13:32:07.178477  2169 net.cpp:381] relu4_3 <- conv4_3
I0819 13:32:07.178486  2169 net.cpp:328] relu4_3 -> conv4_3 (in-place)
I0819 13:32:07.178496  2169 net.cpp:114] Setting up relu4_3
I0819 13:32:07.178503  2169 net.cpp:121] Top shape: 1 512 74 74 (2803712)
I0819 13:32:07.178508  2169 layer_factory.hpp:74] Creating layer pool4
I0819 13:32:07.178520  2169 net.cpp:85] Creating Layer pool4
I0819 13:32:07.178526  2169 net.cpp:381] pool4 <- conv4_3
I0819 13:32:07.178534  2169 net.cpp:339] pool4 -> pool4
I0819 13:32:07.178541  2169 net.cpp:114] Setting up pool4
I0819 13:32:07.178553  2169 net.cpp:121] Top shape: 1 512 37 37 (700928)
I0819 13:32:07.178558  2169 layer_factory.hpp:74] Creating layer pool4_pool4_0_split
I0819 13:32:07.178567  2169 net.cpp:85] Creating Layer pool4_pool4_0_split
I0819 13:32:07.178572  2169 net.cpp:381] pool4_pool4_0_split <- pool4
I0819 13:32:07.178580  2169 net.cpp:339] pool4_pool4_0_split -> pool4_pool4_0_split_0
I0819 13:32:07.178588  2169 net.cpp:339] pool4_pool4_0_split -> pool4_pool4_0_split_1
I0819 13:32:07.178617  2169 net.cpp:114] Setting up pool4_pool4_0_split
I0819 13:32:07.178625  2169 net.cpp:121] Top shape: 1 512 37 37 (700928)
I0819 13:32:07.178632  2169 net.cpp:121] Top shape: 1 512 37 37 (700928)
I0819 13:32:07.178637  2169 layer_factory.hpp:74] Creating layer conv5_1
I0819 13:32:07.178647  2169 net.cpp:85] Creating Layer conv5_1
I0819 13:32:07.178654  2169 net.cpp:381] conv5_1 <- pool4_pool4_0_split_0
I0819 13:32:07.178663  2169 net.cpp:339] conv5_1 -> conv5_1
I0819 13:32:07.178671  2169 net.cpp:114] Setting up conv5_1
I0819 13:32:07.181740  2169 net.cpp:121] Top shape: 1 512 37 37 (700928)
I0819 13:32:07.181762  2169 layer_factory.hpp:74] Creating layer relu5_1
I0819 13:32:07.181774  2169 net.cpp:85] Creating Layer relu5_1
I0819 13:32:07.181782  2169 net.cpp:381] relu5_1 <- conv5_1
I0819 13:32:07.181790  2169 net.cpp:328] relu5_1 -> conv5_1 (in-place)
I0819 13:32:07.181798  2169 net.cpp:114] Setting up relu5_1
I0819 13:32:07.181805  2169 net.cpp:121] Top shape: 1 512 37 37 (700928)
I0819 13:32:07.181810  2169 layer_factory.hpp:74] Creating layer conv5_2
I0819 13:32:07.181818  2169 net.cpp:85] Creating Layer conv5_2
I0819 13:32:07.181823  2169 net.cpp:381] conv5_2 <- conv5_1
I0819 13:32:07.181833  2169 net.cpp:339] conv5_2 -> conv5_2
I0819 13:32:07.181841  2169 net.cpp:114] Setting up conv5_2
I0819 13:32:07.184411  2169 net.cpp:121] Top shape: 1 512 37 37 (700928)
I0819 13:32:07.184428  2169 layer_factory.hpp:74] Creating layer relu5_2
I0819 13:32:07.184447  2169 net.cpp:85] Creating Layer relu5_2
I0819 13:32:07.184453  2169 net.cpp:381] relu5_2 <- conv5_2
I0819 13:32:07.184463  2169 net.cpp:328] relu5_2 -> conv5_2 (in-place)
I0819 13:32:07.184469  2169 net.cpp:114] Setting up relu5_2
I0819 13:32:07.184476  2169 net.cpp:121] Top shape: 1 512 37 37 (700928)
I0819 13:32:07.184481  2169 layer_factory.hpp:74] Creating layer conv5_3
I0819 13:32:07.184490  2169 net.cpp:85] Creating Layer conv5_3
I0819 13:32:07.184495  2169 net.cpp:381] conv5_3 <- conv5_2
I0819 13:32:07.184504  2169 net.cpp:339] conv5_3 -> conv5_3
I0819 13:32:07.184512  2169 net.cpp:114] Setting up conv5_3
I0819 13:32:07.187624  2169 net.cpp:121] Top shape: 1 512 37 37 (700928)
I0819 13:32:07.187654  2169 layer_factory.hpp:74] Creating layer relu5_3
I0819 13:32:07.187667  2169 net.cpp:85] Creating Layer relu5_3
I0819 13:32:07.187674  2169 net.cpp:381] relu5_3 <- conv5_3
I0819 13:32:07.187688  2169 net.cpp:328] relu5_3 -> conv5_3 (in-place)
I0819 13:32:07.187698  2169 net.cpp:114] Setting up relu5_3
I0819 13:32:07.187705  2169 net.cpp:121] Top shape: 1 512 37 37 (700928)
I0819 13:32:07.187711  2169 layer_factory.hpp:74] Creating layer pool5
I0819 13:32:07.187718  2169 net.cpp:85] Creating Layer pool5
I0819 13:32:07.187724  2169 net.cpp:381] pool5 <- conv5_3
I0819 13:32:07.187732  2169 net.cpp:339] pool5 -> pool5
I0819 13:32:07.187741  2169 net.cpp:114] Setting up pool5
I0819 13:32:07.187750  2169 net.cpp:121] Top shape: 1 512 19 19 (184832)
I0819 13:32:07.187755  2169 layer_factory.hpp:74] Creating layer fc6
I0819 13:32:07.187767  2169 net.cpp:85] Creating Layer fc6
I0819 13:32:07.187773  2169 net.cpp:381] fc6 <- pool5
I0819 13:32:07.187782  2169 net.cpp:339] fc6 -> fc6
I0819 13:32:07.187790  2169 net.cpp:114] Setting up fc6
I0819 13:32:07.287583  2169 net.cpp:121] Top shape: 1 4096 13 13 (692224)
I0819 13:32:07.287621  2169 layer_factory.hpp:74] Creating layer relu6
I0819 13:32:07.287634  2169 net.cpp:85] Creating Layer relu6
I0819 13:32:07.287642  2169 net.cpp:381] relu6 <- fc6
I0819 13:32:07.287653  2169 net.cpp:328] relu6 -> fc6 (in-place)
I0819 13:32:07.287663  2169 net.cpp:114] Setting up relu6
I0819 13:32:07.287670  2169 net.cpp:121] Top shape: 1 4096 13 13 (692224)
I0819 13:32:07.287678  2169 layer_factory.hpp:74] Creating layer drop6
I0819 13:32:07.287688  2169 net.cpp:85] Creating Layer drop6
I0819 13:32:07.287693  2169 net.cpp:381] drop6 <- fc6
I0819 13:32:07.287703  2169 net.cpp:328] drop6 -> fc6 (in-place)
I0819 13:32:07.287711  2169 net.cpp:114] Setting up drop6
I0819 13:32:07.287719  2169 net.cpp:121] Top shape: 1 4096 13 13 (692224)
I0819 13:32:07.287745  2169 layer_factory.hpp:74] Creating layer fc7
I0819 13:32:07.287756  2169 net.cpp:85] Creating Layer fc7
I0819 13:32:07.287761  2169 net.cpp:381] fc7 <- fc6
I0819 13:32:07.287770  2169 net.cpp:339] fc7 -> fc7
I0819 13:32:07.287777  2169 net.cpp:114] Setting up fc7
I0819 13:32:07.494793  2169 net.cpp:121] Top shape: 1 4096 13 13 (692224)
I0819 13:32:07.494845  2169 layer_factory.hpp:74] Creating layer relu7
I0819 13:32:07.494861  2169 net.cpp:85] Creating Layer relu7
I0819 13:32:07.494869  2169 net.cpp:381] relu7 <- fc7
I0819 13:32:07.494879  2169 net.cpp:328] relu7 -> fc7 (in-place)
I0819 13:32:07.494889  2169 net.cpp:114] Setting up relu7
I0819 13:32:07.494897  2169 net.cpp:121] Top shape: 1 4096 13 13 (692224)
I0819 13:32:07.494904  2169 layer_factory.hpp:74] Creating layer drop7
I0819 13:32:07.494912  2169 net.cpp:85] Creating Layer drop7
I0819 13:32:07.494917  2169 net.cpp:381] drop7 <- fc7
I0819 13:32:07.494925  2169 net.cpp:328] drop7 -> fc7 (in-place)
I0819 13:32:07.494932  2169 net.cpp:114] Setting up drop7
I0819 13:32:07.494941  2169 net.cpp:121] Top shape: 1 4096 13 13 (692224)
I0819 13:32:07.494947  2169 layer_factory.hpp:74] Creating layer score-fr
I0819 13:32:07.494958  2169 net.cpp:85] Creating Layer score-fr
I0819 13:32:07.494972  2169 net.cpp:381] score-fr <- fc7
I0819 13:32:07.494982  2169 net.cpp:339] score-fr -> score
I0819 13:32:07.494990  2169 net.cpp:114] Setting up score-fr
I0819 13:32:07.495025  2169 net.cpp:121] Top shape: 1 2 13 13 (338)
I0819 13:32:07.495038  2169 layer_factory.hpp:74] Creating layer score2
I0819 13:32:07.495050  2169 net.cpp:85] Creating Layer score2
I0819 13:32:07.495059  2169 net.cpp:381] score2 <- score
I0819 13:32:07.495067  2169 net.cpp:339] score2 -> score2
I0819 13:32:07.495082  2169 net.cpp:114] Setting up score2
I0819 13:32:07.495105  2169 net.cpp:121] Top shape: 1 2 28 28 (1568)
I0819 13:32:07.495120  2169 layer_factory.hpp:74] Creating layer score2_score2_0_split
I0819 13:32:07.495138  2169 net.cpp:85] Creating Layer score2_score2_0_split
I0819 13:32:07.495146  2169 net.cpp:381] score2_score2_0_split <- score2
I0819 13:32:07.495156  2169 net.cpp:339] score2_score2_0_split -> score2_score2_0_split_0
I0819 13:32:07.495167  2169 net.cpp:339] score2_score2_0_split -> score2_score2_0_split_1
I0819 13:32:07.495175  2169 net.cpp:114] Setting up score2_score2_0_split
I0819 13:32:07.495187  2169 net.cpp:121] Top shape: 1 2 28 28 (1568)
I0819 13:32:07.495194  2169 net.cpp:121] Top shape: 1 2 28 28 (1568)
I0819 13:32:07.495203  2169 layer_factory.hpp:74] Creating layer score-pool4
I0819 13:32:07.495213  2169 net.cpp:85] Creating Layer score-pool4
I0819 13:32:07.495218  2169 net.cpp:381] score-pool4 <- pool4_pool4_0_split_1
I0819 13:32:07.495228  2169 net.cpp:339] score-pool4 -> score-pool4
I0819 13:32:07.495235  2169 net.cpp:114] Setting up score-pool4
I0819 13:32:07.495261  2169 net.cpp:121] Top shape: 1 2 37 37 (2738)
I0819 13:32:07.495270  2169 layer_factory.hpp:74] Creating layer crop
I0819 13:32:07.495277  2169 net.cpp:85] Creating Layer crop
I0819 13:32:07.495283  2169 net.cpp:381] crop <- score-pool4
I0819 13:32:07.495290  2169 net.cpp:381] crop <- score2_score2_0_split_0
I0819 13:32:07.495297  2169 net.cpp:339] crop -> score-pool4c
I0819 13:32:07.495306  2169 net.cpp:114] Setting up crop
I0819 13:32:07.495365  2169 net.cpp:121] Top shape: 1 2 28 28 (1568)
I0819 13:32:07.495376  2169 layer_factory.hpp:74] Creating layer fuse
I0819 13:32:07.495386  2169 net.cpp:85] Creating Layer fuse
I0819 13:32:07.495393  2169 net.cpp:381] fuse <- score2_score2_0_split_1
I0819 13:32:07.495399  2169 net.cpp:381] fuse <- score-pool4c
I0819 13:32:07.495407  2169 net.cpp:339] fuse -> score-fused
I0819 13:32:07.495416  2169 net.cpp:114] Setting up fuse
I0819 13:32:07.495425  2169 net.cpp:121] Top shape: 1 2 28 28 (1568)
I0819 13:32:07.495431  2169 layer_factory.hpp:74] Creating layer score4
I0819 13:32:07.495440  2169 net.cpp:85] Creating Layer score4
I0819 13:32:07.495445  2169 net.cpp:381] score4 <- score-fused
I0819 13:32:07.495453  2169 net.cpp:339] score4 -> score4
I0819 13:32:07.495482  2169 net.cpp:114] Setting up score4
I0819 13:32:07.495496  2169 net.cpp:121] Top shape: 1 2 58 58 (6728)
I0819 13:32:07.495503  2169 layer_factory.hpp:74] Creating layer score4_score4_0_split
I0819 13:32:07.495512  2169 net.cpp:85] Creating Layer score4_score4_0_split
I0819 13:32:07.495517  2169 net.cpp:381] score4_score4_0_split <- score4
I0819 13:32:07.495527  2169 net.cpp:339] score4_score4_0_split -> score4_score4_0_split_0
I0819 13:32:07.495537  2169 net.cpp:339] score4_score4_0_split -> score4_score4_0_split_1
I0819 13:32:07.495544  2169 net.cpp:114] Setting up score4_score4_0_split
I0819 13:32:07.495551  2169 net.cpp:121] Top shape: 1 2 58 58 (6728)
I0819 13:32:07.495558  2169 net.cpp:121] Top shape: 1 2 58 58 (6728)
I0819 13:32:07.495563  2169 layer_factory.hpp:74] Creating layer score-pool3
I0819 13:32:07.495573  2169 net.cpp:85] Creating Layer score-pool3
I0819 13:32:07.495579  2169 net.cpp:381] score-pool3 <- pool3_pool3_0_split_1
I0819 13:32:07.495586  2169 net.cpp:339] score-pool3 -> score-pool3
I0819 13:32:07.495596  2169 net.cpp:114] Setting up score-pool3
I0819 13:32:07.495621  2169 net.cpp:121] Top shape: 1 2 74 74 (10952)
I0819 13:32:07.495635  2169 layer_factory.hpp:74] Creating layer crop
I0819 13:32:07.495772  2169 net.cpp:85] Creating Layer crop
I0819 13:32:07.495870  2169 net.cpp:381] crop <- score-pool3
I0819 13:32:07.495882  2169 net.cpp:381] crop <- score4_score4_0_split_0
I0819 13:32:07.495893  2169 net.cpp:339] crop -> score-pool3c
I0819 13:32:07.495903  2169 net.cpp:114] Setting up crop
I0819 13:32:07.495961  2169 net.cpp:121] Top shape: 1 2 58 58 (6728)
I0819 13:32:07.495972  2169 layer_factory.hpp:74] Creating layer fuse
I0819 13:32:07.495982  2169 net.cpp:85] Creating Layer fuse
I0819 13:32:07.495990  2169 net.cpp:381] fuse <- score4_score4_0_split_1
I0819 13:32:07.495998  2169 net.cpp:381] fuse <- score-pool3c
I0819 13:32:07.496007  2169 net.cpp:339] fuse -> score-final
I0819 13:32:07.496016  2169 net.cpp:114] Setting up fuse
I0819 13:32:07.496028  2169 net.cpp:121] Top shape: 1 2 58 58 (6728)
I0819 13:32:07.496036  2169 layer_factory.hpp:74] Creating layer upsample
I0819 13:32:07.496044  2169 net.cpp:85] Creating Layer upsample
I0819 13:32:07.496053  2169 net.cpp:381] upsample <- score-final
I0819 13:32:07.496068  2169 net.cpp:339] upsample -> bigscore
I0819 13:32:07.496078  2169 net.cpp:114] Setting up upsample
I0819 13:32:07.496096  2169 net.cpp:121] Top shape: 1 2 472 472 (445568)
I0819 13:32:07.496129  2169 layer_factory.hpp:74] Creating layer crop
I0819 13:32:07.496139  2169 net.cpp:85] Creating Layer crop
I0819 13:32:07.496145  2169 net.cpp:381] crop <- bigscore
I0819 13:32:07.496152  2169 net.cpp:381] crop <- data_data_0_split_1
I0819 13:32:07.496162  2169 net.cpp:339] crop -> upscore
I0819 13:32:07.496171  2169 net.cpp:114] Setting up crop
I0819 13:32:07.496250  2169 net.cpp:121] Top shape: 1 2 388 388 (301088)
I0819 13:32:07.496261  2169 layer_factory.hpp:74] Creating layer upscore_crop_0_split
I0819 13:32:07.496270  2169 net.cpp:85] Creating Layer upscore_crop_0_split
I0819 13:32:07.496278  2169 net.cpp:381] upscore_crop_0_split <- upscore
I0819 13:32:07.496285  2169 net.cpp:339] upscore_crop_0_split -> upscore_crop_0_split_0
I0819 13:32:07.496295  2169 net.cpp:339] upscore_crop_0_split -> upscore_crop_0_split_1
I0819 13:32:07.496304  2169 net.cpp:114] Setting up upscore_crop_0_split
I0819 13:32:07.496314  2169 net.cpp:121] Top shape: 1 2 388 388 (301088)
I0819 13:32:07.496321  2169 net.cpp:121] Top shape: 1 2 388 388 (301088)
I0819 13:32:07.496328  2169 layer_factory.hpp:74] Creating layer loss
I0819 13:32:07.496338  2169 net.cpp:85] Creating Layer loss
I0819 13:32:07.496345  2169 net.cpp:381] loss <- upscore_crop_0_split_0
I0819 13:32:07.496353  2169 net.cpp:381] loss <- label_data_1_split_0
I0819 13:32:07.496362  2169 net.cpp:339] loss -> loss
I0819 13:32:07.496374  2169 net.cpp:114] Setting up loss
I0819 13:32:07.496386  2169 layer_factory.hpp:74] Creating layer loss
I0819 13:32:07.497072  2169 net.cpp:121] Top shape: (1)
I0819 13:32:07.497084  2169 net.cpp:123]     with loss weight 1
I0819 13:32:07.497122  2169 layer_factory.hpp:74] Creating layer accuracy
I0819 13:32:07.497139  2169 net.cpp:85] Creating Layer accuracy
I0819 13:32:07.497148  2169 net.cpp:381] accuracy <- upscore_crop_0_split_1
I0819 13:32:07.497155  2169 net.cpp:381] accuracy <- label_data_1_split_1
I0819 13:32:07.497165  2169 net.cpp:339] accuracy -> accuracy
I0819 13:32:07.497177  2169 net.cpp:114] Setting up accuracy
I0819 13:32:07.497195  2169 net.cpp:121] Top shape: 1 1 1 3 (3)
I0819 13:32:07.497207  2169 net.cpp:170] accuracy does not need backward computation.
I0819 13:32:07.497215  2169 net.cpp:168] loss needs backward computation.
I0819 13:32:07.497221  2169 net.cpp:168] upscore_crop_0_split needs backward computation.
I0819 13:32:07.497227  2169 net.cpp:168] crop needs backward computation.
I0819 13:32:07.497232  2169 net.cpp:168] upsample needs backward computation.
…
