…
I0817 22:29:57.400813  2641 net.cpp:42] Initializing net from parameters: 
name: "FCN"
state {
  phase: TRAIN
}
layer {
  name: "data"
  type: "ImageSegData"
  top: "data"
  top: "label"
  include {
    phase: TRAIN
  }
  transform_param {
    mirror: true
    crop_size: 388
    mean_value: 104.008
    mean_value: 116.669
    mean_value: 122.675
  }
  image_data_param {
    source: "/media/BigDisk/xiaoyong/datafrommac/ourfacedata_train_2/traindatalist_2_new.txt"
    batch_size: 1
    shuffle: true
    root_folder: ""
    ignore_label: 255
    label_type: PIXEL
  }
}
layer {
  name: "conv1_1"
  type: "Convolution"
  bottom: "data"
  top: "conv1_1"
  param {
    lr_mult: 1
    decay_mult: 1
  }
  param {
    lr_mult: 2
    decay_mult: 0
  }
  convolution_param {
    num_output: 64
    pad: 100
    kernel_size: 3
    engine: CAFFE
  }
}
layer {
  name: "relu1_1"
  type: "ReLU"
  bottom: "conv1_1"
  top: "conv1_1"
}
layer {
  name: "conv1_2"
  type: "Convolution"
  bottom: "conv1_1"
  top: "conv1_2"
  param {
    lr_mult: 1
    decay_mult: 1
  }
  param {
    lr_mult: 2
    decay_mult: 0
  }
  convolution_param {
    num_output: 64
    pad: 1
    kernel_size: 3
    engine: CAFFE
  }
}
layer {
  name: "relu1_2"
  type: "ReLU"
  bottom: "conv1_2"
  top: "conv1_2"
}
layer {
  name: "pool1"
  type: "Pooling"
  bottom: "conv1_2"
  top: "pool1"
  pooling_param {
    pool: MAX
    kernel_size: 2
    stride: 2
  }
}
layer {
  name: "conv2_1"
  type: "Convolution"
  bottom: "pool1"
  top: "conv2_1"
  param {
    lr_mult: 1
    decay_mult: 1
  }
  param {
    lr_mult: 2
    decay_mult: 0
  }
  convolution_param {
    num_output: 128
    pad: 1
    kernel_size: 3
    engine: CAFFE
  }
}
layer {
  name: "relu2_1"
  type: "ReLU"
  bottom: "conv2_1"
  top: "conv2_1"
}
layer {
  name: "conv2_2"
  type: "Convolution"
  bottom: "conv2_1"
  top: "conv2_2"
  param {
    lr_mult: 1
    decay_mult: 1
  }
  param {
    lr_mult: 2
    decay_mult: 0
  }
  convolution_param {
    num_output: 128
    pad: 1
    kernel_size: 3
    engine: CAFFE
  }
}
layer {
  name: "relu2_2"
  type: "ReLU"
  bottom: "conv2_2"
  top: "conv2_2"
}
layer {
  name: "pool2"
  type: "Pooling"
  bottom: "conv2_2"
  top: "pool2"
  pooling_param {
    pool: MAX
    kernel_size: 2
    stride: 2
  }
}
layer {
  name: "conv3_1"
  type: "Convolution"
  bottom: "pool2"
  top: "conv3_1"
  param {
    lr_mult: 1
    decay_mult: 1
  }
  param {
    lr_mult: 2
    decay_mult: 0
  }
  convolution_param {
    num_output: 256
    pad: 1
    kernel_size: 3
    engine: CAFFE
  }
}
layer {
  name: "relu3_1"
  type: "ReLU"
  bottom: "conv3_1"
  top: "conv3_1"
}
layer {
  name: "conv3_2"
  type: "Convolution"
  bottom: "conv3_1"
  top: "conv3_2"
  param {
    lr_mult: 1
    decay_mult: 1
  }
  param {
    lr_mult: 2
    decay_mult: 0
  }
  convolution_param {
    num_output: 256
    pad: 1
    kernel_size: 3
    engine: CAFFE
  }
}
layer {
  name: "relu3_2"
  type: "ReLU"
  bottom: "conv3_2"
  top: "conv3_2"
}
layer {
  name: "conv3_3"
  type: "Convolution"
  bottom: "conv3_2"
  top: "conv3_3"
  param {
    lr_mult: 1
    decay_mult: 1
  }
  param {
    lr_mult: 2
    decay_mult: 0
  }
  convolution_param {
    num_output: 256
    pad: 1
    kernel_size: 3
    engine: CAFFE
  }
}
layer {
  name: "relu3_3"
  type: "ReLU"
  bottom: "conv3_3"
  top: "conv3_3"
}
layer {
  name: "pool3"
  type: "Pooling"
  bottom: "conv3_3"
  top: "pool3"
  pooling_param {
    pool: MAX
    kernel_size: 2
    stride: 2
  }
}
layer {
  name: "conv4_1"
  type: "Convolution"
  bottom: "pool3"
  top: "conv4_1"
  param {
    lr_mult: 1
    decay_mult: 1
  }
  param {
    lr_mult: 2
    decay_mult: 0
  }
  convolution_param {
    num_output: 512
    pad: 1
    kernel_size: 3
    engine: CAFFE
  }
}
layer {
  name: "relu4_1"
  type: "ReLU"
  bottom: "conv4_1"
  top: "conv4_1"
}
layer {
  name: "conv4_2"
  type: "Convolution"
  bottom: "conv4_1"
  top: "conv4_2"
  param {
    lr_mult: 1
    decay_mult: 1
  }
  param {
    lr_mult: 2
    decay_mult: 0
  }
  convolution_param {
    num_output: 512
    pad: 1
    kernel_size: 3
    engine: CAFFE
  }
}
layer {
  name: "relu4_2"
  type: "ReLU"
  bottom: "conv4_2"
  top: "conv4_2"
}
layer {
  name: "conv4_3"
  type: "Convolution"
  bottom: "conv4_2"
  top: "conv4_3"
  param {
    lr_mult: 1
    decay_mult: 1
  }
  param {
    lr_mult: 2
    decay_mult: 0
  }
  convolution_param {
    num_output: 512
    pad: 1
    kernel_size: 3
    engine: CAFFE
  }
}
layer {
  name: "relu4_3"
  type: "ReLU"
  bottom: "conv4_3"
  top: "conv4_3"
}
layer {
  name: "pool4"
  type: "Pooling"
  bottom: "conv4_3"
  top: "pool4"
  pooling_param {
    pool: MAX
    kernel_size: 2
    stride: 2
  }
}
layer {
  name: "conv5_1"
  type: "Convolution"
  bottom: "pool4"
  top: "conv5_1"
  param {
    lr_mult: 1
    decay_mult: 1
  }
  param {
    lr_mult: 2
    decay_mult: 0
  }
  convolution_param {
    num_output: 512
    pad: 1
    kernel_size: 3
    engine: CAFFE
  }
}
layer {
  name: "relu5_1"
  type: "ReLU"
  bottom: "conv5_1"
  top: "conv5_1"
}
layer {
  name: "conv5_2"
  type: "Convolution"
  bottom: "conv5_1"
  top: "conv5_2"
  param {
    lr_mult: 1
    decay_mult: 1
  }
  param {
    lr_mult: 2
    decay_mult: 0
  }
  convolution_param {
    num_output: 512
    pad: 1
    kernel_size: 3
    engine: CAFFE
  }
}
layer {
  name: "relu5_2"
  type: "ReLU"
  bottom: "conv5_2"
  top: "conv5_2"
}
layer {
  name: "conv5_3"
  type: "Convolution"
  bottom: "conv5_2"
  top: "conv5_3"
  param {
    lr_mult: 1
    decay_mult: 1
  }
  param {
    lr_mult: 2
    decay_mult: 0
  }
  convolution_param {
    num_output: 512
    pad: 1
    kernel_size: 3
    engine: CAFFE
  }
}
layer {
  name: "relu5_3"
  type: "ReLU"
  bottom: "conv5_3"
  top: "conv5_3"
}
layer {
  name: "pool5"
  type: "Pooling"
  bottom: "conv5_3"
  top: "pool5"
  pooling_param {
    pool: MAX
    kernel_size: 2
    stride: 2
  }
}
layer {
  name: "fc6"
  type: "Convolution"
  bottom: "pool5"
  top: "fc6"
  param {
    lr_mult: 1
    decay_mult: 1
  }
  param {
    lr_mult: 2
    decay_mult: 0
  }
  convolution_param {
    num_output: 4096
    kernel_size: 7
    engine: CAFFE
  }
}
layer {
  name: "relu6"
  type: "ReLU"
  bottom: "fc6"
  top: "fc6"
}
layer {
  name: "drop6"
  type: "Dropout"
  bottom: "fc6"
  top: "fc6"
  dropout_param {
    dropout_ratio: 0.5
  }
}
layer {
  name: "fc7"
  type: "Convolution"
  bottom: "fc6"
  top: "fc7"
  param {
    lr_mult: 1
    decay_mult: 1
  }
  param {
    lr_mult: 2
    decay_mult: 0
  }
  convolution_param {
    num_output: 4096
    kernel_size: 1
    engine: CAFFE
  }
}
layer {
  name: "relu7"
  type: "ReLU"
  bottom: "fc7"
  top: "fc7"
}
layer {
  name: "drop7"
  type: "Dropout"
  bottom: "fc7"
  top: "fc7"
  dropout_param {
    dropout_ratio: 0.5
  }
}
layer {
  name: "score-fr"
  type: "Convolution"
  bottom: "fc7"
  top: "score"
  param {
    lr_mult: 1
    decay_mult: 1
  }
  param {
    lr_mult: 2
    decay_mult: 0
  }
  convolution_param {
    num_output: 2
    kernel_size: 1
    engine: CAFFE
  }
}
layer {
  name: "score2"
  type: "Deconvolution"
  bottom: "score"
  top: "score2"
  param {
    lr_mult: 1
    decay_mult: 1
  }
  param {
    lr_mult: 2
    decay_mult: 0
  }
  convolution_param {
    num_output: 2
    kernel_size: 4
    stride: 2
  }
}
layer {
  name: "score-pool4"
  type: "Convolution"
  bottom: "pool4"
  top: "score-pool4"
  param {
    lr_mult: 1
    decay_mult: 1
  }
  param {
    lr_mult: 2
    decay_mult: 0
  }
  convolution_param {
    num_output: 2
    kernel_size: 1
    engine: CAFFE
  }
}
layer {
  name: "crop"
  type: "Crop"
  bottom: "score-pool4"
  bottom: "score2"
  top: "score-pool4c"
}
layer {
  name: "fuse"
  type: "Eltwise"
  bottom: "score2"
  bottom: "score-pool4c"
  top: "score-fused"
  eltwise_param {
    operation: SUM
  }
}
layer {
  name: "score4"
  type: "Deconvolution"
  bottom: "score-fused"
  top: "score4"
  param {
    lr_mult: 1
    decay_mult: 1
  }
  convolution_param {
    num_output: 2
    bias_term: false
    kernel_size: 4
    stride: 2
  }
}
layer {
  name: "score-pool3"
  type: "Convolution"
  bottom: "pool3"
  top: "score-pool3"
  param {
    lr_mult: 1
    decay_mult: 1
  }
  param {
    lr_mult: 2
    decay_mult: 0
  }
  convolution_param {
    num_output: 2
    kernel_size: 1
    engine: CAFFE
  }
}
layer {
  name: "crop"
  type: "Crop"
  bottom: "score-pool3"
  bottom: "score4"
  top: "score-pool3c"
}
layer {
  name: "fuse"
  type: "Eltwise"
  bottom: "score4"
  bottom: "score-pool3c"
  top: "score-final"
  eltwise_param {
    operation: SUM
  }
}
layer {
  name: "upsample"
  type: "Deconvolution"
  bottom: "score-final"
  top: "bigscore"
  param {
    lr_mult: 1
  }
  convolution_param {
    num_output: 2
    bias_term: false
    kernel_size: 16
    stride: 8
  }
}
layer {
  name: "crop"
  type: "Crop"
  bottom: "bigscore"
  bottom: "data"
  top: "upscore"
}
layer {
  name: "loss"
  type: "SoftmaxWithLoss"
  bottom: "upscore"
  bottom: "label"
  top: "loss"
  loss_param {
    ignore_label: 255
  }
}
I0817 22:29:57.401347  2641 layer_factory.hpp:74] Creating layer data
I0817 22:29:57.401389  2641 net.cpp:85] Creating Layer data
I0817 22:29:57.401404  2641 net.cpp:339] data -> data
I0817 22:29:57.401433  2641 net.cpp:339] data -> label
I0817 22:29:57.401456  2641 net.cpp:339] data -> (automatic)
I0817 22:29:57.401469  2641 net.cpp:114] Setting up data
I0817 22:29:57.402357  2641 image_seg_data_layer.cpp:46] Opening file /media/BigDisk/xiaoyong/datafrommac/ourfacedata_train_2/traindatalist_2_new.txt
I0817 22:29:57.406896  2641 image_seg_data_layer.cpp:63] Shuffling data
I0817 22:29:57.407378  2641 image_seg_data_layer.cpp:68] A total of 1532 images.
I0817 22:29:57.437639  2641 image_seg_data_layer.cpp:114] output data size: 1,3,388,388
I0817 22:29:57.437664  2641 image_seg_data_layer.cpp:118] output label size: 1,1,388,388
I0817 22:29:57.437674  2641 image_seg_data_layer.cpp:122] output data_dim size: 1,1,1,2
I0817 22:29:57.438662  2641 net.cpp:121] Top shape: 1 3 388 388 (451632)
I0817 22:29:57.438679  2641 net.cpp:121] Top shape: 1 1 388 388 (150544)
I0817 22:29:57.438688  2641 net.cpp:121] Top shape: 1 1 1 2 (2)
I0817 22:29:57.438696  2641 layer_factory.hpp:74] Creating layer data_data_0_split
I0817 22:29:57.438709  2641 net.cpp:85] Creating Layer data_data_0_split
I0817 22:29:57.438719  2641 net.cpp:381] data_data_0_split <- data
I0817 22:29:57.438740  2641 net.cpp:339] data_data_0_split -> data_data_0_split_0
I0817 22:29:57.438758  2641 net.cpp:339] data_data_0_split -> data_data_0_split_1
I0817 22:29:57.438781  2641 net.cpp:114] Setting up data_data_0_split
I0817 22:29:57.438802  2641 net.cpp:121] Top shape: 1 3 388 388 (451632)
I0817 22:29:57.438818  2641 net.cpp:121] Top shape: 1 3 388 388 (451632)
I0817 22:29:57.438832  2641 layer_factory.hpp:74] Creating layer conv1_1
I0817 22:29:57.438850  2641 net.cpp:85] Creating Layer conv1_1
I0817 22:29:57.438863  2641 net.cpp:381] conv1_1 <- data_data_0_split_0
I0817 22:29:57.438879  2641 net.cpp:339] conv1_1 -> conv1_1
I0817 22:29:57.438921  2641 net.cpp:114] Setting up conv1_1
I0817 22:29:57.440393  2641 net.cpp:121] Top shape: 1 64 586 586 (21977344)
I0817 22:29:57.440421  2641 layer_factory.hpp:74] Creating layer relu1_1
I0817 22:29:57.440434  2641 net.cpp:85] Creating Layer relu1_1
I0817 22:29:57.440443  2641 net.cpp:381] relu1_1 <- conv1_1
I0817 22:29:57.440457  2641 net.cpp:328] relu1_1 -> conv1_1 (in-place)
I0817 22:29:57.440471  2641 net.cpp:114] Setting up relu1_1
I0817 22:29:57.440485  2641 net.cpp:121] Top shape: 1 64 586 586 (21977344)
I0817 22:29:57.440495  2641 layer_factory.hpp:74] Creating layer conv1_2
I0817 22:29:57.440518  2641 net.cpp:85] Creating Layer conv1_2
I0817 22:29:57.440528  2641 net.cpp:381] conv1_2 <- conv1_1
I0817 22:29:57.440543  2641 net.cpp:339] conv1_2 -> conv1_2
I0817 22:29:57.440563  2641 net.cpp:114] Setting up conv1_2
I0817 22:29:57.441836  2641 net.cpp:121] Top shape: 1 64 586 586 (21977344)
I0817 22:29:57.441860  2641 layer_factory.hpp:74] Creating layer relu1_2
I0817 22:29:57.441877  2641 net.cpp:85] Creating Layer relu1_2
I0817 22:29:57.441890  2641 net.cpp:381] relu1_2 <- conv1_2
I0817 22:29:57.441908  2641 net.cpp:328] relu1_2 -> conv1_2 (in-place)
I0817 22:29:57.441926  2641 net.cpp:114] Setting up relu1_2
I0817 22:29:57.441942  2641 net.cpp:121] Top shape: 1 64 586 586 (21977344)
I0817 22:29:57.441956  2641 layer_factory.hpp:74] Creating layer pool1
I0817 22:29:57.441969  2641 net.cpp:85] Creating Layer pool1
I0817 22:29:57.441980  2641 net.cpp:381] pool1 <- conv1_2
I0817 22:29:57.441997  2641 net.cpp:339] pool1 -> pool1
I0817 22:29:57.442013  2641 net.cpp:114] Setting up pool1
I0817 22:29:57.442056  2641 net.cpp:121] Top shape: 1 64 293 293 (5494336)
I0817 22:29:57.442070  2641 layer_factory.hpp:74] Creating layer conv2_1
I0817 22:29:57.442088  2641 net.cpp:85] Creating Layer conv2_1
I0817 22:29:57.442102  2641 net.cpp:381] conv2_1 <- pool1
I0817 22:29:57.442117  2641 net.cpp:339] conv2_1 -> conv2_1
I0817 22:29:57.442142  2641 net.cpp:114] Setting up conv2_1
I0817 22:29:57.444593  2641 net.cpp:121] Top shape: 1 128 293 293 (10988672)
I0817 22:29:57.444632  2641 layer_factory.hpp:74] Creating layer relu2_1
I0817 22:29:57.444651  2641 net.cpp:85] Creating Layer relu2_1
I0817 22:29:57.444660  2641 net.cpp:381] relu2_1 <- conv2_1
I0817 22:29:57.444679  2641 net.cpp:328] relu2_1 -> conv2_1 (in-place)
I0817 22:29:57.444696  2641 net.cpp:114] Setting up relu2_1
I0817 22:29:57.444713  2641 net.cpp:121] Top shape: 1 128 293 293 (10988672)
I0817 22:29:57.444725  2641 layer_factory.hpp:74] Creating layer conv2_2
I0817 22:29:57.444741  2641 net.cpp:85] Creating Layer conv2_2
I0817 22:29:57.444753  2641 net.cpp:381] conv2_2 <- conv2_1
I0817 22:29:57.444772  2641 net.cpp:339] conv2_2 -> conv2_2
I0817 22:29:57.444792  2641 net.cpp:114] Setting up conv2_2
I0817 22:29:57.448887  2641 net.cpp:121] Top shape: 1 128 293 293 (10988672)
I0817 22:29:57.448922  2641 layer_factory.hpp:74] Creating layer relu2_2
I0817 22:29:57.448938  2641 net.cpp:85] Creating Layer relu2_2
I0817 22:29:57.448947  2641 net.cpp:381] relu2_2 <- conv2_2
I0817 22:29:57.448961  2641 net.cpp:328] relu2_2 -> conv2_2 (in-place)
I0817 22:29:57.448978  2641 net.cpp:114] Setting up relu2_2
I0817 22:29:57.448993  2641 net.cpp:121] Top shape: 1 128 293 293 (10988672)
I0817 22:29:57.449005  2641 layer_factory.hpp:74] Creating layer pool2
I0817 22:29:57.449025  2641 net.cpp:85] Creating Layer pool2
I0817 22:29:57.449036  2641 net.cpp:381] pool2 <- conv2_2
I0817 22:29:57.449049  2641 net.cpp:339] pool2 -> pool2
I0817 22:29:57.449069  2641 net.cpp:114] Setting up pool2
I0817 22:29:57.449093  2641 net.cpp:121] Top shape: 1 128 147 147 (2765952)
I0817 22:29:57.449105  2641 layer_factory.hpp:74] Creating layer conv3_1
I0817 22:29:57.449121  2641 net.cpp:85] Creating Layer conv3_1
I0817 22:29:57.449132  2641 net.cpp:381] conv3_1 <- pool2
I0817 22:29:57.449146  2641 net.cpp:339] conv3_1 -> conv3_1
I0817 22:29:57.449163  2641 net.cpp:114] Setting up conv3_1
I0817 22:29:57.450114  2641 net.cpp:121] Top shape: 1 256 147 147 (5531904)
I0817 22:29:57.450160  2641 layer_factory.hpp:74] Creating layer relu3_1
I0817 22:29:57.450173  2641 net.cpp:85] Creating Layer relu3_1
I0817 22:29:57.450182  2641 net.cpp:381] relu3_1 <- conv3_1
I0817 22:29:57.450196  2641 net.cpp:328] relu3_1 -> conv3_1 (in-place)
I0817 22:29:57.450212  2641 net.cpp:114] Setting up relu3_1
I0817 22:29:57.450228  2641 net.cpp:121] Top shape: 1 256 147 147 (5531904)
I0817 22:29:57.450240  2641 layer_factory.hpp:74] Creating layer conv3_2
I0817 22:29:57.450259  2641 net.cpp:85] Creating Layer conv3_2
I0817 22:29:57.450270  2641 net.cpp:381] conv3_2 <- conv3_1
I0817 22:29:57.450285  2641 net.cpp:339] conv3_2 -> conv3_2
I0817 22:29:57.450302  2641 net.cpp:114] Setting up conv3_2
I0817 22:29:57.452088  2641 net.cpp:121] Top shape: 1 256 147 147 (5531904)
I0817 22:29:57.452126  2641 layer_factory.hpp:74] Creating layer relu3_2
I0817 22:29:57.452143  2641 net.cpp:85] Creating Layer relu3_2
I0817 22:29:57.452157  2641 net.cpp:381] relu3_2 <- conv3_2
I0817 22:29:57.452169  2641 net.cpp:328] relu3_2 -> conv3_2 (in-place)
I0817 22:29:57.452184  2641 net.cpp:114] Setting up relu3_2
I0817 22:29:57.452200  2641 net.cpp:121] Top shape: 1 256 147 147 (5531904)
I0817 22:29:57.452213  2641 layer_factory.hpp:74] Creating layer conv3_3
I0817 22:29:57.452234  2641 net.cpp:85] Creating Layer conv3_3
I0817 22:29:57.452245  2641 net.cpp:381] conv3_3 <- conv3_2
I0817 22:29:57.452260  2641 net.cpp:339] conv3_3 -> conv3_3
I0817 22:29:57.452276  2641 net.cpp:114] Setting up conv3_3
I0817 22:29:57.457646  2641 net.cpp:121] Top shape: 1 256 147 147 (5531904)
I0817 22:29:57.457684  2641 layer_factory.hpp:74] Creating layer relu3_3
I0817 22:29:57.457700  2641 net.cpp:85] Creating Layer relu3_3
I0817 22:29:57.457710  2641 net.cpp:381] relu3_3 <- conv3_3
I0817 22:29:57.457723  2641 net.cpp:328] relu3_3 -> conv3_3 (in-place)
I0817 22:29:57.457738  2641 net.cpp:114] Setting up relu3_3
I0817 22:29:57.457753  2641 net.cpp:121] Top shape: 1 256 147 147 (5531904)
I0817 22:29:57.457767  2641 layer_factory.hpp:74] Creating layer pool3
I0817 22:29:57.457780  2641 net.cpp:85] Creating Layer pool3
I0817 22:29:57.457792  2641 net.cpp:381] pool3 <- conv3_3
I0817 22:29:57.457803  2641 net.cpp:339] pool3 -> pool3
I0817 22:29:57.457824  2641 net.cpp:114] Setting up pool3
I0817 22:29:57.457846  2641 net.cpp:121] Top shape: 1 256 74 74 (1401856)
I0817 22:29:57.457859  2641 layer_factory.hpp:74] Creating layer pool3_pool3_0_split
I0817 22:29:57.458112  2641 net.cpp:85] Creating Layer pool3_pool3_0_split
I0817 22:29:57.458125  2641 net.cpp:381] pool3_pool3_0_split <- pool3
I0817 22:29:57.458137  2641 net.cpp:339] pool3_pool3_0_split -> pool3_pool3_0_split_0
I0817 22:29:57.458159  2641 net.cpp:339] pool3_pool3_0_split -> pool3_pool3_0_split_1
I0817 22:29:57.458179  2641 net.cpp:114] Setting up pool3_pool3_0_split
I0817 22:29:57.458199  2641 net.cpp:121] Top shape: 1 256 74 74 (1401856)
I0817 22:29:57.458214  2641 net.cpp:121] Top shape: 1 256 74 74 (1401856)
I0817 22:29:57.458225  2641 layer_factory.hpp:74] Creating layer conv4_1
I0817 22:29:57.458242  2641 net.cpp:85] Creating Layer conv4_1
I0817 22:29:57.458253  2641 net.cpp:381] conv4_1 <- pool3_pool3_0_split_0
I0817 22:29:57.458271  2641 net.cpp:339] conv4_1 -> conv4_1
I0817 22:29:57.458292  2641 net.cpp:114] Setting up conv4_1
I0817 22:29:57.461175  2641 net.cpp:121] Top shape: 1 512 74 74 (2803712)
I0817 22:29:57.461196  2641 layer_factory.hpp:74] Creating layer relu4_1
I0817 22:29:57.461210  2641 net.cpp:85] Creating Layer relu4_1
I0817 22:29:57.461217  2641 net.cpp:381] relu4_1 <- conv4_1
I0817 22:29:57.461230  2641 net.cpp:328] relu4_1 -> conv4_1 (in-place)
I0817 22:29:57.461246  2641 net.cpp:114] Setting up relu4_1
I0817 22:29:57.461262  2641 net.cpp:121] Top shape: 1 512 74 74 (2803712)
I0817 22:29:57.461273  2641 layer_factory.hpp:74] Creating layer conv4_2
I0817 22:29:57.461287  2641 net.cpp:85] Creating Layer conv4_2
I0817 22:29:57.461299  2641 net.cpp:381] conv4_2 <- conv4_1
I0817 22:29:57.461314  2641 net.cpp:339] conv4_2 -> conv4_2
I0817 22:29:57.461331  2641 net.cpp:114] Setting up conv4_2
I0817 22:29:57.498788  2641 net.cpp:121] Top shape: 1 512 74 74 (2803712)
I0817 22:29:57.498831  2641 layer_factory.hpp:74] Creating layer relu4_2
I0817 22:29:57.498845  2641 net.cpp:85] Creating Layer relu4_2
I0817 22:29:57.498852  2641 net.cpp:381] relu4_2 <- conv4_2
I0817 22:29:57.498862  2641 net.cpp:328] relu4_2 -> conv4_2 (in-place)
I0817 22:29:57.498875  2641 net.cpp:114] Setting up relu4_2
I0817 22:29:57.498885  2641 net.cpp:121] Top shape: 1 512 74 74 (2803712)
I0817 22:29:57.500463  2641 layer_factory.hpp:74] Creating layer conv4_3
I0817 22:29:57.500530  2641 net.cpp:85] Creating Layer conv4_3
I0817 22:29:57.500545  2641 net.cpp:381] conv4_3 <- conv4_2
I0817 22:29:57.500563  2641 net.cpp:339] conv4_3 -> conv4_3
I0817 22:29:57.500583  2641 net.cpp:114] Setting up conv4_3
I0817 22:29:57.554780  2641 net.cpp:121] Top shape: 1 512 74 74 (2803712)
I0817 22:29:57.554811  2641 layer_factory.hpp:74] Creating layer relu4_3
I0817 22:29:57.554826  2641 net.cpp:85] Creating Layer relu4_3
I0817 22:29:57.554832  2641 net.cpp:381] relu4_3 <- conv4_3
I0817 22:29:57.554841  2641 net.cpp:328] relu4_3 -> conv4_3 (in-place)
I0817 22:29:57.554849  2641 net.cpp:114] Setting up relu4_3
I0817 22:29:57.554858  2641 net.cpp:121] Top shape: 1 512 74 74 (2803712)
I0817 22:29:57.554864  2641 layer_factory.hpp:74] Creating layer pool4
I0817 22:29:57.554874  2641 net.cpp:85] Creating Layer pool4
I0817 22:29:57.554882  2641 net.cpp:381] pool4 <- conv4_3
I0817 22:29:57.554891  2641 net.cpp:339] pool4 -> pool4
I0817 22:29:57.554901  2641 net.cpp:114] Setting up pool4
I0817 22:29:57.554915  2641 net.cpp:121] Top shape: 1 512 37 37 (700928)
I0817 22:29:57.554922  2641 layer_factory.hpp:74] Creating layer pool4_pool4_0_split
I0817 22:29:57.554932  2641 net.cpp:85] Creating Layer pool4_pool4_0_split
I0817 22:29:57.554939  2641 net.cpp:381] pool4_pool4_0_split <- pool4
I0817 22:29:57.554951  2641 net.cpp:339] pool4_pool4_0_split -> pool4_pool4_0_split_0
I0817 22:29:57.554967  2641 net.cpp:339] pool4_pool4_0_split -> pool4_pool4_0_split_1
I0817 22:29:57.554978  2641 net.cpp:114] Setting up pool4_pool4_0_split
I0817 22:29:57.554991  2641 net.cpp:121] Top shape: 1 512 37 37 (700928)
I0817 22:29:57.555001  2641 net.cpp:121] Top shape: 1 512 37 37 (700928)
I0817 22:29:57.555011  2641 layer_factory.hpp:74] Creating layer conv5_1
I0817 22:29:57.555023  2641 net.cpp:85] Creating Layer conv5_1
I0817 22:29:57.555032  2641 net.cpp:381] conv5_1 <- pool4_pool4_0_split_0
I0817 22:29:57.555045  2641 net.cpp:339] conv5_1 -> conv5_1
I0817 22:29:57.555059  2641 net.cpp:114] Setting up conv5_1
I0817 22:29:57.604908  2641 net.cpp:121] Top shape: 1 512 37 37 (700928)
I0817 22:29:57.604939  2641 layer_factory.hpp:74] Creating layer relu5_1
I0817 22:29:57.604951  2641 net.cpp:85] Creating Layer relu5_1
I0817 22:29:57.604957  2641 net.cpp:381] relu5_1 <- conv5_1
I0817 22:29:57.604970  2641 net.cpp:328] relu5_1 -> conv5_1 (in-place)
I0817 22:29:57.604980  2641 net.cpp:114] Setting up relu5_1
I0817 22:29:57.604990  2641 net.cpp:121] Top shape: 1 512 37 37 (700928)
I0817 22:29:57.604995  2641 layer_factory.hpp:74] Creating layer conv5_2
I0817 22:29:57.605005  2641 net.cpp:85] Creating Layer conv5_2
I0817 22:29:57.605010  2641 net.cpp:381] conv5_2 <- conv5_1
I0817 22:29:57.605022  2641 net.cpp:339] conv5_2 -> conv5_2
I0817 22:29:57.605034  2641 net.cpp:114] Setting up conv5_2
I0817 22:29:57.628022  2641 net.cpp:121] Top shape: 1 512 37 37 (700928)
I0817 22:29:57.628053  2641 layer_factory.hpp:74] Creating layer relu5_2
I0817 22:29:57.628064  2641 net.cpp:85] Creating Layer relu5_2
I0817 22:29:57.628070  2641 net.cpp:381] relu5_2 <- conv5_2
I0817 22:29:57.628077  2641 net.cpp:328] relu5_2 -> conv5_2 (in-place)
I0817 22:29:57.628087  2641 net.cpp:114] Setting up relu5_2
I0817 22:29:57.628094  2641 net.cpp:121] Top shape: 1 512 37 37 (700928)
I0817 22:29:57.628099  2641 layer_factory.hpp:74] Creating layer conv5_3
I0817 22:29:57.628135  2641 net.cpp:85] Creating Layer conv5_3
I0817 22:29:57.628141  2641 net.cpp:381] conv5_3 <- conv5_2
I0817 22:29:57.628150  2641 net.cpp:339] conv5_3 -> conv5_3
I0817 22:29:57.628195  2641 net.cpp:114] Setting up conv5_3
I0817 22:29:57.673084  2641 net.cpp:121] Top shape: 1 512 37 37 (700928)
I0817 22:29:57.673110  2641 layer_factory.hpp:74] Creating layer relu5_3
I0817 22:29:57.673121  2641 net.cpp:85] Creating Layer relu5_3
I0817 22:29:57.673126  2641 net.cpp:381] relu5_3 <- conv5_3
I0817 22:29:57.673133  2641 net.cpp:328] relu5_3 -> conv5_3 (in-place)
I0817 22:29:57.673141  2641 net.cpp:114] Setting up relu5_3
I0817 22:29:57.673146  2641 net.cpp:121] Top shape: 1 512 37 37 (700928)
I0817 22:29:57.673149  2641 layer_factory.hpp:74] Creating layer pool5
I0817 22:29:57.673159  2641 net.cpp:85] Creating Layer pool5
I0817 22:29:57.673164  2641 net.cpp:381] pool5 <- conv5_3
I0817 22:29:57.673171  2641 net.cpp:339] pool5 -> pool5
I0817 22:29:57.673180  2641 net.cpp:114] Setting up pool5
I0817 22:29:57.673189  2641 net.cpp:121] Top shape: 1 512 19 19 (184832)
I0817 22:29:57.673194  2641 layer_factory.hpp:74] Creating layer fc6
I0817 22:29:57.673204  2641 net.cpp:85] Creating Layer fc6
I0817 22:29:57.673209  2641 net.cpp:381] fc6 <- pool5
I0817 22:29:57.673218  2641 net.cpp:339] fc6 -> fc6
I0817 22:29:57.673225  2641 net.cpp:114] Setting up fc6
I0817 22:29:59.319607  2641 net.cpp:121] Top shape: 1 4096 13 13 (692224)
I0817 22:29:59.319633  2641 layer_factory.hpp:74] Creating layer relu6
I0817 22:29:59.319643  2641 net.cpp:85] Creating Layer relu6
I0817 22:29:59.319648  2641 net.cpp:381] relu6 <- fc6
I0817 22:29:59.319655  2641 net.cpp:328] relu6 -> fc6 (in-place)
I0817 22:29:59.319664  2641 net.cpp:114] Setting up relu6
I0817 22:29:59.319669  2641 net.cpp:121] Top shape: 1 4096 13 13 (692224)
I0817 22:29:59.319674  2641 layer_factory.hpp:74] Creating layer drop6
I0817 22:29:59.319686  2641 net.cpp:85] Creating Layer drop6
I0817 22:29:59.319690  2641 net.cpp:381] drop6 <- fc6
I0817 22:29:59.319694  2641 net.cpp:328] drop6 -> fc6 (in-place)
I0817 22:29:59.319700  2641 net.cpp:114] Setting up drop6
I0817 22:29:59.319706  2641 net.cpp:121] Top shape: 1 4096 13 13 (692224)
I0817 22:29:59.319710  2641 layer_factory.hpp:74] Creating layer fc7
I0817 22:29:59.319717  2641 net.cpp:85] Creating Layer fc7
I0817 22:29:59.319721  2641 net.cpp:381] fc7 <- fc6
I0817 22:29:59.319725  2641 net.cpp:339] fc7 -> fc7
I0817 22:29:59.319731  2641 net.cpp:114] Setting up fc7
I0817 22:29:59.558501  2641 net.cpp:121] Top shape: 1 4096 13 13 (692224)
I0817 22:29:59.558528  2641 layer_factory.hpp:74] Creating layer relu7
I0817 22:29:59.558537  2641 net.cpp:85] Creating Layer relu7
I0817 22:29:59.558542  2641 net.cpp:381] relu7 <- fc7
I0817 22:29:59.558548  2641 net.cpp:328] relu7 -> fc7 (in-place)
I0817 22:29:59.558555  2641 net.cpp:114] Setting up relu7
I0817 22:29:59.558560  2641 net.cpp:121] Top shape: 1 4096 13 13 (692224)
I0817 22:29:59.558563  2641 layer_factory.hpp:74] Creating layer drop7
I0817 22:29:59.558570  2641 net.cpp:85] Creating Layer drop7
I0817 22:29:59.558574  2641 net.cpp:381] drop7 <- fc7
I0817 22:29:59.558578  2641 net.cpp:328] drop7 -> fc7 (in-place)
I0817 22:29:59.558583  2641 net.cpp:114] Setting up drop7
I0817 22:29:59.558599  2641 net.cpp:121] Top shape: 1 4096 13 13 (692224)
I0817 22:29:59.558603  2641 layer_factory.hpp:74] Creating layer score-fr
I0817 22:29:59.558609  2641 net.cpp:85] Creating Layer score-fr
I0817 22:29:59.558612  2641 net.cpp:381] score-fr <- fc7
I0817 22:29:59.558617  2641 net.cpp:339] score-fr -> score
I0817 22:29:59.558624  2641 net.cpp:114] Setting up score-fr
I0817 22:29:59.558641  2641 net.cpp:121] Top shape: 1 2 13 13 (338)
I0817 22:29:59.558647  2641 layer_factory.hpp:74] Creating layer score2
I0817 22:29:59.558655  2641 net.cpp:85] Creating Layer score2
I0817 22:29:59.558657  2641 net.cpp:381] score2 <- score
I0817 22:29:59.558662  2641 net.cpp:339] score2 -> score2
I0817 22:29:59.558667  2641 net.cpp:114] Setting up score2
I0817 22:29:59.558677  2641 net.cpp:121] Top shape: 1 2 28 28 (1568)
I0817 22:29:59.558687  2641 layer_factory.hpp:74] Creating layer score2_score2_0_split
I0817 22:29:59.558692  2641 net.cpp:85] Creating Layer score2_score2_0_split
I0817 22:29:59.558714  2641 net.cpp:381] score2_score2_0_split <- score2
I0817 22:29:59.558720  2641 net.cpp:339] score2_score2_0_split -> score2_score2_0_split_0
I0817 22:29:59.558727  2641 net.cpp:339] score2_score2_0_split -> score2_score2_0_split_1
I0817 22:29:59.558734  2641 net.cpp:114] Setting up score2_score2_0_split
I0817 22:29:59.558739  2641 net.cpp:121] Top shape: 1 2 28 28 (1568)
I0817 22:29:59.558744  2641 net.cpp:121] Top shape: 1 2 28 28 (1568)
I0817 22:29:59.558748  2641 layer_factory.hpp:74] Creating layer score-pool4
I0817 22:29:59.558753  2641 net.cpp:85] Creating Layer score-pool4
I0817 22:29:59.558756  2641 net.cpp:381] score-pool4 <- pool4_pool4_0_split_1
I0817 22:29:59.558763  2641 net.cpp:339] score-pool4 -> score-pool4
I0817 22:29:59.558768  2641 net.cpp:114] Setting up score-pool4
I0817 22:29:59.558780  2641 net.cpp:121] Top shape: 1 2 37 37 (2738)
I0817 22:29:59.558785  2641 layer_factory.hpp:74] Creating layer crop
I0817 22:29:59.558796  2641 net.cpp:85] Creating Layer crop
I0817 22:29:59.558800  2641 net.cpp:381] crop <- score-pool4
I0817 22:29:59.558804  2641 net.cpp:381] crop <- score2_score2_0_split_0
I0817 22:29:59.558820  2641 net.cpp:339] crop -> score-pool4c
I0817 22:29:59.558825  2641 net.cpp:114] Setting up crop
I0817 22:29:59.558873  2641 net.cpp:121] Top shape: 1 2 28 28 (1568)
I0817 22:29:59.558877  2641 layer_factory.hpp:74] Creating layer fuse
I0817 22:29:59.558883  2641 net.cpp:85] Creating Layer fuse
I0817 22:29:59.558887  2641 net.cpp:381] fuse <- score2_score2_0_split_1
I0817 22:29:59.558892  2641 net.cpp:381] fuse <- score-pool4c
I0817 22:29:59.558897  2641 net.cpp:339] fuse -> score-fused
I0817 22:29:59.558902  2641 net.cpp:114] Setting up fuse
I0817 22:29:59.558907  2641 net.cpp:121] Top shape: 1 2 28 28 (1568)
I0817 22:29:59.558910  2641 layer_factory.hpp:74] Creating layer score4
I0817 22:29:59.558915  2641 net.cpp:85] Creating Layer score4
I0817 22:29:59.558918  2641 net.cpp:381] score4 <- score-fused
I0817 22:29:59.558923  2641 net.cpp:339] score4 -> score4
I0817 22:29:59.558928  2641 net.cpp:114] Setting up score4
I0817 22:29:59.558936  2641 net.cpp:121] Top shape: 1 2 58 58 (6728)
I0817 22:29:59.558940  2641 layer_factory.hpp:74] Creating layer score4_score4_0_split
I0817 22:29:59.558945  2641 net.cpp:85] Creating Layer score4_score4_0_split
I0817 22:29:59.558948  2641 net.cpp:381] score4_score4_0_split <- score4
I0817 22:29:59.558953  2641 net.cpp:339] score4_score4_0_split -> score4_score4_0_split_0
I0817 22:29:59.558958  2641 net.cpp:339] score4_score4_0_split -> score4_score4_0_split_1
I0817 22:29:59.558962  2641 net.cpp:114] Setting up score4_score4_0_split
I0817 22:29:59.558967  2641 net.cpp:121] Top shape: 1 2 58 58 (6728)
I0817 22:29:59.558971  2641 net.cpp:121] Top shape: 1 2 58 58 (6728)
I0817 22:29:59.558974  2641 layer_factory.hpp:74] Creating layer score-pool3
I0817 22:29:59.558979  2641 net.cpp:85] Creating Layer score-pool3
I0817 22:29:59.558984  2641 net.cpp:381] score-pool3 <- pool3_pool3_0_split_1
I0817 22:29:59.558990  2641 net.cpp:339] score-pool3 -> score-pool3
I0817 22:29:59.558995  2641 net.cpp:114] Setting up score-pool3
I0817 22:29:59.559007  2641 net.cpp:121] Top shape: 1 2 74 74 (10952)
I0817 22:29:59.559013  2641 layer_factory.hpp:74] Creating layer crop
I0817 22:29:59.559018  2641 net.cpp:85] Creating Layer crop
I0817 22:29:59.559021  2641 net.cpp:381] crop <- score-pool3
I0817 22:29:59.559026  2641 net.cpp:381] crop <- score4_score4_0_split_0
I0817 22:29:59.559029  2641 net.cpp:339] crop -> score-pool3c
I0817 22:29:59.559034  2641 net.cpp:114] Setting up crop
I0817 22:29:59.559068  2641 net.cpp:121] Top shape: 1 2 58 58 (6728)
I0817 22:29:59.559072  2641 layer_factory.hpp:74] Creating layer fuse
I0817 22:29:59.559077  2641 net.cpp:85] Creating Layer fuse
I0817 22:29:59.559080  2641 net.cpp:381] fuse <- score4_score4_0_split_1
I0817 22:29:59.559084  2641 net.cpp:381] fuse <- score-pool3c
I0817 22:29:59.559089  2641 net.cpp:339] fuse -> score-final
I0817 22:29:59.559093  2641 net.cpp:114] Setting up fuse
I0817 22:29:59.559098  2641 net.cpp:121] Top shape: 1 2 58 58 (6728)
I0817 22:29:59.559110  2641 layer_factory.hpp:74] Creating layer upsample
I0817 22:29:59.559115  2641 net.cpp:85] Creating Layer upsample
I0817 22:29:59.559119  2641 net.cpp:381] upsample <- score-final
I0817 22:29:59.559124  2641 net.cpp:339] upsample -> bigscore
I0817 22:29:59.559128  2641 net.cpp:114] Setting up upsample
I0817 22:29:59.559139  2641 net.cpp:121] Top shape: 1 2 472 472 (445568)
I0817 22:29:59.559144  2641 layer_factory.hpp:74] Creating layer crop
I0817 22:29:59.559147  2641 net.cpp:85] Creating Layer crop
I0817 22:29:59.559150  2641 net.cpp:381] crop <- bigscore
I0817 22:29:59.559154  2641 net.cpp:381] crop <- data_data_0_split_1
I0817 22:29:59.559159  2641 net.cpp:339] crop -> upscore
I0817 22:29:59.559164  2641 net.cpp:114] Setting up crop
I0817 22:29:59.559209  2641 net.cpp:121] Top shape: 1 2 388 388 (301088)
I0817 22:29:59.559213  2641 layer_factory.hpp:74] Creating layer loss
I0817 22:29:59.559218  2641 net.cpp:85] Creating Layer loss
I0817 22:29:59.559221  2641 net.cpp:381] loss <- upscore
I0817 22:29:59.559226  2641 net.cpp:381] loss <- label
I0817 22:29:59.559231  2641 net.cpp:339] loss -> loss
I0817 22:29:59.559242  2641 net.cpp:114] Setting up loss
I0817 22:29:59.559248  2641 layer_factory.hpp:74] Creating layer loss
…
I0817 22:29:59.561300  2641 net.cpp:42] Initializing net from parameters: 
name: "FCN"
state {
  phase: TEST
}
layer {
  name: "data"
  type: "ImageSegData"
  top: "data"
  top: "label"
  include {
    phase: TEST
  }
  transform_param {
    mirror: true
    crop_size: 388
    mean_value: 104.008
    mean_value: 116.669
    mean_value: 122.675
  }
  image_data_param {
    source: "/media/BigDisk/xiaoyong/datafrommac/ourfacedata_train_2/ourtestdatalist.txt"
    batch_size: 1
    shuffle: true
    root_folder: ""
    ignore_label: 255
    label_type: PIXEL
  }
}
layer {
  name: "conv1_1"
  type: "Convolution"
  bottom: "data"
  top: "conv1_1"
  param {
    lr_mult: 1
    decay_mult: 1
  }
  param {
    lr_mult: 2
    decay_mult: 0
  }
  convolution_param {
    num_output: 64
    pad: 100
    kernel_size: 3
    engine: CAFFE
  }
}
layer {
  name: "relu1_1"
  type: "ReLU"
  bottom: "conv1_1"
  top: "conv1_1"
}
layer {
  name: "conv1_2"
  type: "Convolution"
  bottom: "conv1_1"
  top: "conv1_2"
  param {
    lr_mult: 1
    decay_mult: 1
  }
  param {
    lr_mult: 2
    decay_mult: 0
  }
  convolution_param {
    num_output: 64
    pad: 1
    kernel_size: 3
    engine: CAFFE
  }
}
layer {
  name: "relu1_2"
  type: "ReLU"
  bottom: "conv1_2"
  top: "conv1_2"
}
layer {
  name: "pool1"
  type: "Pooling"
  bottom: "conv1_2"
  top: "pool1"
  pooling_param {
    pool: MAX
    kernel_size: 2
    stride: 2
  }
}
layer {
  name: "conv2_1"
  type: "Convolution"
  bottom: "pool1"
  top: "conv2_1"
  param {
    lr_mult: 1
    decay_mult: 1
  }
  param {
    lr_mult: 2
    decay_mult: 0
  }
  convolution_param {
    num_output: 128
    pad: 1
    kernel_size: 3
    engine: CAFFE
  }
}
layer {
  name: "relu2_1"
  type: "ReLU"
  bottom: "conv2_1"
  top: "conv2_1"
}
layer {
  name: "conv2_2"
  type: "Convolution"
  bottom: "conv2_1"
  top: "conv2_2"
  param {
    lr_mult: 1
    decay_mult: 1
  }
  param {
    lr_mult: 2
    decay_mult: 0
  }
  convolution_param {
    num_output: 128
    pad: 1
    kernel_size: 3
    engine: CAFFE
  }
}
layer {
  name: "relu2_2"
  type: "ReLU"
  bottom: "conv2_2"
  top: "conv2_2"
}
layer {
  name: "pool2"
  type: "Pooling"
  bottom: "conv2_2"
  top: "pool2"
  pooling_param {
    pool: MAX
    kernel_size: 2
    stride: 2
  }
}
layer {
  name: "conv3_1"
  type: "Convolution"
  bottom: "pool2"
  top: "conv3_1"
  param {
    lr_mult: 1
    decay_mult: 1
  }
  param {
    lr_mult: 2
    decay_mult: 0
  }
  convolution_param {
    num_output: 256
    pad: 1
    kernel_size: 3
    engine: CAFFE
  }
}
layer {
  name: "relu3_1"
  type: "ReLU"
  bottom: "conv3_1"
  top: "conv3_1"
}
layer {
  name: "conv3_2"
  type: "Convolution"
  bottom: "conv3_1"
  top: "conv3_2"
  param {
    lr_mult: 1
    decay_mult: 1
  }
  param {
    lr_mult: 2
    decay_mult: 0
  }
  convolution_param {
    num_output: 256
    pad: 1
    kernel_size: 3
    engine: CAFFE
  }
}
layer {
  name: "relu3_2"
  type: "ReLU"
  bottom: "conv3_2"
  top: "conv3_2"
}
layer {
  name: "conv3_3"
  type: "Convolution"
  bottom: "conv3_2"
  top: "conv3_3"
  param {
    lr_mult: 1
    decay_mult: 1
  }
  param {
    lr_mult: 2
    decay_mult: 0
  }
  convolution_param {
    num_output: 256
    pad: 1
    kernel_size: 3
    engine: CAFFE
  }
}
layer {
  name: "relu3_3"
  type: "ReLU"
  bottom: "conv3_3"
  top: "conv3_3"
}
layer {
  name: "pool3"
  type: "Pooling"
  bottom: "conv3_3"
  top: "pool3"
  pooling_param {
    pool: MAX
    kernel_size: 2
    stride: 2
  }
}
layer {
  name: "conv4_1"
  type: "Convolution"
  bottom: "pool3"
  top: "conv4_1"
  param {
    lr_mult: 1
    decay_mult: 1
  }
  param {
    lr_mult: 2
    decay_mult: 0
  }
  convolution_param {
    num_output: 512
    pad: 1
    kernel_size: 3
    engine: CAFFE
  }
}
layer {
  name: "relu4_1"
  type: "ReLU"
  bottom: "conv4_1"
  top: "conv4_1"
}
layer {
  name: "conv4_2"
  type: "Convolution"
  bottom: "conv4_1"
  top: "conv4_2"
  param {
    lr_mult: 1
    decay_mult: 1
  }
  param {
    lr_mult: 2
    decay_mult: 0
  }
  convolution_param {
    num_output: 512
    pad: 1
    kernel_size: 3
    engine: CAFFE
  }
}
layer {
  name: "relu4_2"
  type: "ReLU"
  bottom: "conv4_2"
  top: "conv4_2"
}
layer {
  name: "conv4_3"
  type: "Convolution"
  bottom: "conv4_2"
  top: "conv4_3"
  param {
    lr_mult: 1
    decay_mult: 1
  }
  param {
    lr_mult: 2
    decay_mult: 0
  }
  convolution_param {
    num_output: 512
    pad: 1
    kernel_size: 3
    engine: CAFFE
  }
}
layer {
  name: "relu4_3"
  type: "ReLU"
  bottom: "conv4_3"
  top: "conv4_3"
}
layer {
  name: "pool4"
  type: "Pooling"
  bottom: "conv4_3"
  top: "pool4"
  pooling_param {
    pool: MAX
    kernel_size: 2
    stride: 2
  }
}
layer {
  name: "conv5_1"
  type: "Convolution"
  bottom: "pool4"
  top: "conv5_1"
  param {
    lr_mult: 1
    decay_mult: 1
  }
  param {
    lr_mult: 2
    decay_mult: 0
  }
  convolution_param {
    num_output: 512
    pad: 1
    kernel_size: 3
    engine: CAFFE
  }
}
layer {
  name: "relu5_1"
  type: "ReLU"
  bottom: "conv5_1"
  top: "conv5_1"
}
layer {
  name: "conv5_2"
  type: "Convolution"
  bottom: "conv5_1"
  top: "conv5_2"
  param {
    lr_mult: 1
    decay_mult: 1
  }
  param {
    lr_mult: 2
    decay_mult: 0
  }
  convolution_param {
    num_output: 512
    pad: 1
    kernel_size: 3
    engine: CAFFE
  }
}
layer {
  name: "relu5_2"
  type: "ReLU"
  bottom: "conv5_2"
  top: "conv5_2"
}
layer {
  name: "conv5_3"
  type: "Convolution"
  bottom: "conv5_2"
  top: "conv5_3"
  param {
    lr_mult: 1
    decay_mult: 1
  }
  param {
    lr_mult: 2
    decay_mult: 0
  }
  convolution_param {
    num_output: 512
    pad: 1
    kernel_size: 3
    engine: CAFFE
  }
}
layer {
  name: "relu5_3"
  type: "ReLU"
  bottom: "conv5_3"
  top: "conv5_3"
}
layer {
  name: "pool5"
  type: "Pooling"
  bottom: "conv5_3"
  top: "pool5"
  pooling_param {
    pool: MAX
    kernel_size: 2
    stride: 2
  }
}
layer {
  name: "fc6"
  type: "Convolution"
  bottom: "pool5"
  top: "fc6"
  param {
    lr_mult: 1
    decay_mult: 1
  }
  param {
    lr_mult: 2
    decay_mult: 0
  }
  convolution_param {
    num_output: 4096
    kernel_size: 7
    engine: CAFFE
  }
}
layer {
  name: "relu6"
  type: "ReLU"
  bottom: "fc6"
  top: "fc6"
}
layer {
  name: "drop6"
  type: "Dropout"
  bottom: "fc6"
  top: "fc6"
  dropout_param {
    dropout_ratio: 0.5
  }
}
layer {
  name: "fc7"
  type: "Convolution"
  bottom: "fc6"
  top: "fc7"
  param {
    lr_mult: 1
    decay_mult: 1
  }
  param {
    lr_mult: 2
    decay_mult: 0
  }
  convolution_param {
    num_output: 4096
    kernel_size: 1
    engine: CAFFE
  }
}
layer {
  name: "relu7"
  type: "ReLU"
  bottom: "fc7"
  top: "fc7"
}
layer {
  name: "drop7"
  type: "Dropout"
  bottom: "fc7"
  top: "fc7"
  dropout_param {
    dropout_ratio: 0.5
  }
}
layer {
  name: "score-fr"
  type: "Convolution"
  bottom: "fc7"
  top: "score"
  param {
    lr_mult: 1
    decay_mult: 1
  }
  param {
    lr_mult: 2
    decay_mult: 0
  }
  convolution_param {
    num_output: 2
    kernel_size: 1
    engine: CAFFE
  }
}
layer {
  name: "score2"
  type: "Deconvolution"
  bottom: "score"
  top: "score2"
  param {
    lr_mult: 1
    decay_mult: 1
  }
  param {
    lr_mult: 2
    decay_mult: 0
  }
  convolution_param {
    num_output: 2
    kernel_size: 4
    stride: 2
  }
}
layer {
  name: "score-pool4"
  type: "Convolution"
  bottom: "pool4"
  top: "score-pool4"
  param {
    lr_mult: 1
    decay_mult: 1
  }
  param {
    lr_mult: 2
    decay_mult: 0
  }
  convolution_param {
    num_output: 2
    kernel_size: 1
    engine: CAFFE
  }
}
layer {
  name: "crop"
  type: "Crop"
  bottom: "score-pool4"
  bottom: "score2"
  top: "score-pool4c"
}
layer {
  name: "fuse"
  type: "Eltwise"
  bottom: "score2"
  bottom: "score-pool4c"
  top: "score-fused"
  eltwise_param {
    operation: SUM
  }
}
layer {
  name: "score4"
  type: "Deconvolution"
  bottom: "score-fused"
  top: "score4"
  param {
    lr_mult: 1
    decay_mult: 1
  }
  convolution_param {
    num_output: 2
    bias_term: false
    kernel_size: 4
    stride: 2
  }
}
layer {
  name: "score-pool3"
  type: "Convolution"
  bottom: "pool3"
  top: "score-pool3"
  param {
    lr_mult: 1
    decay_mult: 1
  }
  param {
    lr_mult: 2
    decay_mult: 0
  }
  convolution_param {
    num_output: 2
    kernel_size: 1
    engine: CAFFE
  }
}
layer {
  name: "crop"
  type: "Crop"
  bottom: "score-pool3"
  bottom: "score4"
  top: "score-pool3c"
}
layer {
  name: "fuse"
  type: "Eltwise"
  bottom: "score4"
  bottom: "score-pool3c"
  top: "score-final"
  eltwise_param {
    operation: SUM
  }
}
layer {
  name: "upsample"
  type: "Deconvolution"
  bottom: "score-final"
  top: "bigscore"
  param {
    lr_mult: 1
  }
  convolution_param {
    num_output: 2
    bias_term: false
    kernel_size: 16
    stride: 8
  }
}
layer {
  name: "crop"
  type: "Crop"
  bottom: "bigscore"
  bottom: "data"
  top: "upscore"
}
layer {
  name: "loss"
  type: "SoftmaxWithLoss"
  bottom: "upscore"
  bottom: "label"
  top: "loss"
  loss_param {
    ignore_label: 255
  }
}
layer {
  name: "accuracy"
  type: "SegAccuracy"
  bottom: "upscore"
  bottom: "label"
  top: "accuracy"
  include {
    phase: TEST
  }
  seg_accuracy_param {
    ignore_label: 255
  }
}
I0817 22:29:59.561480  2641 layer_factory.hpp:74] Creating layer data
I0817 22:29:59.561489  2641 net.cpp:85] Creating Layer data
I0817 22:29:59.561496  2641 net.cpp:339] data -> data
I0817 22:29:59.561503  2641 net.cpp:339] data -> label
I0817 22:29:59.561511  2641 net.cpp:339] data -> (automatic)
I0817 22:29:59.561517  2641 net.cpp:114] Setting up data
I0817 22:29:59.561523  2641 image_seg_data_layer.cpp:46] Opening file /media/BigDisk/xiaoyong/datafrommac/ourfacedata_train_2/ourtestdatalist.txt
I0817 22:29:59.561868  2641 image_seg_data_layer.cpp:63] Shuffling data
I0817 22:29:59.561915  2641 image_seg_data_layer.cpp:68] A total of 355 images.
I0817 22:29:59.572724  2641 image_seg_data_layer.cpp:114] output data size: 1,3,388,388
I0817 22:29:59.572736  2641 image_seg_data_layer.cpp:118] output label size: 1,1,388,388
I0817 22:29:59.572741  2641 image_seg_data_layer.cpp:122] output data_dim size: 1,1,1,2
I0817 22:29:59.573099  2641 net.cpp:121] Top shape: 1 3 388 388 (451632)
I0817 22:29:59.573107  2641 net.cpp:121] Top shape: 1 1 388 388 (150544)
I0817 22:29:59.573110  2641 net.cpp:121] Top shape: 1 1 1 2 (2)
I0817 22:29:59.573114  2641 layer_factory.hpp:74] Creating layer data_data_0_split
I0817 22:29:59.573120  2641 net.cpp:85] Creating Layer data_data_0_split
I0817 22:29:59.573124  2641 net.cpp:381] data_data_0_split <- data
I0817 22:29:59.573130  2641 net.cpp:339] data_data_0_split -> data_data_0_split_0
I0817 22:29:59.573137  2641 net.cpp:339] data_data_0_split -> data_data_0_split_1
I0817 22:29:59.573143  2641 net.cpp:114] Setting up data_data_0_split
I0817 22:29:59.573148  2641 net.cpp:121] Top shape: 1 3 388 388 (451632)
I0817 22:29:59.573151  2641 net.cpp:121] Top shape: 1 3 388 388 (451632)
I0817 22:29:59.573155  2641 layer_factory.hpp:74] Creating layer label_data_1_split
I0817 22:29:59.573160  2641 net.cpp:85] Creating Layer label_data_1_split
I0817 22:29:59.573163  2641 net.cpp:381] label_data_1_split <- label
I0817 22:29:59.573168  2641 net.cpp:339] label_data_1_split -> label_data_1_split_0
I0817 22:29:59.573173  2641 net.cpp:339] label_data_1_split -> label_data_1_split_1
I0817 22:29:59.573178  2641 net.cpp:114] Setting up label_data_1_split
I0817 22:29:59.573194  2641 net.cpp:121] Top shape: 1 1 388 388 (150544)
I0817 22:29:59.573197  2641 net.cpp:121] Top shape: 1 1 388 388 (150544)
I0817 22:29:59.573201  2641 layer_factory.hpp:74] Creating layer conv1_1
I0817 22:29:59.573206  2641 net.cpp:85] Creating Layer conv1_1
I0817 22:29:59.573210  2641 net.cpp:381] conv1_1 <- data_data_0_split_0
I0817 22:29:59.573215  2641 net.cpp:339] conv1_1 -> conv1_1
I0817 22:29:59.573220  2641 net.cpp:114] Setting up conv1_1
I0817 22:29:59.573802  2641 net.cpp:121] Top shape: 1 64 586 586 (21977344)
I0817 22:29:59.573813  2641 layer_factory.hpp:74] Creating layer relu1_1
I0817 22:29:59.573822  2641 net.cpp:85] Creating Layer relu1_1
I0817 22:29:59.573824  2641 net.cpp:381] relu1_1 <- conv1_1
I0817 22:29:59.573829  2641 net.cpp:328] relu1_1 -> conv1_1 (in-place)
I0817 22:29:59.573834  2641 net.cpp:114] Setting up relu1_1
I0817 22:29:59.573838  2641 net.cpp:121] Top shape: 1 64 586 586 (21977344)
I0817 22:29:59.573842  2641 layer_factory.hpp:74] Creating layer conv1_2
I0817 22:29:59.573848  2641 net.cpp:85] Creating Layer conv1_2
I0817 22:29:59.573851  2641 net.cpp:381] conv1_2 <- conv1_1
I0817 22:29:59.573855  2641 net.cpp:339] conv1_2 -> conv1_2
I0817 22:29:59.573861  2641 net.cpp:114] Setting up conv1_2
I0817 22:29:59.574429  2641 net.cpp:121] Top shape: 1 64 586 586 (21977344)
I0817 22:29:59.574439  2641 layer_factory.hpp:74] Creating layer relu1_2
I0817 22:29:59.574445  2641 net.cpp:85] Creating Layer relu1_2
I0817 22:29:59.574448  2641 net.cpp:381] relu1_2 <- conv1_2
I0817 22:29:59.574453  2641 net.cpp:328] relu1_2 -> conv1_2 (in-place)
I0817 22:29:59.574457  2641 net.cpp:114] Setting up relu1_2
I0817 22:29:59.574462  2641 net.cpp:121] Top shape: 1 64 586 586 (21977344)
I0817 22:29:59.574465  2641 layer_factory.hpp:74] Creating layer pool1
I0817 22:29:59.574470  2641 net.cpp:85] Creating Layer pool1
I0817 22:29:59.574473  2641 net.cpp:381] pool1 <- conv1_2
I0817 22:29:59.574478  2641 net.cpp:339] pool1 -> pool1
I0817 22:29:59.574482  2641 net.cpp:114] Setting up pool1
I0817 22:29:59.574489  2641 net.cpp:121] Top shape: 1 64 293 293 (5494336)
I0817 22:29:59.574492  2641 layer_factory.hpp:74] Creating layer conv2_1
I0817 22:29:59.574498  2641 net.cpp:85] Creating Layer conv2_1
I0817 22:29:59.574501  2641 net.cpp:381] conv2_1 <- pool1
I0817 22:29:59.574506  2641 net.cpp:339] conv2_1 -> conv2_1
I0817 22:29:59.574512  2641 net.cpp:114] Setting up conv2_1
I0817 22:29:59.574770  2641 net.cpp:121] Top shape: 1 128 293 293 (10988672)
I0817 22:29:59.574780  2641 layer_factory.hpp:74] Creating layer relu2_1
I0817 22:29:59.574785  2641 net.cpp:85] Creating Layer relu2_1
I0817 22:29:59.574789  2641 net.cpp:381] relu2_1 <- conv2_1
I0817 22:29:59.574794  2641 net.cpp:328] relu2_1 -> conv2_1 (in-place)
I0817 22:29:59.574797  2641 net.cpp:114] Setting up relu2_1
I0817 22:29:59.574802  2641 net.cpp:121] Top shape: 1 128 293 293 (10988672)
I0817 22:29:59.574805  2641 layer_factory.hpp:74] Creating layer conv2_2
I0817 22:29:59.574810  2641 net.cpp:85] Creating Layer conv2_2
I0817 22:29:59.574812  2641 net.cpp:381] conv2_2 <- conv2_1
I0817 22:29:59.574821  2641 net.cpp:339] conv2_2 -> conv2_2
I0817 22:29:59.574827  2641 net.cpp:114] Setting up conv2_2
I0817 22:29:59.575175  2641 net.cpp:121] Top shape: 1 128 293 293 (10988672)
I0817 22:29:59.575183  2641 layer_factory.hpp:74] Creating layer relu2_2
I0817 22:29:59.575188  2641 net.cpp:85] Creating Layer relu2_2
I0817 22:29:59.575191  2641 net.cpp:381] relu2_2 <- conv2_2
I0817 22:29:59.575196  2641 net.cpp:328] relu2_2 -> conv2_2 (in-place)
I0817 22:29:59.575199  2641 net.cpp:114] Setting up relu2_2
I0817 22:29:59.575203  2641 net.cpp:121] Top shape: 1 128 293 293 (10988672)
I0817 22:29:59.575206  2641 layer_factory.hpp:74] Creating layer pool2
I0817 22:29:59.575211  2641 net.cpp:85] Creating Layer pool2
I0817 22:29:59.575213  2641 net.cpp:381] pool2 <- conv2_2
I0817 22:29:59.575219  2641 net.cpp:339] pool2 -> pool2
I0817 22:29:59.575224  2641 net.cpp:114] Setting up pool2
I0817 22:29:59.575229  2641 net.cpp:121] Top shape: 1 128 147 147 (2765952)
I0817 22:29:59.575232  2641 layer_factory.hpp:74] Creating layer conv3_1
I0817 22:29:59.575237  2641 net.cpp:85] Creating Layer conv3_1
I0817 22:29:59.575242  2641 net.cpp:381] conv3_1 <- pool2
I0817 22:29:59.575247  2641 net.cpp:339] conv3_1 -> conv3_1
I0817 22:29:59.575251  2641 net.cpp:114] Setting up conv3_1
I0817 22:29:59.575724  2641 net.cpp:121] Top shape: 1 256 147 147 (5531904)
I0817 22:29:59.575734  2641 layer_factory.hpp:74] Creating layer relu3_1
I0817 22:29:59.575739  2641 net.cpp:85] Creating Layer relu3_1
I0817 22:29:59.575742  2641 net.cpp:381] relu3_1 <- conv3_1
I0817 22:29:59.575747  2641 net.cpp:328] relu3_1 -> conv3_1 (in-place)
I0817 22:29:59.575752  2641 net.cpp:114] Setting up relu3_1
I0817 22:29:59.575755  2641 net.cpp:121] Top shape: 1 256 147 147 (5531904)
I0817 22:29:59.575758  2641 layer_factory.hpp:74] Creating layer conv3_2
I0817 22:29:59.575763  2641 net.cpp:85] Creating Layer conv3_2
I0817 22:29:59.575767  2641 net.cpp:381] conv3_2 <- conv3_1
I0817 22:29:59.575773  2641 net.cpp:339] conv3_2 -> conv3_2
I0817 22:29:59.575777  2641 net.cpp:114] Setting up conv3_2
I0817 22:29:59.576691  2641 net.cpp:121] Top shape: 1 256 147 147 (5531904)
I0817 22:29:59.576700  2641 layer_factory.hpp:74] Creating layer relu3_2
I0817 22:29:59.576706  2641 net.cpp:85] Creating Layer relu3_2
I0817 22:29:59.576709  2641 net.cpp:381] relu3_2 <- conv3_2
I0817 22:29:59.576715  2641 net.cpp:328] relu3_2 -> conv3_2 (in-place)
I0817 22:29:59.576719  2641 net.cpp:114] Setting up relu3_2
I0817 22:29:59.576724  2641 net.cpp:121] Top shape: 1 256 147 147 (5531904)
I0817 22:29:59.576726  2641 layer_factory.hpp:74] Creating layer conv3_3
I0817 22:29:59.576731  2641 net.cpp:85] Creating Layer conv3_3
I0817 22:29:59.576735  2641 net.cpp:381] conv3_3 <- conv3_2
I0817 22:29:59.576743  2641 net.cpp:339] conv3_3 -> conv3_3
I0817 22:29:59.576748  2641 net.cpp:114] Setting up conv3_3
I0817 22:29:59.577653  2641 net.cpp:121] Top shape: 1 256 147 147 (5531904)
I0817 22:29:59.577662  2641 layer_factory.hpp:74] Creating layer relu3_3
I0817 22:29:59.577666  2641 net.cpp:85] Creating Layer relu3_3
I0817 22:29:59.577671  2641 net.cpp:381] relu3_3 <- conv3_3
I0817 22:29:59.577675  2641 net.cpp:328] relu3_3 -> conv3_3 (in-place)
I0817 22:29:59.577680  2641 net.cpp:114] Setting up relu3_3
I0817 22:29:59.577684  2641 net.cpp:121] Top shape: 1 256 147 147 (5531904)
I0817 22:29:59.577687  2641 layer_factory.hpp:74] Creating layer pool3
I0817 22:29:59.577700  2641 net.cpp:85] Creating Layer pool3
I0817 22:29:59.577703  2641 net.cpp:381] pool3 <- conv3_3
I0817 22:29:59.577708  2641 net.cpp:339] pool3 -> pool3
I0817 22:29:59.577713  2641 net.cpp:114] Setting up pool3
I0817 22:29:59.577719  2641 net.cpp:121] Top shape: 1 256 74 74 (1401856)
I0817 22:29:59.577723  2641 layer_factory.hpp:74] Creating layer pool3_pool3_0_split
I0817 22:29:59.577728  2641 net.cpp:85] Creating Layer pool3_pool3_0_split
I0817 22:29:59.577731  2641 net.cpp:381] pool3_pool3_0_split <- pool3
I0817 22:29:59.577736  2641 net.cpp:339] pool3_pool3_0_split -> pool3_pool3_0_split_0
I0817 22:29:59.577740  2641 net.cpp:339] pool3_pool3_0_split -> pool3_pool3_0_split_1
I0817 22:29:59.577745  2641 net.cpp:114] Setting up pool3_pool3_0_split
I0817 22:29:59.577751  2641 net.cpp:121] Top shape: 1 256 74 74 (1401856)
I0817 22:29:59.577755  2641 net.cpp:121] Top shape: 1 256 74 74 (1401856)
I0817 22:29:59.577759  2641 layer_factory.hpp:74] Creating layer conv4_1
I0817 22:29:59.577764  2641 net.cpp:85] Creating Layer conv4_1
I0817 22:29:59.577766  2641 net.cpp:381] conv4_1 <- pool3_pool3_0_split_0
I0817 22:29:59.577770  2641 net.cpp:339] conv4_1 -> conv4_1
I0817 22:29:59.577775  2641 net.cpp:114] Setting up conv4_1
I0817 22:29:59.586709  2641 net.cpp:121] Top shape: 1 512 74 74 (2803712)
I0817 22:29:59.586719  2641 layer_factory.hpp:74] Creating layer relu4_1
I0817 22:29:59.586725  2641 net.cpp:85] Creating Layer relu4_1
I0817 22:29:59.586730  2641 net.cpp:381] relu4_1 <- conv4_1
I0817 22:29:59.586733  2641 net.cpp:328] relu4_1 -> conv4_1 (in-place)
I0817 22:29:59.586738  2641 net.cpp:114] Setting up relu4_1
I0817 22:29:59.586742  2641 net.cpp:121] Top shape: 1 512 74 74 (2803712)
I0817 22:29:59.586745  2641 layer_factory.hpp:74] Creating layer conv4_2
I0817 22:29:59.586755  2641 net.cpp:85] Creating Layer conv4_2
I0817 22:29:59.586757  2641 net.cpp:381] conv4_2 <- conv4_1
I0817 22:29:59.586762  2641 net.cpp:339] conv4_2 -> conv4_2
I0817 22:29:59.586767  2641 net.cpp:114] Setting up conv4_2
I0817 22:29:59.600800  2641 net.cpp:121] Top shape: 1 512 74 74 (2803712)
I0817 22:29:59.600816  2641 layer_factory.hpp:74] Creating layer relu4_2
I0817 22:29:59.600823  2641 net.cpp:85] Creating Layer relu4_2
I0817 22:29:59.600827  2641 net.cpp:381] relu4_2 <- conv4_2
I0817 22:29:59.600832  2641 net.cpp:328] relu4_2 -> conv4_2 (in-place)
I0817 22:29:59.600837  2641 net.cpp:114] Setting up relu4_2
I0817 22:29:59.600852  2641 net.cpp:121] Top shape: 1 512 74 74 (2803712)
I0817 22:29:59.600855  2641 layer_factory.hpp:74] Creating layer conv4_3
I0817 22:29:59.600862  2641 net.cpp:85] Creating Layer conv4_3
I0817 22:29:59.600865  2641 net.cpp:381] conv4_3 <- conv4_2
I0817 22:29:59.600869  2641 net.cpp:339] conv4_3 -> conv4_3
I0817 22:29:59.600874  2641 net.cpp:114] Setting up conv4_3
I0817 22:29:59.622048  2641 net.cpp:121] Top shape: 1 512 74 74 (2803712)
I0817 22:29:59.622073  2641 layer_factory.hpp:74] Creating layer relu4_3
I0817 22:29:59.622083  2641 net.cpp:85] Creating Layer relu4_3
I0817 22:29:59.622089  2641 net.cpp:381] relu4_3 <- conv4_3
I0817 22:29:59.622099  2641 net.cpp:328] relu4_3 -> conv4_3 (in-place)
I0817 22:29:59.622107  2641 net.cpp:114] Setting up relu4_3
I0817 22:29:59.622113  2641 net.cpp:121] Top shape: 1 512 74 74 (2803712)
I0817 22:29:59.622118  2641 layer_factory.hpp:74] Creating layer pool4
I0817 22:29:59.622125  2641 net.cpp:85] Creating Layer pool4
I0817 22:29:59.622129  2641 net.cpp:381] pool4 <- conv4_3
I0817 22:29:59.622138  2641 net.cpp:339] pool4 -> pool4
I0817 22:29:59.622144  2641 net.cpp:114] Setting up pool4
I0817 22:29:59.622153  2641 net.cpp:121] Top shape: 1 512 37 37 (700928)
I0817 22:29:59.622156  2641 layer_factory.hpp:74] Creating layer pool4_pool4_0_split
I0817 22:29:59.622162  2641 net.cpp:85] Creating Layer pool4_pool4_0_split
I0817 22:29:59.622166  2641 net.cpp:381] pool4_pool4_0_split <- pool4
I0817 22:29:59.622172  2641 net.cpp:339] pool4_pool4_0_split -> pool4_pool4_0_split_0
I0817 22:29:59.622179  2641 net.cpp:339] pool4_pool4_0_split -> pool4_pool4_0_split_1
I0817 22:29:59.622206  2641 net.cpp:114] Setting up pool4_pool4_0_split
I0817 22:29:59.622215  2641 net.cpp:121] Top shape: 1 512 37 37 (700928)
I0817 22:29:59.622220  2641 net.cpp:121] Top shape: 1 512 37 37 (700928)
I0817 22:29:59.622223  2641 layer_factory.hpp:74] Creating layer conv5_1
I0817 22:29:59.622233  2641 net.cpp:85] Creating Layer conv5_1
I0817 22:29:59.622237  2641 net.cpp:381] conv5_1 <- pool4_pool4_0_split_0
I0817 22:29:59.622244  2641 net.cpp:339] conv5_1 -> conv5_1
I0817 22:29:59.622252  2641 net.cpp:114] Setting up conv5_1
I0817 22:29:59.665952  2641 net.cpp:121] Top shape: 1 512 37 37 (700928)
I0817 22:29:59.665982  2641 layer_factory.hpp:74] Creating layer relu5_1
I0817 22:29:59.665992  2641 net.cpp:85] Creating Layer relu5_1
I0817 22:29:59.665997  2641 net.cpp:381] relu5_1 <- conv5_1
I0817 22:29:59.666003  2641 net.cpp:328] relu5_1 -> conv5_1 (in-place)
I0817 22:29:59.666012  2641 net.cpp:114] Setting up relu5_1
I0817 22:29:59.666018  2641 net.cpp:121] Top shape: 1 512 37 37 (700928)
I0817 22:29:59.666021  2641 layer_factory.hpp:74] Creating layer conv5_2
I0817 22:29:59.666028  2641 net.cpp:85] Creating Layer conv5_2
I0817 22:29:59.666033  2641 net.cpp:381] conv5_2 <- conv5_1
I0817 22:29:59.666039  2641 net.cpp:339] conv5_2 -> conv5_2
I0817 22:29:59.666046  2641 net.cpp:114] Setting up conv5_2
I0817 22:29:59.696142  2641 net.cpp:121] Top shape: 1 512 37 37 (700928)
I0817 22:29:59.696161  2641 layer_factory.hpp:74] Creating layer relu5_2
I0817 22:29:59.696176  2641 net.cpp:85] Creating Layer relu5_2
I0817 22:29:59.696180  2641 net.cpp:381] relu5_2 <- conv5_2
I0817 22:29:59.696188  2641 net.cpp:328] relu5_2 -> conv5_2 (in-place)
I0817 22:29:59.696194  2641 net.cpp:114] Setting up relu5_2
I0817 22:29:59.696200  2641 net.cpp:121] Top shape: 1 512 37 37 (700928)
I0817 22:29:59.696203  2641 layer_factory.hpp:74] Creating layer conv5_3
I0817 22:29:59.696213  2641 net.cpp:85] Creating Layer conv5_3
I0817 22:29:59.696215  2641 net.cpp:381] conv5_3 <- conv5_2
I0817 22:29:59.696221  2641 net.cpp:339] conv5_3 -> conv5_3
I0817 22:29:59.696228  2641 net.cpp:114] Setting up conv5_3
I0817 22:29:59.725970  2641 net.cpp:121] Top shape: 1 512 37 37 (700928)
I0817 22:29:59.725988  2641 layer_factory.hpp:74] Creating layer relu5_3
I0817 22:29:59.725997  2641 net.cpp:85] Creating Layer relu5_3
I0817 22:29:59.726001  2641 net.cpp:381] relu5_3 <- conv5_3
I0817 22:29:59.726008  2641 net.cpp:328] relu5_3 -> conv5_3 (in-place)
I0817 22:29:59.726014  2641 net.cpp:114] Setting up relu5_3
I0817 22:29:59.726019  2641 net.cpp:121] Top shape: 1 512 37 37 (700928)
I0817 22:29:59.726022  2641 layer_factory.hpp:74] Creating layer pool5
I0817 22:29:59.726028  2641 net.cpp:85] Creating Layer pool5
I0817 22:29:59.726032  2641 net.cpp:381] pool5 <- conv5_3
I0817 22:29:59.726043  2641 net.cpp:339] pool5 -> pool5
I0817 22:29:59.726050  2641 net.cpp:114] Setting up pool5
I0817 22:29:59.726058  2641 net.cpp:121] Top shape: 1 512 19 19 (184832)
I0817 22:29:59.726063  2641 layer_factory.hpp:74] Creating layer fc6
I0817 22:29:59.726069  2641 net.cpp:85] Creating Layer fc6
I0817 22:29:59.726073  2641 net.cpp:381] fc6 <- pool5
I0817 22:29:59.726079  2641 net.cpp:339] fc6 -> fc6
I0817 22:29:59.726084  2641 net.cpp:114] Setting up fc6
I0817 22:30:01.288966  2641 net.cpp:121] Top shape: 1 4096 13 13 (692224)
I0817 22:30:01.289003  2641 layer_factory.hpp:74] Creating layer relu6
I0817 22:30:01.289016  2641 net.cpp:85] Creating Layer relu6
I0817 22:30:01.289019  2641 net.cpp:381] relu6 <- fc6
I0817 22:30:01.289027  2641 net.cpp:328] relu6 -> fc6 (in-place)
I0817 22:30:01.289034  2641 net.cpp:114] Setting up relu6
I0817 22:30:01.289039  2641 net.cpp:121] Top shape: 1 4096 13 13 (692224)
I0817 22:30:01.289042  2641 layer_factory.hpp:74] Creating layer drop6
I0817 22:30:01.289050  2641 net.cpp:85] Creating Layer drop6
I0817 22:30:01.289053  2641 net.cpp:381] drop6 <- fc6
I0817 22:30:01.289057  2641 net.cpp:328] drop6 -> fc6 (in-place)
I0817 22:30:01.289062  2641 net.cpp:114] Setting up drop6
I0817 22:30:01.289067  2641 net.cpp:121] Top shape: 1 4096 13 13 (692224)
I0817 22:30:01.289091  2641 layer_factory.hpp:74] Creating layer fc7
I0817 22:30:01.289098  2641 net.cpp:85] Creating Layer fc7
I0817 22:30:01.289103  2641 net.cpp:381] fc7 <- fc6
I0817 22:30:01.289108  2641 net.cpp:339] fc7 -> fc7
I0817 22:30:01.289114  2641 net.cpp:114] Setting up fc7
I0817 22:30:01.526803  2641 net.cpp:121] Top shape: 1 4096 13 13 (692224)
I0817 22:30:01.526844  2641 layer_factory.hpp:74] Creating layer relu7
I0817 22:30:01.526854  2641 net.cpp:85] Creating Layer relu7
I0817 22:30:01.526859  2641 net.cpp:381] relu7 <- fc7
I0817 22:30:01.526865  2641 net.cpp:328] relu7 -> fc7 (in-place)
I0817 22:30:01.526871  2641 net.cpp:114] Setting up relu7
I0817 22:30:01.526876  2641 net.cpp:121] Top shape: 1 4096 13 13 (692224)
I0817 22:30:01.526880  2641 layer_factory.hpp:74] Creating layer drop7
I0817 22:30:01.526885  2641 net.cpp:85] Creating Layer drop7
I0817 22:30:01.526888  2641 net.cpp:381] drop7 <- fc7
I0817 22:30:01.526896  2641 net.cpp:328] drop7 -> fc7 (in-place)
I0817 22:30:01.526901  2641 net.cpp:114] Setting up drop7
I0817 22:30:01.526906  2641 net.cpp:121] Top shape: 1 4096 13 13 (692224)
I0817 22:30:01.526911  2641 layer_factory.hpp:74] Creating layer score-fr
I0817 22:30:01.526917  2641 net.cpp:85] Creating Layer score-fr
I0817 22:30:01.526921  2641 net.cpp:381] score-fr <- fc7
I0817 22:30:01.526926  2641 net.cpp:339] score-fr -> score
I0817 22:30:01.526932  2641 net.cpp:114] Setting up score-fr
I0817 22:30:01.526955  2641 net.cpp:121] Top shape: 1 2 13 13 (338)
I0817 22:30:01.526962  2641 layer_factory.hpp:74] Creating layer score2
I0817 22:30:01.526968  2641 net.cpp:85] Creating Layer score2
I0817 22:30:01.526973  2641 net.cpp:381] score2 <- score
I0817 22:30:01.526978  2641 net.cpp:339] score2 -> score2
I0817 22:30:01.526986  2641 net.cpp:114] Setting up score2
I0817 22:30:01.526999  2641 net.cpp:121] Top shape: 1 2 28 28 (1568)
I0817 22:30:01.527015  2641 layer_factory.hpp:74] Creating layer score2_score2_0_split
I0817 22:30:01.527020  2641 net.cpp:85] Creating Layer score2_score2_0_split
I0817 22:30:01.527024  2641 net.cpp:381] score2_score2_0_split <- score2
I0817 22:30:01.527029  2641 net.cpp:339] score2_score2_0_split -> score2_score2_0_split_0
I0817 22:30:01.527036  2641 net.cpp:339] score2_score2_0_split -> score2_score2_0_split_1
I0817 22:30:01.527041  2641 net.cpp:114] Setting up score2_score2_0_split
I0817 22:30:01.527046  2641 net.cpp:121] Top shape: 1 2 28 28 (1568)
I0817 22:30:01.527050  2641 net.cpp:121] Top shape: 1 2 28 28 (1568)
I0817 22:30:01.527053  2641 layer_factory.hpp:74] Creating layer score-pool4
I0817 22:30:01.527058  2641 net.cpp:85] Creating Layer score-pool4
I0817 22:30:01.527062  2641 net.cpp:381] score-pool4 <- pool4_pool4_0_split_1
I0817 22:30:01.527067  2641 net.cpp:339] score-pool4 -> score-pool4
I0817 22:30:01.527071  2641 net.cpp:114] Setting up score-pool4
I0817 22:30:01.527086  2641 net.cpp:121] Top shape: 1 2 37 37 (2738)
I0817 22:30:01.527091  2641 layer_factory.hpp:74] Creating layer crop
I0817 22:30:01.527096  2641 net.cpp:85] Creating Layer crop
I0817 22:30:01.527099  2641 net.cpp:381] crop <- score-pool4
I0817 22:30:01.527103  2641 net.cpp:381] crop <- score2_score2_0_split_0
I0817 22:30:01.527107  2641 net.cpp:339] crop -> score-pool4c
I0817 22:30:01.527112  2641 net.cpp:114] Setting up crop
I0817 22:30:01.527149  2641 net.cpp:121] Top shape: 1 2 28 28 (1568)
I0817 22:30:01.527153  2641 layer_factory.hpp:74] Creating layer fuse
I0817 22:30:01.527158  2641 net.cpp:85] Creating Layer fuse
I0817 22:30:01.527163  2641 net.cpp:381] fuse <- score2_score2_0_split_1
I0817 22:30:01.527166  2641 net.cpp:381] fuse <- score-pool4c
I0817 22:30:01.527171  2641 net.cpp:339] fuse -> score-fused
I0817 22:30:01.527176  2641 net.cpp:114] Setting up fuse
I0817 22:30:01.527182  2641 net.cpp:121] Top shape: 1 2 28 28 (1568)
I0817 22:30:01.527185  2641 layer_factory.hpp:74] Creating layer score4
I0817 22:30:01.527190  2641 net.cpp:85] Creating Layer score4
I0817 22:30:01.527194  2641 net.cpp:381] score4 <- score-fused
I0817 22:30:01.528600  2641 net.cpp:339] score4 -> score4
I0817 22:30:01.528610  2641 net.cpp:114] Setting up score4
I0817 22:30:01.528620  2641 net.cpp:121] Top shape: 1 2 58 58 (6728)
I0817 22:30:01.528625  2641 layer_factory.hpp:74] Creating layer score4_score4_0_split
I0817 22:30:01.528633  2641 net.cpp:85] Creating Layer score4_score4_0_split
I0817 22:30:01.528636  2641 net.cpp:381] score4_score4_0_split <- score4
I0817 22:30:01.528641  2641 net.cpp:339] score4_score4_0_split -> score4_score4_0_split_0
I0817 22:30:01.528646  2641 net.cpp:339] score4_score4_0_split -> score4_score4_0_split_1
I0817 22:30:01.528651  2641 net.cpp:114] Setting up score4_score4_0_split
I0817 22:30:01.528656  2641 net.cpp:121] Top shape: 1 2 58 58 (6728)
I0817 22:30:01.528661  2641 net.cpp:121] Top shape: 1 2 58 58 (6728)
I0817 22:30:01.528663  2641 layer_factory.hpp:74] Creating layer score-pool3
I0817 22:30:01.528669  2641 net.cpp:85] Creating Layer score-pool3
I0817 22:30:01.528672  2641 net.cpp:381] score-pool3 <- pool3_pool3_0_split_1
I0817 22:30:01.528677  2641 net.cpp:339] score-pool3 -> score-pool3
I0817 22:30:01.528682  2641 net.cpp:114] Setting up score-pool3
I0817 22:30:01.528697  2641 net.cpp:121] Top shape: 1 2 74 74 (10952)
I0817 22:30:01.528703  2641 layer_factory.hpp:74] Creating layer crop
I0817 22:30:01.528708  2641 net.cpp:85] Creating Layer crop
I0817 22:30:01.528712  2641 net.cpp:381] crop <- score-pool3
I0817 22:30:01.528717  2641 net.cpp:381] crop <- score4_score4_0_split_0
I0817 22:30:01.528720  2641 net.cpp:339] crop -> score-pool3c
I0817 22:30:01.528725  2641 net.cpp:114] Setting up crop
I0817 22:30:01.528760  2641 net.cpp:121] Top shape: 1 2 58 58 (6728)
I0817 22:30:01.528764  2641 layer_factory.hpp:74] Creating layer fuse
I0817 22:30:01.528769  2641 net.cpp:85] Creating Layer fuse
I0817 22:30:01.528772  2641 net.cpp:381] fuse <- score4_score4_0_split_1
I0817 22:30:01.528776  2641 net.cpp:381] fuse <- score-pool3c
I0817 22:30:01.528781  2641 net.cpp:339] fuse -> score-final
I0817 22:30:01.528786  2641 net.cpp:114] Setting up fuse
I0817 22:30:01.528791  2641 net.cpp:121] Top shape: 1 2 58 58 (6728)
I0817 22:30:01.528795  2641 layer_factory.hpp:74] Creating layer upsample
I0817 22:30:01.528800  2641 net.cpp:85] Creating Layer upsample
I0817 22:30:01.528803  2641 net.cpp:381] upsample <- score-final
I0817 22:30:01.528810  2641 net.cpp:339] upsample -> bigscore
I0817 22:30:01.528815  2641 net.cpp:114] Setting up upsample
I0817 22:30:01.528823  2641 net.cpp:121] Top shape: 1 2 472 472 (445568)
I0817 22:30:01.528827  2641 layer_factory.hpp:74] Creating layer crop
I0817 22:30:01.528833  2641 net.cpp:85] Creating Layer crop
I0817 22:30:01.528836  2641 net.cpp:381] crop <- bigscore
I0817 22:30:01.528841  2641 net.cpp:381] crop <- data_data_0_split_1
I0817 22:30:01.528844  2641 net.cpp:339] crop -> upscore
I0817 22:30:01.528849  2641 net.cpp:114] Setting up crop
I0817 22:30:01.528893  2641 net.cpp:121] Top shape: 1 2 388 388 (301088)
I0817 22:30:01.528898  2641 layer_factory.hpp:74] Creating layer upscore_crop_0_split
I0817 22:30:01.528902  2641 net.cpp:85] Creating Layer upscore_crop_0_split
I0817 22:30:01.528905  2641 net.cpp:381] upscore_crop_0_split <- upscore
I0817 22:30:01.528909  2641 net.cpp:339] upscore_crop_0_split -> upscore_crop_0_split_0
I0817 22:30:01.528915  2641 net.cpp:339] upscore_crop_0_split -> upscore_crop_0_split_1
I0817 22:30:01.528919  2641 net.cpp:114] Setting up upscore_crop_0_split
I0817 22:30:01.528924  2641 net.cpp:121] Top shape: 1 2 388 388 (301088)
I0817 22:30:01.528928  2641 net.cpp:121] Top shape: 1 2 388 388 (301088)
I0817 22:30:01.528931  2641 layer_factory.hpp:74] Creating layer loss
I0817 22:30:01.528937  2641 net.cpp:85] Creating Layer loss
I0817 22:30:01.528941  2641 net.cpp:381] loss <- upscore_crop_0_split_0
I0817 22:30:01.528945  2641 net.cpp:381] loss <- label_data_1_split_0
I0817 22:30:01.528950  2641 net.cpp:339] loss -> loss
I0817 22:30:01.528955  2641 net.cpp:114] Setting up loss
I0817 22:30:01.528960  2641 layer_factory.hpp:74] Creating layer loss
I0817 22:30:01.529428  2641 net.cpp:121] Top shape: (1)
I0817 22:30:01.529443  2641 net.cpp:123]     with loss weight 1
I0817 22:30:01.529450  2641 layer_factory.hpp:74] Creating layer accuracy
I0817 22:30:01.529460  2641 net.cpp:85] Creating Layer accuracy
I0817 22:30:01.529464  2641 net.cpp:381] accuracy <- upscore_crop_0_split_1
I0817 22:30:01.529469  2641 net.cpp:381] accuracy <- label_data_1_split_1
I0817 22:30:01.529474  2641 net.cpp:339] accuracy -> accuracy
I0817 22:30:01.529480  2641 net.cpp:114] Setting up accuracy
I0817 22:30:01.529491  2641 net.cpp:121] Top shape: 1 1 1 3 (3)
I0817 22:30:01.529495  2641 net.cpp:170] accuracy does not need backward computation.
I0817 22:30:01.529499  2641 net.cpp:168] loss needs backward computation.
I0817 22:30:01.529501  2641 net.cpp:168] upscore_crop_0_split needs backward computation.
I0817 22:30:01.529505  2641 net.cpp:168] crop needs backward computation.
I0817 22:30:01.529508  2641 net.cpp:168] upsample needs backward computation.
…
